models/model_added_mass_0_wave_frequency_n12.pth (torch, 256360 bytes, 4 tensors)

linear_relu_stack.0.weight f4 [1024, 25]
000000 96 75 f8 bc a2 81 57 be a7 51 2f 3e 54 96 53 bd
       -0.030329507 -0.21045545 0.17120992 -0.051657036
000010 34 00 02 3e c8 25 6f 3d c2 67 08 3e fc 33 e8 bd
       0.1269539 0.05838564 0.1332083 -0.1133804
000020 e4 67 4c be 64 11 31 be 0b 17 08 3d d4 48 51 3e
       -0.19961506 -0.1729179 0.0332251 0.20437938
000030 a9 01 28 be 50 7c f4 bd 17 7c a4 3c 8e 88 c3 3d
       -0.16406883 -0.11937773 0.020078702 0.0954753
000040 2d 80 df ba d8 a8 cd 3d 6d 77 ae bb bd 08 22 3e
       -0.0017051749 0.1004197 -0.0053242953 0.15823646
000050 20 df e3 bd 0b cf 04 3e 39 e4 c9 bd b5 59 5f 3d
       -0.11126542 0.12969606 -0.09857983 0.05452891
000060 fa fa c5 bd aa 77 45 3e 10 10 24 be 3a 87 1f bd
       -0.096670106 0.1928393 -0.16021752 -0.03894732
000070 b0 90 22 3e 58 b9 06 be 2d 2c bd bd c3 06 23 3e
       0.15875506 -0.1315664 -0.092369415 0.15920548
000080 73 0e 7f 3d 00 32 c6 bc df 7b 4a be 8f 06 20 3e
       0.06226964 -0.024193764 -0.19773816 0.15627502
000090 23 66 01 be 80 bd 56 bd 32 7d 08 be 9f e3 12 3e
       -0.12636618 -0.052426815 -0.13329008 0.14344643
0000a0 97 5b cb 3d 7a c8 ff 3d 80 4e 2b be f8 0c 2b 3e
       0.09929579 0.1248941 -0.16729164 0.16704166
0000b0 27 5a 90 bc 8d c4 12 3e cd a4 b8 3c 00 51 f6 bc
       -0.017621113 0.1433279 0.02253952 -0.03006792
0000c0 6b 4b 00 be 9b d9 2f be 1e d7 36 3e 12 57 fb bd
       -0.1252877 -0.17172854 0.17855498 -0.12272467
0000d0 0c 3b ca 3d 6b e1 44 3e b8 b3 8b 3d 50 9e 28 be
       0.098745435 0.19226615 0.06821388 -0.16466641
0000e0 94 15 34 be d1 cf 54 3e 70 40 6f bd 49 b8 1e 3e
       -0.17586356 0.207824 -0.05841106 0.15499987
0000f0 bf 2c 6c be 82 27 26 be a5 5c 96 bd 66 63 09 be
       -0.23063944 -0.16226009 -0.07341889 -0.13416824
000100 2d b1 1f be bb f6 70 bd 27 39 6c be f7 78 6a bd
       -0.15594931 -0.05882905 -0.23068677 -0.057244267
000110 fe 8e df 3d 7e 44 2e bd 85 96 03 be 66 dc 32 be
       0.109159455 -0.042545788 -0.12850387 -0.17466888
000120 5d 09 37 be 0c 04 ae 3c e2 08 d6 3d a3 a9 a3 3d
       -0.17874666 0.021242164 0.10450913 0.0799134
000130 41 cf cf 3d 88 85 c2 bd 4a 6b bc 3d 2e ea 27 3e
       0.101469524 -0.09498125 0.09200151 0.16397926
000140 24 2d f9 3d a5 10 38 be 4f b5 46 bd cc 79 8b 3d
       0.12166813 -0.179751 -0.048512753 0.0681034
000150 14 ea d8 3d 66 3e 78 bd 8f c4 28 bc 57 bc 2b be
       0.10591522 -0.060606383 -0.0103007695 -0.16771065
000160 97 20 44 be 10 48 52 be 1b 1b aa 3c cd cd 0d 3d
       -0.19153057 -0.20535302 0.020764878 0.034620095
000170 9d 2c 39 3e b3 ee ad bd 5b e9 98 bd 26 07 f0 bc
       0.18083425 -0.08492794 -0.07466384 -0.029300284
000180 c1 f6 38 bd 13 0f 23 3e fd 52 2c be f7 f3 cb 3d
       -0.045157198 0.15923719 -0.16828533 0.09958642
000190 3c a2 0e be b0 53 e8 3d 50 c5 ae 3d 89 d7 01 be
       -0.13929075 0.11344087 0.08533728 -0.12679876
0001a0 04 30 65 3d 26 37 f3 bc 98 49 22 be 7a 1a 01 3e
       0.055953994 -0.029689383 -0.15848386 0.12607756
0001b0 6a 0d 49 bc b8 e8 d8 3d 00 d7 31 3d d7 e5 1a bd
       -0.012271265 0.105912626 0.04341793 -0.03781685
0001c0 db f8 2b 3e d4 bb e4 3b 38 34 fe 3d c6 89 69 3e
       0.1679415 0.0069803987 0.12412304 0.22806463
0001d0 b2 8f 28 3e 65 68 13 bc dd 5d 99 3d 25 bf bb bd
       0.16461065 -0.008997058 0.07488606 -0.09167317
0001e0 bf c4 b9 bd 10 af 67 3e 28 a8 02 bd 0d f0 e5 3d
       -0.090707295 0.22625375 -0.031898648 0.11227427
0001f0 10 c2 14 be cf c7 b0 3d 91 08 90 3d 22 d0 ec 3c
       -0.14527154 0.086318605 0.07032884 0.02890784
000200 ec 52 f5 3d b8 36 2a be 99 a9 e1 bd be 0e 1f 3e
       0.11978707 -0.16622436 -0.11018676 0.15532967
000210 bc 27 a9 bd e9 12 00 3e 4b ae 48 bd d8 ac 7c 3c
       -0.08259532 0.12507214 -0.048994344 0.015422069
000220 58 1e 21 3e 4a 28 e9 3c 26 30 9d bd 5e ed 35 be
       0.15734231 0.028461594 -0.07675199 -0.1776633
000230 ec 94 90 3d bd c0 56 bd 07 80 59 bd 68 a3 2f 3c
       0.070596546 -0.052429903 -0.053100612 0.010720111
000240 c3 75 e9 3d 85 ba 5e 3d 2f 2d bf 3d ad a9 bc bd
       0.113994144 0.054377098 0.0933479 -0.092120506
000250 f6 c6 08 be 4b 67 29 3d e4 44 94 3d 13 59 fc bc
       -0.13357148 0.041358273 0.07239702 -0.030804193
000260 78 eb c8 3c 0f dd 1c be 62 6e 93 bd 06 c0 57 be
       0.024526343 -0.15318702 -0.07198788 -0.21069345
000270 63 d6 8a 3d d1 6b 19 be 95 06 27 be 8b 36 3a 3d
       0.06779172 -0.14982535 -0.16311105 0.045462172
000280 a9 f2 c6 bd df 90 24 3d a2 28 3f be 4c a4 0e 3e
       -0.097142525 0.040177222 -0.18667844 0.13929862
000290 29 17 df bb fe e5 83 3d 00 9d 27 be de 41 1a be
       -0.006808181 0.06440352 -0.16368484 -0.15064189
0002a0 2d 61 47 be 3e e2 d2 3c e3 a8 b4 bd bc 66 15 3e
       -0.19470663 0.025742646 -0.08821275 0.14589971
0002b0 b4 3f 35 be f8 23 1b be 22 6b 12 3e f6 03 8d bd
       -0.17700082 -0.1515044 0.1429868 -0.06885521
0002c0 81 19 0c 3d f6 b0 26 bd 19 32 3a 3e b2 b8 39 3e
       0.03420401 -0.040696107 0.18183173 0.18136862
0002d0 2f 6b 27 3e 08 33 18 3e ec 5b 3f 3e 6e 83 e8 bc
       0.16349481 0.14863217 0.18687409 -0.028382983
0002e0 a3 ec 16 be 24 6b 14 be ac 1d e6 3d 9a ca f7 bd
       -0.14738707 -0.14493996 0.11236128 -0.1209919
0002f0 c7 4f 9a 3c cb 48 0f 3e 50 5e 6c 3e c8 4a 2b 3e
       0.018836869 0.13992612 0.23082852 0.16727746
000300 ca 22 5a 3e b6 39 1b 3d d8 a3 3a bd 7c a2 c9 3d
       0.21302333 0.037896834 -0.04556641 0.098454446
000310 87 4b fe 3d d6 b4 5e 3d da 27 ed 3d 3a ed 3b be
       0.124167494 0.054371677 0.11579867 -0.18352214
000320 50 22 82 3d 10 96 41 3e 44 ac 34 be 5c 12 ac 3d
       0.06354201 0.189049 -0.17643839 0.08401939
000330 f7 c4 fa bd da bc 91 bd f8 91 4b be 6a a3 9f 3d
       -0.12244599 -0.07116099 -0.19879901 0.07794841
000340 f9 ce ac 3d de 8b 4f 3e c4 78 79 bc 9a 24 32 3e
       0.084379144 0.20268199 -0.015226547 0.17396775
000350 cd f9 19 3e 8d fb f4 3d 69 7a 39 3e 84 b5 32 be
       0.15036698 0.11962042 0.18113102 -0.17452055
000360 28 37 5e 3e 48 ef 74 be 32 d7 43 bd c6 12 78 3d
       0.21700728 -0.23919404 -0.047812648 0.06056478
000370 57 38 19 3d d3 58 f1 bd ae e9 52 3d 66 60 c1 3d
       0.037407245 -0.1178452 0.051492386 0.09442215
000380 64 ea 23 be b3 2a fc 3d 68 90 40 3e b1 c8 13 be
       -0.16007382 0.12312832 0.18805087 -0.14432026
000390 2f 07 ed bd c2 b5 bf bb bd f8 dd bd 76 a2 f9 bc
       -0.11573636 -0.0058505246 -0.10838459 -0.030472975
0003a0 f2 70 ce bc 6c 90 5d 3d 56 8a d0 3d c6 f9 85 3b
       -0.02520034 0.05409281 0.101826355 0.004088613
0003b0 b7 58 31 be 27 cb 83 3b ae 5f 0c be 86 9d f4 bc
       -0.17318998 0.0040220204 -0.13708374 -0.02986027
0003c0 bf 77 15 3d 37 7b 24 3e e5 2c f0 3d 49 e6 cb 3c
       0.036491152 0.16062628 0.11727313 0.024890082
0003d0 96 60 2a bd 8a e7 40 3e 08 08 4e bd c7 46 1d 3e
       -0.041596018 0.18838325 -0.050300628 0.1535903
0003e0 99 c3 ac 3c 1b 02 35 be 0b 29 b6 3c 92 82 6b 3d
       0.021089362 -0.17676584 0.022236368 0.05749757
0003f0 af 88 21 3e 7c 2d e6 bb 84 d8 ec 3d f1 9c be bc
       0.15774797 -0.007024465 0.115647346 -0.023268195

linear_relu_stack.0.bias f4 [1024]
000000 63 a3 42 be 78 1c 48 be bb 66 ba bd 32 e7 1e 3d
       -0.1900764 -0.1954211 -0.091016255 0.038794704
000010 dc b7 09 3d ed 3d 7f 3d 3b 54 2c 3d e2 c5 10 3e
       0.033622608 0.062314916 0.042072516 0.14137986
000020 62 39 80 bd e1 8d 9d 3d b2 a4 38 3e 9d b4 c0 3d
       -0.06260945 0.07693077 0.18031576 0.09409449
000030 f8 a8 f7 bd 46 50 17 be 10 e5 13 be 01 ec 4e be
       -0.12092775 -0.14776716 -0.14442849 -0.20207216
000040 98 e6 eb 3d eb b0 46 3d 29 f8 cd 3d de 7e b9 3d
       0.11518592 0.048508566 0.100570984 0.09057401
000050 c6 11 34 3e 96 8e 80 bd 96 ca 48 be 9d c5 0d 3e
       0.17584905 -0.06277196 -0.1960853 0.13844915
000060 e3 ce 08 3e 36 21 4a be 40 b7 59 3d ad 63 31 3d
       0.13360171 -0.19739231 0.053153276 0.04330795
000070 3c 8d a6 3d f1 27 20 be 55 b4 d6 bd 24 e6 74 bd
       0.08132407 -0.15640236 -0.10483614 -0.05978979
000080 3f 95 99 3d 80 31 39 be 81 db 0c 3e b7 e1 16 3d
       0.074991696 -0.18085289 0.13755609 0.036836352
000090 2a e0 52 3e 4c e7 41 3e 8e 7f 8e bb ca b3 69 bd
       0.20593324 0.18935889 -0.004348702 -0.057056226
0000a0 43 4c 67 be 15 39 5d bd 53 c9 06 3e a7 df ae 3d
       -0.22587685 -0.054009516 0.13162737 0.08538752
0000b0 60 01 6a bc 01 2b ea bc 3b c9 56 be b0 d2 41 3e
       -0.014282554 -0.028584959 -0.20975201 0.18928027
0000c0 2f 6f ff 3d 42 fe b8 3d 23 41 0a 3d 6a bb a0 bc
       0.124723785 0.09032871 0.033753525 -0.019620616
0000d0 88 b5 36 3e 46 f6 d9 3d 17 27 60 bb e7 35 6d bd
       0.17842686 0.10642676 -0.0034202987 -0.057912733
0000e0 a3 36 d8 bd 06 4b ad 3d 7b c8 12 3e cd 40 42 be
       -0.10557296 0.08461575 0.1433429 -0.18970032
0000f0 1b 87 8a 3d 19 d6 a8 3c 14 f4 56 3e b3 1e 03 bb
       0.067640506 0.020609902 0.20991546 -0.0020007312
000100 3b 29 2c be 17 a3 4e 3d 83 c1 34 be 6f 47 ef bc
       -0.16812603 0.050448503 -0.17651944 -0.029208867
000110 19 97 5d be 8d bd 22 3e d4 a8 12 be fd a7 b7 bd
       -0.2163967 0.1589262 -0.14322215 -0.08967588
000120 10 7d 51 3c d0 40 fa bd cc c6 8f bd e8 f8 3e be
       0.012786165 -0.12219393 -0.07020339 -0.18649638
000130 6f cd cd ba 3d 20 dd bc 3b a6 18 3e a5 dd 1c be
       -0.0015701483 -0.026992911 0.14907162 -0.15318926
000140 59 b3 41 3e 65 54 6a 3e 99 2a 42 3e 13 63 05 3e
       0.18916072 0.22883756 0.18961562 0.13026075
000150 c9 53 5d bd 64 00 38 be 66 57 96 3d c2 1d f6 3c
       -0.054034982 -0.17968899 0.07340889 0.030043487
000160 90 54 f9 bd 66 20 ce bd b7 74 32 3e bc e8 02 bd
       -0.12174332 -0.10064773 0.17427336 -0.031960234
000170 d9 95 b8 bd 67 ff 98 3b 34 b6 09 3c 1e 24 f5 bd
       -0.09012956 0.004669118 0.008405257 -0.119697794
000180 b2 30 51 be 8f 55 86 bd b2 76 3d 3e 4c f7 be bb
       -0.20428732 -0.06559288 0.1850231 -0.00582782
000190 f0 2d 1d be 2c ea 0a 3d 97 2f 41 be 93 c5 0c bc
       -0.15349555 0.03391473 -0.1886581 -0.008592027
0001a0 1a 0f 83 3d 23 46 3b 3e 73 25 f9 bb 5f a0 66 bd
       0.06399365 0.18288474 -0.0076033412 -0.056305286
0001b0 5a 1d 4f be 3a 1e 15 3e f3 14 26 3e ed 8b 87 3d
       -0.2022604 0.14562312 0.16218929 0.066184856
0001c0 8a ae 2b 3e 4c cf 22 be c3 89 01 3e 3e 0d 2c b9
       0.167658 -0.1589939 0.12650208 -0.00016408131
0001d0 1a 1b 10 3e 04 ac 67 be 78 e7 3d 3e d5 54 15 39
       0.14072838 -0.22624213 0.1854533 0.0001424135
0001e0 7e 93 cb bd ef b5 44 3e 27 ad a4 bd 59 92 1e 3e
       -0.09940241 0.19210027 -0.08040839 0.15485515
0001f0 9f 9c 22 bd 72 5b 5b 3d ea af 2d 3e a0 11 d0 3c
       -0.039700147 0.053554006 0.16961637 0.02539903
000200 37 84 10 be f8 6f 50 3e 3d df 95 3d 2a 0b b2 3d
       -0.14112936 0.20355213 0.0731797 0.086935356
000210 a3 84 da 3d cc e1 47 3e 30 17 f7 bc f4 1b 74 bd
       0.1066983 0.19519728 -0.030162424 -0.05959697
000220 bf 0f 40 bd 9e 8c a7 bd 47 ff 4c 3e b5 01 53 bc
       -0.046890017 -0.081811175 0.20019256 -0.012878825
000230 b5 7b d0 3d 4b 05 2f be 6e a5 f8 3d 5a 88 77 3d
       0.10179845 -0.17091863 0.12140928 0.06043277
000240 0e 11 9f 3c 77 aa 13 be 78 10 2c 3c f4 d8 e0 3d
       0.019417312 -0.14420496 0.010501973 0.109788805
000250 b4 f8 42 3d 2f 79 be 3d c7 07 5f 3e f5 26 61 be
       0.047600463 0.09300458 0.2178031 -0.21987517
000260 fa 30 b1 3d be 25 a3 bd 8f 96 94 3c 42 dc 56 3c
       0.0865192 -0.07966183 0.018138198 0.013114037
000270 f0 69 fd 3d ad a0 1e be a2 d4 01 be a4 a5 c2 3d
       0.123737216 -0.1549098 -0.12678769 0.0950425
000280 6c 7e f5 bb a2 31 a9 3d ce d8 3f be e8 3c 0d be
       -0.0074918773 0.0826142 -0.18735048 -0.13792765
000290 13 9b 0c 3e d1 c7 dd 3d c0 7a 1e 3e e6 52 8d 3d
       0.13731031 0.108291276 0.15476513 0.06900577
0002a0 7d 2b a9 3d cf 56 55 ba 0f 17 4f bb b5 42 08 3e
       0.08260248 -0.00081382407 -0.0031599437 0.13306697
0002b0 3e a6 ca bd 4d 03 b3 bc 47 a4 62 3d 09 eb 25 be
       -0.098949894 -0.02185216 0.05533245 -0.1620294
0002c0 3f 82 04 be 3c 3e da 3d 98 30 5e be e4 ad 19 be
       -0.1294031 0.106564015 -0.21698225 -0.1500774
0002d0 2f 3b a4 3d ca df 5c be bd ee d4 3d ea b0 45 3e
       0.08019101 -0.21569744 0.10397098 0.19305769
0002e0 20 b3 2d be 16 05 c8 3d e1 f8 55 3e 8d d5 39 be
       -0.16962862 0.09766595 0.20895721 -0.1814787
0002f0 f2 1b 10 be a3 f6 26 3e 03 1d b7 bd bb cc 06 3e
       -0.1407316 0.16305022 -0.089410804 0.13164036
000300 5f 8a 47 be cc 80 16 3e 19 28 29 ba d8 32 11 be
       -0.19486378 0.1469757 -0.00064528134 -0.14179552
000310 68 ce 17 3d 15 9a 48 be 09 79 09 3e d6 ba 2b be
       0.03706208 -0.19590028 0.13425077 -0.16770491
000320 de 1a 34 be 8c 73 5b bd 7e a9 3d be b4 d8 7f be
       -0.17588374 -0.05357699 -0.18521687 -0.2498501
000330 bf 75 21 be a3 5c 23 be c1 c9 0d 3e 1a 74 46 be
       -0.15767573 -0.15953307 0.13846494 -0.19380227
000340 5e 9d 4f bc bc 52 ff bc 06 60 4e bd da d4 19 3e
       -0.012671797 -0.03116738 -0.050384544 0.15022603
000350 0a eb 5d 3d 23 e1 a7 3d 3d 51 1b 3e 4e 7b 1b 3e
       0.05417923 0.08197238 0.15167709 0.15183756
000360 c6 1e c0 bd 0d c0 aa 3d 04 c2 c5 3d ca db fa 3d
       -0.093808696 0.08337412 0.09656146 0.12248953
000370 42 c1 6a bb 6c bf 52 3e 9b 83 ea 3d 29 bb aa 3d
       -0.0035820757 0.20580834 0.11450883 0.08336479
000380 fc 03 e9 bc 63 52 61 be 7f 31 1b bd 51 3c 1c 3e
       -0.028444283 -0.22004084 -0.037889 0.15257384
000390 82 fd 52 be ac 0f 42 be a9 46 30 3e fe 7b 41 3e
       -0.20604518 -0.18951291 0.17214455 0.18894956
0003a0 e1 ba 08 3e 40 f7 12 be 69 ba 20 3d 31 ac 9e bd
       0.13352539 -0.14352131 0.039240275 -0.07747687
0003b0 30 dc 1e be 01 94 f0 bd 2c 1a 35 be 90 f9 95 bc
       -0.15513682 -0.117469795 -0.17685765 -0.018307477
0003c0 a0 fe c1 bd e0 5d 46 3e c2 50 77 bd 91 38 61 be
       -0.09472394 0.19371748 -0.06037975 -0.21994235
0003d0 92 77 9f 3d 6a eb a9 bb 24 b5 3c 3e 85 80 26 be
       0.07786478 -0.0051855342 0.18428475 -0.16259964
0003e0 e2 f0 46 3e 03 a5 cc 3d c8 3a f0 3d 1c 10 24 3e
       0.19427827 0.09992411 0.11729962 0.1602177
0003f0 21 13 c5 3d 58 db 14 be 2a df 54 bd 5e 5f 44 bd
       0.09622789 -0.14536798 -0.05197064 -0.04794251

linear_relu_stack.2.weight f4 [36, 1024]
000000 a9 46 82 bd c8 bb 5c bc 33 01 ce 3c 3b 3b ef bb
       -0.063611336 -0.013472505 0.025147056 -0.007300762
000010 93 7a 83 3c ec a8 f8 bc dd 41 07 bd 5d 01 d9 bc
       0.016049659 -0.030353986 -0.033021796 -0.026489908
000020 4d 96 07 3d 6c 55 07 bd 49 59 19 bc be c5 1d bd
       0.033102322 -0.03304045 -0.009359666 -0.03851866
000030 b5 b3 c7 3d f0 47 08 3d bb 48 e2 bc a1 07 97 3d
       0.09751073 0.03327173 -0.027622571 0.07374502
000040 f5 a2 47 bd ba 60 07 3d d2 1e 20 3d 42 6d d2 bc
       -0.048739392 0.03305123 0.039091893 -0.025686864
000050 53 6f f7 bc f9 3e 31 bd c3 36 6c ba 83 1b c2 3c
       -0.03020445 -0.043272946 -0.00090108457 0.02369476
000060 d8 62 62 3b d7 d0 8f 3d 55 d1 72 bc ef 27 29 3c
       0.0034543779 0.07022255 -0.014820416 0.010324462
000070 9c b4 da bc 82 34 d1 3c 1d 5a 53 bc f5 3f 66 bc
       -0.02669745 0.025537733 -0.012899903 -0.0140533345
000080 8d 6f 25 bc 94 75 5c bc 2f f5 1b 3c ef 1c 59 3c
       -0.010097397 -0.013455767 0.009518906 0.013251527
000090 43 9e 10 bd 02 f2 25 3c 61 c1 7d 3c 64 ba 01 bd
       -0.03530718 0.0101285 0.015488 -0.031671897
0000a0 a2 0a d9 bb 20 a8 24 3d 6b d6 32 3c e2 3a ed 39
       -0.006623582 0.0401994 0.010915379 0.00045248034
0000b0 b8 3a 76 3d 87 61 26 3d d4 a6 40 3c 9b 9f 96 bc
       0.060114592 0.040620353 0.011758525 -0.018386653
0000c0 fe 30 89 bc 05 73 c7 3c ea 28 a5 bd f3 0e b7 bc
       -0.016746994 0.024346838 -0.08064444 -0.022345996
0000d0 f3 ed 69 3d 55 8f a0 bd db 86 35 3d fc 30 73 bd
       0.05711169 -0.078398384 0.04431806 -0.059372887
0000e0 70 d2 34 bc a3 fe a0 3c 20 c9 32 bd a0 69 c3 bb
       -0.0110365 0.01965267 -0.04364884 -0.005963519
0000f0 5b 75 a7 3d 43 ef 9f 3b 3c 1e a9 bc 19 69 24 bc
       0.08176681 0.004880817 -0.0206443 -0.010034823
000100 6e d2 9b 3c 49 05 d5 3c 8a 0b f9 3c 0e 3c 32 3c
       0.01902124 0.026003497 0.03040101 0.010878576
000110 68 5d 83 3d f0 de 49 3a a1 a6 73 bd 45 46 e7 3d
       0.064143 0.0007700762 -0.05948508 0.112927
000120 9e e5 89 3d 3d 37 71 3d c6 12 3e 3d cc a1 95 bc
       0.06733249 0.05889057 0.046404622 -0.018265627
000130 4c fa 1b 3c 66 c6 0e bd d5 7f 5a 3c 8b ba 6a 3d
       0.009520125 -0.034857176 0.013336142 0.057306807
000140 5a 37 57 bc 61 66 a8 bc 1a 12 0c bd a8 47 6e 3c
       -0.013135755 -0.02055663 -0.03419695 0.014543451
000150 41 d8 89 bc 0c 3e 6a 3c 06 c4 5c bb 42 0c 06 bc
       -0.01682675 0.01429702 -0.0033686175 -0.008181633
000160 93 ac 21 3e ac 15 4f bd cb b9 00 3d 8d e8 5d bd
       0.15788488 -0.050557777 0.031427186 -0.054176856
000170 fd 53 ff bc ef 63 e8 3c ec a9 96 3d 2c a9 42 3d
       -0.031167978 0.028367965 0.07356629 0.047524616
000180 90 c6 7f bc 62 e7 9f 3c 0e 2e b4 3c cd 71 c7 bd
       -0.015611306 0.019519512 0.021994617 -0.09738503
000190 10 ef 6a 3c b2 d0 c6 3b 8a bd 77 3d e9 4b 02 3d
       0.0143392235 0.006067359 0.060483493 0.031810675
0001a0 aa df c0 3d fe 57 52 3b 65 df b6 bc 9d 05 ea bc
       0.094176605 0.0032095904 -0.02232332 -0.02856713
0001b0 cf e3 9e 3d 47 cd f2 bc f0 4c c7 bc 09 46 57 bc
       0.07758295 -0.0296389 -0.024328679 -0.013139256
0001c0 6b cf 77 bc c1 23 6b 3c 1b 33 b8 bc ba d1 cd bc
       -0.015125136 0.014351786 -0.022485306 -0.02512442
0001d0 d1 ab 74 3a 57 9e 8d bd 93 5b cb 3b 80 56 bb bc
       0.0009333464 -0.069149666 0.006205985 -0.022868395
0001e0 46 c5 42 3b d9 df c2 3c 32 4e 87 bc 2a 60 b6 bc
       0.0029719635 0.02378838 -0.016516779 -0.022262651
0001f0 ba 04 64 3b 1d e8 49 bc e9 e3 20 3c 93 0f 51 3d
       0.0034792856 -0.0123234065 0.009819963 0.051040243
000200 ae c3 e0 bc 46 96 ca bc a4 ef 93 3c 33 1a 00 bd
       -0.027437057 -0.02472986 0.018058605 -0.031274986
000210 18 66 0b 3c 25 46 00 bd cd f7 71 bd ef 57 00 3d
       0.008508228 -0.031316895 -0.059074212 0.03133386
000220 6f 8a b7 bc c1 48 95 3d 66 78 96 3c 7a d9 f1 bc
       -0.022404877 0.07289267 0.018367957 -0.029522646
000230 29 64 d7 3b cd b1 33 3c 75 c3 30 bc cf 0a 0c 3d
       0.0065732193 0.010967684 -0.010788788 0.034189995
000240 cb 9f d6 bb 08 f2 b3 3b 25 8d 7a 3d 6d 9e 32 3c
       -0.0065498105 0.005491499 0.061169762 0.010902029
000250 98 ad 07 bc f8 71 4c bc da 70 c4 3c 0d 40 91 bc
       -0.008281134 -0.012478344 0.023979593 -0.017730737
000260 4d 7a 89 3b bd 7a d7 3c a0 d6 74 3d fb 5e 97 3c
       0.0041954876 0.026303643 0.059774995 0.018477907
000270 c0 9a 0b 3d 82 20 4d 3d ca fb 71 bd ec 85 02 3c
       0.034083128 0.05007983 -0.059078015 0.0079665
000280 a0 c2 02 bc b5 e8 51 3c 09 d4 48 3d 4c 15 80 bb
       -0.0079809725 0.012811829 0.049030337 -0.003908789
000290 89 8b 51 39 25 6d a4 bc 2d 7b 17 bc 30 34 e0 3c
       0.00019983774 -0.020071575 -0.009245676 0.027368635
0002a0 e7 ae 69 3b 26 15 be bd cd b7 98 bd fa 65 00 3e
       0.0035657228 -0.092813775 -0.07456932 0.12538901
0002b0 f1 e8 e4 3c 00 2a 46 3d cb 03 71 3c 43 6a 71 3d
       0.027943106 0.048379898 0.014710377 0.05893923
0002c0 76 85 0e bd 83 e6 7c bd c4 63 83 3d 4a 2e 5f bb
       -0.034795247 -0.06174327 0.06415513 -0.003405469
0002d0 54 bf 9b bb f3 34 7a 3d c8 69 81 3a 5b 05 0b bc
       -0.0047530327 0.061085653 0.0009873444 -0.008485164
0002e0 27 46 e5 bc 18 2c 0f bd e1 c0 ad bc 05 d0 9c bc
       -0.027987553 -0.03495416 -0.021210136 -0.01914216
0002f0 77 e7 a8 b7 9d 4d 1f bd bc 54 ab bc fd ef 89 bc
       -2.0134945e-05 -0.038892377 -0.020914428 -0.016838068
000300 b3 e1 84 3d 97 0e 96 bc c6 78 19 bd 76 2c f0 bc
       0.06488361 -0.018317504 -0.037468694 -0.029318076
000310 87 c4 cd bb 1d c0 90 3d 09 e1 c5 3c b1 16 5a bb
       -0.0062795314 0.07067893 0.024155157 -0.0033277685
000320 1c 03 15 bd 0b d4 2c bd 5d da a9 bc 87 52 08 3e
       -0.03637992 -0.042194407 -0.020734007 0.13312732
000330 77 64 8b bd 19 a0 b4 3b 3d 2a 80 3b 5c a2 cb bd
       -0.068062715 0.005512249 0.003911285 -0.09943077
000340 61 0c ec bc 62 b8 21 3c fb 52 a1 bd fb 1d 88 3c
       -0.028814496 0.00987062 -0.078771554 0.016615858
000350 2d 6f 49 bc b9 8e 8e bb 0e 00 94 3b d2 9e 6f 3c
       -0.012294573 -0.00435051 0.004516608 0.014625268
000360 05 94 b0 bc da 84 d9 bb 68 d5 9b 3c fc f0 05 bb
       -0.021554956 -0.0066381516 0.019022658 -0.0020437827
000370 5e 54 0d 3c a7 e9 04 3b 1b e0 32 3d 6d 8d 6b bc
       0.008626072 0.002028087 0.043670755 -0.01437698
000380 fe 20 8c b9 38 a6 07 be 78 af a9 bc 84 e0 b8 3c
       -0.00026727462 -0.13247001 -0.020713553 0.022567995
000390 08 4c 04 bd 7e c7 16 3d 10 44 81 3d 67 a5 c9 bc
       -0.03229907 0.036811344 0.0631181 -0.024615003
0003a0 54 74 97 3c a6 08 99 bd 44 42 9d bc e5 70 7f 3c
       0.018488087 -0.07472353 -0.019196637 0.015590881
0003b0 13 86 60 3b 50 c6 a3 3d 9b 75 3b 3d ed 38 a3 3c
       0.0034259602 0.079968095 0.045766454 0.019924605
0003c0 22 73 54 bd 10 c2 12 bc bf 83 88 3b 58 9c f4 3d
       -0.05186761 -0.008957401 0.004166096 0.11943883
0003d0 97 8f cd 3d 44 c2 41 bd f3 47 79 bc 07 5f 49 bd
       0.10037153 -0.047304407 -0.015214908 -0.04916289
0003e0 b4 e3 c9 3c ac 30 94 3b a5 6c d5 3c 62 51 38 b9
       0.02464471 0.0045224037 0.026052782 -0.00017577925
0003f0 eb 98 a5 3c a2 37 c6 bd 52 7f b7 3c 27 22 04 bc
       0.020214519 -0.0967858 0.022399578 -0.008064783

linear_relu_stack.2.bias f4 [36]
000000 ff 73 65 3c 70 72 f8 bb 09 51 8e bc 47 27 a2 3c
       0.014004706 -0.0075820014 -0.017372625 0.01979412
000010 a5 3a ea bb 25 01 cc bb 55 c0 61 3c 94 47 5a 3b
       -0.0071481043 -0.0062257224 0.013778766 0.0033306824
000020 46 a8 90 3c 22 7b c0 bc af 40 4b bb ac 3b df 3c
       0.017658364 -0.023496214 -0.0031013896 0.027250133
000030 85 b2 a5 bc f1 e7 e1 3c 3e 2d ff bc c1 c2 03 3d
       -0.020226726 0.027576419 -0.031149503 0.032168154
000040 9a ba 77 3b 83 0a 66 3c 42 54 81 3c 82 6a 72 3b
       0.0037800432 0.014040592 0.015787248 0.0036989753
000050 2f 51 c6 3c 49 97 0b 3b fd 3e b1 3c d4 63 1c 3d
       0.024208633 0.002129989 0.02163648 0.03818114
000060 8c 67 15 3d e1 4a 8f bc 95 10 40 bc 09 c8 88 bc
       0.036475703 -0.01749176 -0.011722703 -0.016696947
000070 83 73 4b bc 05 37 f0 3c 09 6a a4 3c fa c6 b8 bc
       -0.012417677 0.02932311 0.020070093 -0.022555817
000080 f8 d6 1d bc 72 c7 9c 3c 94 fd 22 3d fc 7a 40 3c
       -0.009633772 0.019138072 0.039792612 0.011748072
