models/model_added_mass_0_wave_frequency_n8.pth (torch, 223592 bytes, 4 tensors)

linear_relu_stack.0.weight f4 [1024, 17]
0	0x3e6823d9	0.22669925
1	0x3e0dce56	0.13848242
2	0xbe651b69	-0.22373737
3	0x3e09190a	0.13388458
4	0xbdb56f1e	-0.088590845
5	0xbd3358b8	-0.04378578
6	0x3e86d877	0.26337025
7	0xbdfe13a0	-0.12406087
8	0xbe428381	-0.18995477
9	0x3e11a71b	0.14223902
10	0x3e1db9b5	0.15402873
11	0xbe5adfdf	-0.21374463
12	0xbdfa9a52	-0.122364655
13	0xbe5456c1	-0.20736219
14	0xbe0fa965	-0.14029463
15	0x3e630519	0.22169913
16	0x3e24e8fd	0.16104503
17	0xbdac5cca	-0.084161356
18	0x3e3b8695	0.18313058
19	0xbe532176	-0.20618233
20	0xbdaf470f	-0.08558475
21	0x3e5d82aa	0.21631876
22	0xbd83ada8	-0.06429607
23	0x3c8f51bc	0.017495029
24	0xbdfd3fc7	-0.1236568
25	0xbd7b0bd5	-0.06129058
26	0xbdddd264	-0.108311445
27	0x3e46a964	0.19400555
28	0xbe40ebbd	-0.18839927
29	0xbe668d98	-0.22514951
30	0x3da721b3	0.081607245
31	0x3dcb956f	0.099406116
32	0x3e60f818	0.2196964
33	0x3e51be50	0.20482755
34	0x3e63cc65	0.22245939
35	0x3d65c379	0.05609462
36	0xbe244bea	-0.16044584
37	0x3e0f1829	0.1397406
38	0xbe5d6aa9	-0.21622719
39	0x3e5382fe	0.20655438
40	0xbd8615d9	-0.06547136
41	0xbe55d893	-0.20883398
42	0xbe0b4682	-0.13601115
43	0xbdc94363	-0.09827306
44	0x3e334f38	0.17510688
45	0xbddefb0e	-0.10887729
46	0x3e275efe	0.1634483
47	0xbb4c079b	-0.0031132463
48	0x3d08a8d8	0.033364147
49	0xbdae48f4	-0.085100085
50	0x3cde98a8	0.027172402
51	0xbe4f1587	-0.20223056
52	0x3dc6ed44	0.097132236
53	0xbe1fc6b7	-0.15603147
54	0x3e487c29	0.19578613
55	0xbe58d998	-0.21176755
56	0xbe28911b	-0.16461603
57	0x3d07d1cf	0.033159073
58	0xbd84b49a	-0.064797595
59	0x3e0e57b0	0.13900638
60	0xbdea7368	-0.11447793
61	0x3c50a055	0.012733539
62	0xbd5f76a3	-0.0545565
63	0x3e0339b5	0.12814982
64	0xbe234b40	-0.15946674
65	0x3e4459dc	0.19174904
66	0x3d7abb74	0.061213925
67	0x3e3d654a	0.1849567
68	0xbe2e849d	-0.17042775
69	0xbd803da7	-0.06261759
70	0xbdcddc1b	-0.100517474
71	0x3d119c48	0.035549432
72	0x3d539fb7	0.051665988
73	0x3e48bf14	0.1960414
74	0x3e4b1e9f	0.198359
75	0x3d1dbca1	0.03850997
76	0xbe458977	-0.1929072
77	0xbe04f977	-0.12985788
78	0xbe1ba5ec	-0.15200013
79	0xbe01c06b	-0.12671058
80	0x3da917bd	0.08256481
81	0xbd6380f1	-0.05554289
82	0xbe1cc551	-0.15309645
83	0xbc4c7489	-0.012478956
84	0x3e4bc31a	0.19898644
85	0x3d9526c1	0.07282782
86	0x3e2f1a95	0.17099984
87	0x3bb077be	0.005385368
88	0x3e819f20	0.25316715
89	0x3c4267b4	0.011865545
90	0xbdf6823d	-0.1203656
91	0x3e46f289	0.19428457
92	0x3de02558	0.10944623
93	0xbe31d7a7	-0.17367421
94	0x3e4e9e23	0.20177512
95	0x3e17a97d	0.14810748
96	0x3d3959cc	0.045251653
97	0x3e060290	0.13086915
98	0x3e4d81d6	0.2006906
99	0xbe13e981	-0.14444543
100	0xbda039ac	-0.078235
101	0xbd301e59	-0.04299769
102	0xbe0df8a4	-0.1386438
103	0xbe689043	-0.22711281
104	0x3cc632e8	0.024194196
105	0xbd1a6652	-0.037695237
106	0xbc5c6b36	-0.013453295
107	0xbdc84224	-0.0977824
108	0x3df9426d	0.12170873
109	0x3e661e3e	0.22472474
110	0x3e769e65	0.2408386
111	0x3c929db0	0.017897457
112	0xbd93c649	-0.07215554
113	0xbdf794a4	-0.12088898
114	0xbe02d7db	-0.12777655
115	0x3e1f6a80	0.1556797
116	0xbdaf4767	-0.08558541
117	0xbe33eb84	-0.17570311
118	0x3dbf6ef3	0.09347334
119	0x3e03c8a5	0.12869509
120	0x3deda8f8	0.11604494
121	0xbcfe53fb	-0.031045904
122	0x3e7551bd	0.23956962
123	0x3dbd7135	0.09250108
124	0x3e7d528d	0.24738522
125	0xbce8aaff	-0.02840185
126	0xbcfb7b34	-0.030698396
127	0x3e58bd21	0.21165897
128	0x3e345d27	0.1761366
129	0x3e2be7a5	0.16787584
130	0xbda20ace	-0.07912217
131	0xbe128bb0	-0.14311099
132	0xbdb0a0f1	-0.08624447
133	0x3e708ec5	0.23491962
134	0xbdef2be1	-0.11678291
135	0x3e6db114	0.23212081
136	0x3cab7e2a	0.020934183
137	0xbd93ccf0	-0.07216823
138	0x3dd5e924	0.10444859
139	0x3e582723	0.2110868
140	0x3c1187c8	0.00888247
141	0x3e6d529b	0.23176043
142	0xbb6a6472	-0.0035765436
143	0xbe2eadaf	-0.17058443
144	0xbe7452d5	-0.23859723
145	0x3e227b78	0.15867412
146	0xbbbd75b9	-0.005781856
147	0x3d5332e9	0.051562224
148	0xbe48769a	-0.19576493
149	0xbcb33502	-0.021875862
150	0xbeb1e761	-0.3474684
151	0xbdeba0d1	-0.11505283
152	0xbe2ff43c	-0.17183012
153	0xbeb2e338	-0.3493898
154	0x3d46fe31	0.04858226
155	0xbe2e8f4f	-0.17046855
156	0x3a421140	0.0007403083
157	0xbcdf7a42	-0.027279977
158	0xbe38c0fa	-0.18042365
159	0xbe1ab1eb	-0.15106933
160	0xbe154411	-0.14576747
161	0xbd47e383	-0.048800956
162	0x3c835bab	0.016034922
163	0x3e032512	0.1280711
164	0xbe63ff6f	-0.22265409
165	0x3da196dd	0.07890103
166	0xbe758647	-0.23977004
167	0xbe6e0e6e	-0.23247692
168	0x3c87b725	0.016566822
169	0xbe2151a1	-0.15753795
170	0x3e723af2	0.23655298
171	0xbe3e2db5	-0.18572123
172	0xbe5778a4	-0.21042114
173	0x3e0ecf28	0.13946211
174	0xbe7dba2b	-0.24778049
175	0xbbf5de52	-0.0075033093
176	0xbd6a134b	-0.057147305
177	0x3d0ba010	0.034088194
178	0x3e13fa5a	0.1445097
179	0xbe518ed3	-0.2046464
180	0x363f4c1d	2.8505522e-06
181	0x3cd3d6d1	0.025859268
182	0x3e992e43	0.29918107
183	0xbb33886d	-0.0027394549
184	0xbd61dcda	-0.05514226
185	0xbe418a78	-0.18900478
186	0xbe211def	-0.15734075
187	0x3dde2c26	0.108482644
188	0xbe2f918b	-0.17145364
189	0xbd8d67ab	-0.06904539
190	0x3e75c16e	0.23999569
191	0xbcf3ca3c	-0.029759519
192	0xbe6ef2c4	-0.23334795
193	0x3e5d8755	0.21633656
194	0x3e01b5a5	0.12666948
195	0xbe72a30c	-0.2369501
196	0xbda2e451	-0.07953704
197	0x3e2aaf5b	0.16668455
198	0x3e692f2a	0.22771898
199	0x3e24b99c	0.1608643
200	0xbde3cbc8	-0.111228526
201	0x3e137b70	0.14402556
202	0xbe3c8c04	-0.18412787
203	0xbda855f1	-0.08219517
204	0xbe28dd26	-0.16490611
205	0x3e2c69d8	0.16837251
206	0xbe4dcdba	-0.2009801
207	0x3e1f27d7	0.15542541
208	0xbe66f60c	-0.22554797
209	0x3e193967	0.14963304
210	0x3dc83f2f	0.09777676
211	0xbc98269b	-0.018573096
212	0xbe6c4d83	-0.23076443
213	0xbd9c9a2a	-0.07646592
214	0x3d27c6c4	0.040961042
215	0x3c1a20dd	0.009407249
216	0x3d38d7a2	0.04512752
217	0x3dbe66d7	0.09296959
218	0xbe64fee2	-0.22362855
219	0xbe046de8	-0.12932551
220	0xbd4ff3e3	-0.050769698
221	0xbe57c4bf	-0.21071146
222	0xbd893f4c	-0.06701526
223	0x3d05e78a	0.032691516
224	0x3e245100	0.16046524
225	0x3e4fd73d	0.2029695
226	0x3c8c2433	0.017107105
227	0x3e414f6b	0.18877952
228	0x3c2b164c	0.010442328
229	0xbe0cd946	-0.13754758
230	0x3d426876	0.047462903
231	0x3e15d3a8	0.14631522
232	0xbd04bee1	-0.0324086
233	0x3e18bda3	0.1491609
234	0x3dd55af9	0.10417742
235	0x3df5c07c	0.11999604
236	0x3d46b6dd	0.048514236
237	0x3d06fe37	0.032957282
238	0xbe105646	-0.1409541
239	0x3e01b982	0.12668422
240	0xbdc04351	-0.093878396
241	0x3e6282a2	0.22120145
242	0xbcd5eac3	-0.02611292
243	0x3d0068e1	0.03135002
244	0x3d3e7bec	0.0465049
245	0xbe27901e	-0.1636357
246	0x3e709a10	0.2349627
247	0x3cc255ee	0.023722615
248	0xbe66db7a	-0.22544661
249	0x3e2340a0	0.15942621
250	0xbe5f7e61	-0.21825553
251	0x3e8895ea	0.26676875
252	0xbdccb5d7	-0.09995621
253	0xbe12fc92	-0.1435416
254	0x3e19895e	0.14993808
255	0x3e09182b	0.13388126

linear_relu_stack.0.bias f4 [1024]
0	0x3dc79a52	0.09746231
1	0x3e09fc72	0.13475206
2	0xbe35ac01	-0.17741396
3	0x3c909dff	0.017653463
4	0x3e59067d	0.21193881
5	0x3e62c473	0.22145252
6	0xbe875da7	-0.2643864
7	0xbe4fe10c	-0.20300692
8	0xbdb3c576	-0.08777897
9	0x3ba000d3	0.0048829108
10	0xbd52d32a	-0.051470913
11	0xbe71d2f0	-0.23615623
12	0x3e48a4d5	0.19594128
13	0x3d9ca0aa	0.07647832
14	0xbd692de3	-0.056928527
15	0x3e766a0c	0.24063891
16	0x3e1e392b	0.15451495
17	0xbe7055b1	-0.23470189
18	0x3da44b89	0.0802222
19	0x3e7c8bcf	0.24662708
20	0xbd113995	-0.035455305
21	0x3e38f248	0.18061173
22	0xbe323de2	-0.17406419
23	0x3e5c549e	0.21516654
24	0x3d490abc	0.049082503
25	0xbe4e64f3	-0.20155697
26	0xbd8804b4	-0.06641522
27	0x3c859696	0.016307157
28	0x3c6fad7e	0.014628766
29	0x3e19b84f	0.15011714
30	0xbd300712	-0.042975493
31	0xbe06beb2	-0.13158682
32	0x3e04022d	0.12891455
33	0x3e2ed8f0	0.17074943
34	0x3e356457	0.17714058
35	0x3d06a023	0.032867562
36	0x3e3ba3d0	0.18324208
37	0x3e76792c	0.24069661
38	0x3dcdfcce	0.10057984
39	0xbd1b80f5	-0.03796478
40	0xbe1ee9df	-0.15518902
41	0xbe5d3ce0	-0.21605253
42	0x3e285ceb	0.16441695
43	0x3e40ac1f	0.18815659
44	0x3dd0b7f8	0.10191339
45	0xbe323f99	-0.17407073
46	0x3e070bb3	0.13188057
47	0x3b961743	0.0045804097
48	0x3d60369a	0.054739572
49	0xbd57eb24	-0.052714482
50	0xbe8e83fb	-0.27835068
51	0x3e0ef9e2	0.1396251
52	0xbd825ea3	-0.06365707
53	0x3e32d52c	0.17464131
54	0x3e512820	0.20425463
55	0x3d72d656	0.059286438
56	0xbe5211f0	-0.20514655
57	0x3dff0b41	0.124533184
58	0x3e0dcd2e	0.13847801
59	0xbe50782e	-0.20358345
60	0x3e61c957	0.22049461
61	0x3dd25501	0.102701195
62	0xbdec8e53	-0.11550584
63	0x3e5db951	0.21652724
64	0xbe41adb2	-0.18913916
65	0x3e2f8a1f	0.17142533
66	0x3dd495e3	0.10380151
67	0x3cb05b54	0.021527924
68	0xbe8097c3	-0.25115785
69	0x3d93e80c	0.07221994
70	0x3e780103	0.24219136
71	0x3e576b8c	0.2103712
72	0xbe76dd0c	-0.2410776
73	0x3dbdf822	0.09275843
74	0x3d72dd95	0.05929335
75	0xbbb8ba8c	-0.0056374725
76	0xbafc1007	-0.0019230851
77	0x3e1c0790	0.1523726
78	0x3db0c5ea	0.08631499
79	0xbe336557	-0.17519127
80	0xbe3c2667	-0.18374024
81	0xbd9ed4b7	-0.07755416
82	0xbe322a02	-0.17398837
83	0x3e309cc5	0.17247303
84	0x3dcd4cc0	0.100244045
85	0x3e0ef744	0.13961512
86	0x3e8158a0	0.25262928
87	0x3d3ee44a	0.046604432
88	0xbe0663d0	-0.13124013
89	0x3e7a3848	0.24435532
90	0xbcf4d865	-0.029888341
91	0xbe8cfe07	-0.27537557
92	0x3e23553e	0.15950486
93	0x3da356e4	0.079755574
94	0xbdf83e03	-0.12121203
95	0xbe5bccaa	-0.21464792
96	0xbd485941	-0.048913244
97	0xbdd3f9ed	-0.10350404
98	0x3e557213	0.20844297
99	0x3e360535	0.17775424
100	0xbdde17b0	-0.10844362
101	0x3e78fba8	0.24314749
102	0xbc0a3b11	-0.008436934
103	0x3d59b781	0.05315352
104	0x3e6e538a	0.23274055
105	0x3d80d60b	0.062908255
106	0xbe01bc76	-0.12669548
107	0xbe10f3f2	-0.14155558
108	0x3beb477c	0.0071801525
109	0x3c583fa1	0.013198764
110	0xbe54aae5	-0.20768316
111	0xbe739b3f	-0.2378969
112	0xbdbf2e50	-0.09335005
113	0x3e43e940	0.19131947
114	0x3e08f63a	0.13375178
115	0xbbe493a8	-0.00697561
116	0x3e16f976	0.147436
117	0x3db47e70	0.088131785
118	0x3e2b8658	0.16750467
119	0x3c97b25f	0.018517671
120	0x3e77d9eb	0.24204223
121	0x3e581719	0.21102561
122	0x3e1f913f	0.1558275
123	0xbe8c8971	-0.2744861
124	0x3d9bfe18	0.07616824
125	0xbd3f2ad4	-0.046671703
126	0x3d3088d8	0.043099254
127	0xbe401502	-0.18758014
128	0x3e0e8e6c	0.13921517
129	0x3cd16de7	0.0255651
130	0x3e0404c5	0.12892444
131	0x3e438b83	0.19096188
132	0x3e2402d0	0.16016698
133	0xbd83ecf6	-0.06441681
134	0x3dfc55dd	0.123210646
135	0xbe3828de	-0.1798434
136	0xbe053bc2	-0.13011077
137	0xbc2a9c4b	-0.01041324
138	0x3e826330	0.254663
139	0xbd8579e7	-0.06517392
140	0xbe153c45	-0.14573772
141	0x3e2a92a2	0.16657498
142	0x3e0bdde4	0.13658863
143	0xbe0be8e9	-0.13663067
144	0xbd84969e	-0.064740404
145	0xbcd8c219	-0.02645974
146	0xbe604d7e	-0.21904561
147	0x3debb9c6	0.11510043
148	0x3e5b1777	0.2139567
149	0xbd6a0258	-0.05713114
150	0x3bf9a18b	0.0076181344
151	0xbb98c807	-0.004662517
152	0x3e4590a1	0.19293453
153	0x3e63d7e0	0.22250319
154	0x3d57b78b	0.052665275
155	0xbe110e37	-0.14165579
156	0x3e217a47	0.15769301
157	0x3d721a95	0.05910738
158	0xbd21dfba	-0.039520003
159	0xbe548e3d	-0.20757385
160	0x3e44293b	0.19156353
161	0x3e5dfb67	0.21677934
162	0xbe3c597f	-0.18393515
163	0x3e11351d	0.14180417
164	0xbd06153e	-0.032735102
165	0x3e214a56	0.15751013
166	0xbcf94312	-0.03042749
167	0x3dce716b	0.100802265
168	0xbbdc156e	-0.006716422
169	0xbe188751	-0.14895369
170	0x3e6aa653	0.2291501
171	0x3e1b9347	0.151929
172	0xbe0caa19	-0.13736762
173	0x3e08cef4	0.13360196
174	0x3de91815	0.113815464
175	0xbe1dc2b0	-0.15406299
176	0x3c9d58ab	0.01920732
177	0xbe1e4230	-0.15454936
178	0x3e4c6f73	0.1996439
179	0xbce04c69	-0.027380185
180	0x3d53215d	0.05154549
181	0x3e3105a3	0.17287306
182	0xbe112ccb	-0.14177243
183	0xbdf01f69	-0.11724741
184	0x3e5382eb	0.2065541
185	0x3e059e30	0.13048625
186	0x3e3a1356	0.18171439
187	0x3e53d280	0.20685768
188	0xbe9becc1	-0.30454066
189	0x3e04a2ca	0.12952724
190	0x3d9bc7c7	0.07606464
191	0xbe83b587	-0.25724432
192	0xbd666175	-0.056245286
193	0x3e124de3	0.14287524
194	0x3cfd9e15	0.030959168
195	0x3b4d61fa	0.0031338916
196	0x3e7f50bb	0.2493314
197	0xbcff72c8	-0.031182662
198	0xbe28d0ae	-0.16485855
199	0xbd668322	-0.0562774
200	0x3d45b811	0.048271243
201	0xbde956e5	-0.11393527
202	0xbdb8c139	-0.09021229
203	0xbdb034f1	-0.08603848
204	0xbd362eb3	-0.04447813
205	0x3dd3bf72	0.1033925
206	0x3d934b02	0.07192041
207	0xbcb15ee7	-0.021651698
208	0xbe7350ae	-0.23761246
209	0x3e7238f9	0.23654546
210	0x3ca38205	0.01995946
211	0xbe299acd	-0.16562958
212	0x3db5dc66	0.08879928
213	0xbe83c573	-0.2573658
214	0x3e672bc5	0.2257529
215	0xbe631b8f	-0.22178482
216	0xbe4db6bf	-0.20089243
217	0xbe70df06	-0.23522577
218	0x3deaf0a1	0.114716776
219	0x3e7c4123	0.24634223
220	0xbe45aab9	-0.19303407
221	0x3e813901	0.25238803
222	0xbe4f9620	-0.20272112
223	0xbd990266	-0.074711606
224	0xbc22955e	-0.009923307
225	0x3ddc4283	0.107548736
226	0xbde7ccdf	-0.11318373
227	0xbe6aa64e	-0.22915003
228	0x3dc44c40	0.09584856
229	0x3dc79ea8	0.09747058
230	0x3cfcedbd	0.030875081
231	0xbdb0d7d4	-0.08634916
232	0xbe3cad15	-0.184254
233	0xbe7e7496	-0.24849162
234	0x3de6cab0	0.11269128
235	0xbe380213	-0.17969541
236	0xbe244a1d	-0.16043897
237	0x3d9c212b	0.07623514
238	0x3e4e5219	0.20148505
239	0x3d9afd64	0.07567862
240	0x3e4f70e3	0.20257907
241	0x3e36152a	0.17781511
242	0xbe8f51db	-0.27992138
243	0x3da46671	0.08027352
244	0x3de86d44	0.11348966
245	0xbe78f5fe	-0.24312589
246	0x3d2c9ad8	0.042139858
247	0xbd0701d0	-0.032960713
248	0xbe6ffb32	-0.23435667
249	0x3e032b69	0.12809528
250	0xbe0729d9	-0.13199557
251	0x3e559f16	0.20861468
252	0xbe16ef9a	-0.14739838
253	0x3e449c90	0.19200349
254	0x3e5b47b4	0.21414071
255	0xbe4394d5	-0.19099744

linear_relu_stack.2.weight f4 [36, 1024]
0	0x3b87eb3c	0.004147915
1	0xbcc964e3	-0.02458424
2	0xbca66a19	-0.020314263
3	0x3cffcfb5	0.031226972
4	0x3cc18a6f	0.02362558
5	0x3953e9ac	0.00020209578
6	0x3dd5b28b	0.10434445
7	0x3ddee2cd	0.108831026
8	0x3c58bd4b	0.013228725
9	0x3d9e5af5	0.077321924
10	0x3d0f3e45	0.034971494
11	0x3ba49890	0.0050230697
12	0xbbcf25c5	-0.006321641
13	0x3c49bc43	0.0123129515
14	0x3b9ba4a1	0.00474985
15	0x3b94374f	0.004523195
16	0xbc5fd923	-0.013662609
17	0x3cf2066c	0.029544078
18	0xbcfe48d1	-0.031040581
19	0xbcbb2057	-0.02284257
20	0x3d843757	0.06455868
21	0x3b8cec84	0.004300656
22	0xbcfc3597	-0.030787272
23	0xbcd6cd01	-0.0262208
24	0xbcf8f71a	-0.030391265
25	0x3d6ed5b0	0.058309257
26	0x3d7c0a98	0.06153354
27	0x3bebdb56	0.0071977777
28	0xbd14bffc	-0.036315903
29	0x3b51f3d2	0.0032036197
30	0x3e008c47	0.12553512
31	0x3e23b84a	0.1598827
32	0xbcac9c20	-0.02107054
33	0xbb893bcb	-0.004188036
34	0xbc9e8ec3	-0.019355183
35	0xbde58c6d	-0.11208425
36	0x3a373f96	0.0006990371
37	0x3c27c69b	0.010240222
38	0x3d978fd5	0.07400481
39	0xbdd9e911	-0.10640157
40	0xbc6275f4	-0.0138220675
41	0xbc2ae402	-0.010430338
42	0x3c783e8c	0.015151631
43	0x3b39a3e1	0.002832644
44	0xbc898abf	-0.016789792
45	0xbddb3220	-0.1070292
46	0xbc58a48c	-0.013222825
47	0xbd2bc161	-0.041932467
48	0x3b53a82b	0.003229628
49	0xbdc05dca	-0.09392889
50	0x3def1423	0.11673763
51	0xbc6fe663	-0.014642331
52	0x3d0da6a1	0.034582738
53	0xbc2f2f64	-0.010692451
54	0xbcf9ea9d	-0.03050738
55	0xbcdb762b	-0.026789745
56	0xbcf2a316	-0.029618781
57	0xbb88c53d	-0.0041739033
58	0x3c8b38ec	0.016994916
59	0x3c625886	0.013815051
60	0xbd00da2f	-0.031458076
61	0xbd0abd9e	-0.03387224
62	0xbdb5bae1	-0.08873535
63	0x3bc102c2	0.0058902213
64	0x3d56e8a4	0.052467957
65	0x3c04f21f	0.008114367
66	0x3c8616b9	0.016368257
67	0x3cb75f0a	0.022384185
68	0xbdadb1f6	-0.08481209
69	0x3cf067b4	0.029346325
70	0x3c97d604	0.018534668
71	0x3c3344ff	0.010941743
72	0x3c14339c	0.009045508
73	0xbe0e3016	-0.13885531
74	0x3cf6d0c2	0.03012884
75	0xbc8ad71a	-0.016948272
76	0x3c0af5f3	0.00848149
77	0xbd1d58b9	-0.03841469
78	0xbc17c809	-0.009264001
79	0xbe821333	-0.25405273
80	0x3d645a27	0.05575004
81	0xbda4b383	-0.08042052
82	0x3dd02d88	0.101649344
83	0x3cf5f021	0.030021729
84	0xbc112b05	-0.008860354
85	0x3d1a981f	0.03774273
86	0x3a9d5ded	0.0012006141
87	0x3dbe6799	0.092971034
88	0x3d6f4442	0.058414705
89	0x3c8e0ee0	0.017341077
90	0x3b41ccb3	0.0029571473
91	0x3dabe362	0.08392979
92	0xbc1f725c	-0.009731855
93	0xbd134e53	-0.035963368
94	0xbe242f8c	-0.16033763
95	0x3ce7c4ee	0.028292146
96	0x3d1c8791	0.038215224
97	0x3d1c75f6	0.038198434
98	0x3cc57448	0.024103299
99	0x3c92434f	0.01785436
100	0x3d9060f5	0.07049743
101	0x3c2713f7	0.010197631
102	0x3b942f19	0.004522216
103	0xbd1ca977	-0.03824755
104	0x3bfbe32f	0.0076869945
105	0x3cd5820a	0.026062984
106	0x3d2d7969	0.042352114
107	0xbca66bd1	-0.020315083
108	0x3bc0c5e0	0.0058829635
109	0xbd1a0da1	-0.037610654
110	0xbccf995a	-0.025341678
111	0x3d7611ba	0.0600755
112	0xbc55f0f8	-0.01305794
113	0x3d05dea4	0.03268303
114	0x3c142261	0.0090414
115	0xbd261872	-0.040550657
116	0xbc41a5ac	-0.011819284
117	0xbd135b51	-0.035975758
118	0x3c51993d	0.0127928825
119	0x3d55f148	0.052232057
120	0xbccf2618	-0.02528672
121	0xbc96befd	-0.018401617
122	0x3cf325bd	0.029681081
123	0xbcc22c10	-0.023702651
124	0xbc47cb7d	-0.0121945115
125	0x3d02b8c1	0.031914476
126	0xbd0327c1	-0.032020334
127	0xbc765a64	-0.015036199
128	0xbcda4c73	-0.026647782
129	0x3c239058	0.009983145
130	0x3c394323	0.011307511
131	0x3ca09d8f	0.01960638
132	0x3c9042ca	0.017609973
133	0xbd0e131b	-0.03468619
134	0xbced5042	-0.028968934
135	0x3beb15c3	0.007174225
136	0xbcb61c4c	-0.02223029
137	0xbd1cd216	-0.03828629
138	0xbcd95aa8	-0.026532486
139	0x3d1cc989	0.038278136
140	0x3c593c37	0.013258985
141	0xbb8487e1	-0.0040445183
142	0x3af28a59	0.0018504366
143	0xbd940ffb	-0.072296105
144	0x3d9e68a5	0.07734803
145	0x3d8b3d95	0.06798855
146	0x3e26c145	0.16284664
147	0x3c8493ed	0.016183818
148	0x3c0e0eb8	0.008670501
149	0xbd025127	-0.031815674
150	0xbce42634	-0.027850248
151	0xbd92b758	-0.07163876
152	0x3b418b81	0.0029532614
153	0x3b18dce8	0.002332503
154	0xbdb1b589	-0.08677203
155	0x3b88f32e	0.00417938
156	0xbbf3a0cf	-0.0074349414
157	0x3a27483b	0.00063813076
158	0x3ccf4f07	0.025306238
159	0x3c9b8210	0.018982917
160	0xbbc90ca0	-0.006135538
161	0x3cee2de0	0.02907461
162	0x3c317c18	0.010832809
163	0xb5cf336d	-1.5437669e-06
164	0x3cabcbe6	0.02097125
165	0x3b8895fd	0.0041682706
166	0x3cd5bedb	0.026091984
167	0xbc02cff4	-0.00798415
168	0x3d71d8b4	0.059044555
169	0x3c0cddac	0.008597773
170	0xbc6e333f	-0.014538585
171	0x3c2fafb4	0.010723043
172	0xbd98e070	-0.07464683
173	0x3ca1b1ce	0.019738104
174	0xbcc24978	-0.023716673
175	0xbd45d605	-0.048299808
176	0xbae71df2	-0.0017632826
177	0x3b100a5a	0.0021978826
178	0xbc3b08c9	-0.011415669
179	0xbc756d2b	-0.014979641
180	0x3b5ffae1	0.0034176635
181	0x3b8a6267	0.0042231563
182	0x3d6d83d8	0.057987064
183	0x3dff4b7e	0.12465571
184	0x3b94f3ea	0.0045456784
185	0x3cc0918b	0.0235069
186	0xbbf2d77d	-0.007410942
187	0x3c30539b	0.010762121
188	0x3e3e271f	0.18569611
189	0xbb0a58e5	-0.0021110114
190	0x3bebe401	0.007198811
191	0xbcd57d24	-0.026060648
192	0x3c911417	0.017709775
193	0xb76116d7	-1.3416363e-05
194	0xbc620ed6	-0.0137974825
195	0xbc2051fa	-0.00978517
196	0xbcfc91cd	-0.030831242
197	0xbc427915	-0.0118696885
198	0xbd94a981	-0.07258893
199	0xbc62f8c0	-0.013853252
200	0xbd45a5b6	-0.048253737
201	0x3d050680	0.032476902
202	0xbdb17abc	-0.08665988
203	0xbc7e2ca7	-0.015513576
204	0x3c9911dc	0.018685274
205	0xbcc73edd	-0.024321968
206	0xbd2345b7	-0.039861407
207	0x3d5817fd	0.052757252
208	0xbdee613c	-0.1163964
209	0xbc0d2e4b	-0.008616994
210	0xbc804864	-0.015659519
211	0xbbebff17	-0.00720204
212	0x3c500803	0.012697223
213	0x3e07dd25	0.13267954
214	0xbc15ea54	-0.009150106
215	0x3d48ddbc	0.049039587
216	0x3c8b0a8b	0.0169728
217	0x3c17ce1b	0.009265448
218	0x3c2fb548	0.010724373
219	0xbb32cc74	-0.0027282508
220	0x3e0bc460	0.1364913
221	0x3b071f36	0.0020617968
222	0xbdbf6d1e	-0.09346984
223	0xbccc4f1b	-0.024940064
224	0x3c2a11af	0.010380193
225	0x3c55a63d	0.013040123
226	0x3cb39627	0.021922184
227	0xbcbde1f2	-0.023179028
228	0x3cbc36f4	0.022975422
229	0xbc23b0b8	-0.0099908635
230	0xbc6995a1	-0.014256866
231	0x3cbeb9a3	0.023281878
232	0x3e0269a3	0.1273561
233	0xbddaa66f	-0.10676276
234	0xbc344ae7	-0.011004186
235	0xbd262a2e	-0.04056757
236	0x3dd31ad9	0.10307855
237	0xbd93befb	-0.07214161
238	0x3c7d5727	0.015462673
239	0xbc79a1c6	-0.015236324
240	0xbd84ee03	-0.0649071
241	0x3c75071f	0.014955311
242	0x3db1ded9	0.08685083
243	0x3c03d399	0.008046054
244	0xbc704436	-0.0146647
245	0x3d334a88	0.04377225
246	0x3c9ab141	0.01888335
247	0x3ca73a95	0.020413676
248	0xbd7c5227	-0.061601784
249	0xbd4887ab	-0.048957508
250	0x3d15ae7f	0.036543366
251	0x3cc62ae0	0.024190366
252	0xbd2666c5	-0.040625352
253	0xbbe8db39	-0.0071062115
254	0x3da2e05d	0.0795295
255	0x3baaa3f8	0.005207535

linear_relu_stack.2.bias f4 [36]
0	0x3a9a7779	0.0011784873
1	0xbb3b5bcf	-0.0028588658
2	0x3c4a6d5e	0.012355177
3	0x3cd18e87	0.025580658
4	0x3cd24fe4	0.02567286
5	0x3bd34ac1	0.0064481203
6	0x3cdd1390	0.026986867
7	0xbbc7eb51	-0.00610105
8	0x3c87db6a	0.016584117
9	0xbcb8df97	-0.022567553
10	0x3c73b108	0.0148737505
11	0x3cd75de0	0.02628988
12	0x3c431c0c	0.011908542
13	0x3ccc7e60	0.024962604
14	0x3c6269ea	0.013819197
15	0xba2e21a7	-0.0006642588
16	0xbc49b1ac	-0.012310427
17	0xbbe7d557	-0.0070749926
18	0x3a960945	0.0011446854
19	0xbcaab569	-0.020838456
20	0xbc3c0ccd	-0.011477661
21	0x3c6e5481	0.0145465145
22	0x3cec9dd8	0.02888386
23	0x3bf77f44	0.007553013
24	0x3cf2ef2e	0.029655065
25	0xbc0cf7a0	-0.00860396
26	0x3ce48bb6	0.02789865
27	0x3cd10178	0.025513396
28	0xbcfdacb8	-0.030966148
29	0x3cffc818	0.031223342
30	0x3d08ed0e	0.033429198
31	0x3cab5d21	0.02091843
32	0x3c090636	0.008363297
33	0x3bb683ec	0.0055699255
34	0xbc85913a	-0.016304601
35	0x3ca5702a	0.020195086
