models/model_potential_damping_n6.pth (torch, 53608 bytes, 4 tensors)

linear_relu_stack.0.weight f4 [256, 13]
0	0x3c8fbafa	0.017545212
1	0x3e4c40ce	0.19946596
2	0xbd3629cc	-0.044473454
3	0x3e4d1dda	0.20030919
4	0x3e7373f3	0.237747
5	0xbd5507b8	-0.052009314
6	0x3e62e994	0.22159415
7	0x3d6d4bb0	0.05793351
8	0x3e6130df	0.21991299
9	0xbd637651	-0.055532757
10	0x3d868c7e	0.065697655
11	0xbdb24948	-0.087053835
12	0x3d20c0f4	0.039246514
13	0x3e8019ca	0.25019675
14	0xbe14e9ad	-0.14542265
15	0x3e8ed906	0.2789995
16	0xbe698875	-0.2280596
17	0x3c7c4b1b	0.015398766
18	0x3e4e11a0	0.20123911
19	0x3daf5883	0.08561804
20	0x3e36230b	0.17786805
21	0xbe5bd949	-0.21469606
22	0xbd64753d	-0.05577587
23	0xbe44286b	-0.19156043
24	0x3e317090	0.17328095
25	0xbe784739	-0.2424592
26	0x3e8812fc	0.26576984
27	0x3d5fc312	0.054629393
28	0x3e723b1f	0.23655365
29	0x3de48991	0.11159051
30	0x3d676666	0.05649414
31	0x3c921aa5	0.01783497
32	0x3d35d54a	0.04439286
33	0x3e445c8e	0.19175932
34	0xbc4aab97	-0.012370012
35	0x3dc04d8c	0.09389791
36	0x3cff7057	0.031181497
37	0xbdf6287c	-0.120194405
38	0x3e60f0b7	0.21966825
39	0xbc48f296	-0.012264868
40	0x3c9a3226	0.01882274
41	0xbd028315	-0.03186329
42	0x3e407c61	0.18797447
43	0x3e17514f	0.1477711
44	0x3d225675	0.039633233
45	0xbe482942	-0.19546989
46	0x3e651dab	0.22374599
47	0xbe5a51c4	-0.21320254
48	0xbe57efd3	-0.2108758
49	0xbe18dd79	-0.14928235
50	0x3cbcb0d1	0.023033531
51	0xbea397c1	-0.31951717
52	0x3d51b053	0.051193547
53	0xbda35462	-0.07975079
54	0x3dbd4823	0.092422746
55	0x3e233a01	0.15940095
56	0x3e51fa1a	0.20505562
57	0x3e5664f6	0.20936951
58	0xbda5d972	-0.08098115
59	0xbe6195ad	-0.22029753
60	0xbd4de7ad	-0.05026977
61	0x3e0e743d	0.13911529
62	0x3d7ee42a	0.062229313
63	0x3e223243	0.15839486
64	0x3d9c7f16	0.07641427
65	0xbe3529b8	-0.17691696
66	0x3e639365	0.22224195
67	0x3b77d0d8	0.003781369
68	0xbe87228e	-0.2639355
69	0xbe3c87b9	-0.18411149
70	0xbe20e691	-0.15712954
71	0x3d52be67	0.051451113
72	0xbc72695f	-0.01479563
73	0x3e515e2f	0.20446084
74	0xbe6ecedb	-0.23321097
75	0x3e2f6158	0.17126977
76	0xbe0cf40c	-0.13764971
77	0xbe0987a4	-0.13430649
78	0xbe3e6ab6	-0.18595394
79	0x3d5e4c16	0.05427178
80	0xbe6e1297	-0.23249279
81	0x3dc6b0ab	0.097016655
82	0x3e005d60	0.1253562
83	0xbe2f8479	-0.17140378
84	0x3d3bbe4f	0.04583579
85	0x3e423a78	0.18967617
86	0xbe871495	-0.2638289
87	0x3dc08e9d	0.09402201
88	0xbe817abf	-0.2528896
89	0x3b8c835f	0.0042881216
90	0x3e58e1b3	0.21179847
91	0xbd8ff11e	-0.07028411
92	0x3e3e1266	0.18561706
93	0xbdd4189b	-0.103562556
94	0xbe85fdca	-0.26170188
95	0x3e49d1fc	0.19709009
96	0x3e4fdafc	0.2029838
97	0xbce8ba15	-0.028409043
98	0x3e5cc204	0.21558386
99	0x3e06a78d	0.13149853
100	0xbdb61d51	-0.088923104
101	0xbe38f0f4	-0.18060666
102	0xbe8a9603	-0.27067575
103	0xbd7224f8	-0.059117287
104	0xbe75c419	-0.24000587
105	0x3e1180e3	0.14209323
106	0x3e02a6fb	0.1275901
107	0x3e301312	0.17194775
108	0xbe452efc	-0.19256204
109	0x3dec5ba7	0.11540919
110	0xbe17d4c8	-0.14827263
111	0x3e2e0263	0.16993098
112	0x3e16b78a	0.14718452
113	0xbe3225cf	-0.17397235
114	0xbe474bcc	-0.19462508
115	0x3d67a634	0.056554988
116	0xbe17c39c	-0.14820713
117	0x3e16475d	0.1467566
118	0xbe40ffb7	-0.18847547
119	0xbe3aafb4	-0.18231088
120	0xbd6e0eb4	-0.05811949
121	0x3d56f76f	0.052482065
122	0xbe263265	-0.16230161
123	0xbeaba477	-0.33523914
124	0xbd60f0f4	-0.05491729
125	0xbe917d3c	-0.2841586
126	0x3c91e6b4	0.017810203
127	0xbe568ac4	-0.20951372
128	0x3d38fe71	0.04516453
129	0xbe287aea	-0.16453138
130	0xbe62a7fe	-0.22134396
131	0xbe44fd28	-0.19237196
132	0xbe067e40	-0.13134098
133	0x3d4cbed9	0.049986694
134	0x3deb40c2	0.11486961
135	0xbe85e050	-0.261477
136	0x3e3e5bf2	0.18589762
137	0xbe2eca0b	-0.17069261
138	0xbd124b64	-0.03571643
139	0x3e01da7e	0.12681004
140	0x3df478cc	0.11937103
141	0x3e4bdf90	0.19909501
142	0xbd2ab947	-0.0416806
143	0xbe27caf2	-0.16386011
144	0x3cbcc9a9	0.023045378
145	0xbe0229c0	-0.12711239
146	0x389cd8d0	7.479044e-05
147	0xbe17b029	-0.14813294
148	0x3bcca145	0.0062448108
149	0x3e219ccd	0.15782471
150	0xbd4a67d9	-0.049415443
151	0xbe85cc14	-0.26132262
152	0x3e0f64ae	0.1400325
153	0x3dcfc62d	0.10145221
154	0xbdebc9b7	-0.115130834
155	0xbd891b12	-0.066946164
156	0xbe0f6ccf	-0.14006351
157	0x3e502b6d	0.20329066
158	0xbe89cd88	-0.2691462
159	0x3d92976c	0.07157788
160	0x3e0a931a	0.13532677
161	0xbdbd4504	-0.09241679
162	0xbe6d02fb	-0.23145668
163	0xbddb32eb	-0.10703071
164	0xbd8198f0	-0.06327999
165	0xbcb6dfcc	-0.022323512
166	0xbd25f71e	-0.040518872
167	0x3cdb5c11	0.0267773
168	0xbdcb5f11	-0.09930242
169	0x3e2f59a3	0.17124037
170	0x3d959fef	0.073058955
171	0x3e4528c6	0.19253835
172	0x3d9eebbc	0.077598065
173	0x3e3f6e51	0.18694426
174	0x3e63e241	0.22254278
175	0xbdb347b5	-0.087539114
176	0xbe1f3ce4	-0.15550572
177	0x3e6ec45a	0.2331709
178	0xbcde4e67	-0.027136995
179	0x3ea53443	0.32266435
180	0x3e749e04	0.23888403
181	0x3b2ba5b3	0.0026191294
182	0xbd64bad5	-0.05584224
183	0x3e96a059	0.2941921
184	0xbe038390	-0.12843156
185	0xbe65ca8f	-0.22440551
186	0xbe76fa88	-0.24119008
187	0xbcb0a883	-0.021564728
188	0x3d866122	0.06561495
189	0xbde53901	-0.11192513
190	0xbe841369	-0.2579606
191	0x3ccdbb9c	0.025113873
192	0xbde0b416	-0.10971849
193	0xbdc298e2	-0.09501816
194	0xbe14ef30	-0.14544368
195	0xbe230fdf	-0.15924023
196	0x3db657b0	0.08903444
197	0xbe82e97c	-0.2556876
198	0x3ca554b9	0.020182
199	0x3e3675ff	0.1781845
200	0xbd298ce8	-0.041394144
201	0xbdc9fe76	-0.09862988
202	0x3e1e8ec0	0.15484142
203	0xbe11d127	-0.14239942
204	0xbe72e097	-0.23718487
205	0x3e4502fa	0.19239417
206	0xbe526453	-0.20546083
207	0x3e376cc3	0.17912583
208	0x3df4c3ed	0.119514324
209	0x3e14acb5	0.14519008
210	0x3e95d029	0.29260376
211	0x3e0ec436	0.13942036
212	0x3c52e298	0.012871407
213	0xbe7c9b41	-0.246686
214	0xbddb200d	-0.106994726
215	0x3db2bbeb	0.08727249
216	0xbe7ef83f	-0.24899386
217	0x3e63e4ee	0.22255298
218	0xbd94ecd5	-0.072717346
219	0xbe2d3384	-0.16914183
220	0xbdde9709	-0.108686514
221	0x3d6afc93	0.05736978
222	0xbe095089	-0.13409628
223	0xbde20273	-0.110356234
224	0xbdd4eef5	-0.1039714
225	0x3e153712	0.14571789
226	0x3e5ed431	0.21760632
227	0x3e80af00	0.25133514
228	0xbddfce83	-0.10928061
229	0xbc80e920	-0.015736163
230	0x3db189f1	0.08668888
231	0xbb0bdb6a	-0.0021340498
232	0x3e6e3436	0.23262104
233	0x3ce4d6c0	0.027934432
234	0xbc15b2b5	-0.009136845
235	0x3e043134	0.12909395
236	0x3da15524	0.078775674
237	0x3e7da831	0.24771191
238	0xbd54e489	-0.05197576
239	0xbc2ffe9a	-0.010741854
240	0xbe46381a	-0.19357339
241	0x3b9e1027	0.004823703
242	0xbe695036	-0.22784504
243	0xbe2dc181	-0.16968347
244	0x3e669a4c	0.22519797
245	0x3d1cd4b5	0.03828879
246	0xbd99e4e7	-0.07514363
247	0x3e6e37d2	0.23263481
248	0xbdf76832	-0.120804206
249	0xbe43e220	-0.19129229
250	0x3e670a89	0.22562613
251	0x3e4c0d9c	0.19927067
252	0xbe2b5b86	-0.16734132
253	0xbe25c361	-0.16187812
254	0xbe2643d9	-0.1623682
255	0xbe686ba9	-0.22697319

linear_relu_stack.0.bias f4 [256]
0	0x3da49276	0.08035748
1	0xbe6b5f63	-0.22985606
2	0x3d9ddbf7	0.077079706
3	0xbc928253	-0.017884409
4	0x3dc3bb06	0.09557156
5	0xbe491130	-0.19635463
6	0x3e4970ce	0.19671938
7	0xbd48546b	-0.048908632
8	0x3e9fc618	0.3120582
9	0xbc710b71	-0.0147122005
10	0xbdee29cb	-0.11629065
11	0xbdc03507	-0.09385114
12	0x3e7ae85f	0.24502705
13	0xbe12b910	-0.14328408
14	0xbd110a9d	-0.035410512
15	0x3d9d4a61	0.07680202
16	0xbe06e59a	-0.13173524
17	0x3e67cfa0	0.22637796
18	0x3e7e6a0f	0.24845146
19	0xbd9cd9cb	-0.07658728
20	0xbe1f7793	-0.15572958
21	0x3c68a1a3	0.014198693
22	0x3de540e6	0.11194019
23	0xbe1f56e1	-0.15560485
24	0xbe66ffbf	-0.22558497
25	0xbca8f8e8	-0.0206265
26	0xbe876667	-0.26445314
27	0x3e267d2d	0.16258688
28	0x3e960647	0.29301664
29	0x3ea8b16f	0.3294787
30	0x3e6a4d14	0.22880965
31	0x3e58ef29	0.21184982
32	0xbe81e0b0	-0.25366735
33	0xbe086a2d	-0.13321753
34	0x3e808b10	0.25106096
35	0x3d61b064	0.05509986
36	0xbcdc3ceb	-0.026884517
37	0xbd194cee	-0.03742688
38	0x3e90197a	0.28144437
39	0xbe5f96cb	-0.21834867
40	0x3e9bf61a	0.30461198
41	0xbd2e794f	-0.042596158
42	0xbde205f6	-0.11036293
43	0x3e13f0dd	0.14447351
44	0x3e8bf1bd	0.2733287
45	0xbe1f8cd9	-0.15581073
46	0x3e204299	0.15650405
47	0xbe6a96ca	-0.22909084
48	0x3e0165f0	0.12636542
49	0xbe387bdb	-0.18015997
50	0xbe8b68e1	-0.27228454
51	0x3da3c12a	0.079958275
52	0x3ca09063	0.019600099
53	0xbdb880fb	-0.09008976
54	0x3c54948b	0.0129748685
55	0x3e3e10bf	0.18561076
56	0x3e83eccd	0.25766602
57	0x3e851fe4	0.26000893
58	0x3e98729c	0.2977494
59	0x3d58a557	0.052892055
60	0x3dc4018d	0.09570608
61	0x3dd056e1	0.10172821
62	0x3e58b265	0.21161802
63	0x3e06b6ad	0.13155623
64	0x3e979f43	0.29613695
65	0x3e8e6a8f	0.27815673
66	0xbe8b6820	-0.2722788
67	0x3dd02419	0.10163135
68	0x3e86a67a	0.26298887
69	0x3e9ca6ea	0.30596095
70	0x3e817e03	0.25291452
71	0xbe7c84ee	-0.24660084
72	0x3d214541	0.039372686
73	0x3e9a5380	0.3014183
74	0xbdeb8616	-0.11500184
75	0x3e933d86	0.28757876
76	0x3da95f26	0.08270101
77	0x3e43e7ea	0.19131437
78	0x3e2758ed	0.16342516
79	0xbe37a66c	-0.17934579
80	0x3e4a3d43	0.19749932
81	0xbe064ad8	-0.13114488
82	0xbe48928f	-0.19587158
83	0xbe4b8ee4	-0.19878727
84	0xbd660076	-0.056152783
85	0xbe3b2110	-0.18274331
86	0x3e872a73	0.26399574
87	0x3ce50f5b	0.027961424
88	0xbe8206dd	-0.2539586
89	0x3e527623	0.20552878
90	0xbe0f1eb7	-0.1397656
91	0x3e30a3a6	0.17249927
92	0xbe07a64d	-0.13247032
93	0x3e881e9f	0.26585862
94	0xbe9d4fc0	-0.30724907
95	0x3e24cb8a	0.16093269
96	0xbe70f8d1	-0.23532416
97	0xbd3e0f3e	-0.046401255
98	0xbe6f4d3e	-0.2336931
99	0x3e79f989	0.24411596
100	0x3e3b6633	0.18300705
101	0x3e40f57c	0.18843645
102	0x3e523706	0.20528802
103	0x3ea00ace	0.31258243
104	0xbe889c62	-0.2668181
105	0x3e15fe39	0.1464776
106	0xbcb878f6	-0.022518616
107	0x3e498109	0.1967813
108	0xbd608db5	-0.054822642
109	0xbe00af5c	-0.12566894
110	0x3cf1cfe3	0.029518073
111	0x3e3638ab	0.17795055
112	0x3e71c82c	0.23611516
113	0x3e69df65	0.22839125
114	0xbb77a8b9	-0.0037789776
115	0xbe5879c4	-0.211402
116	0xbe85c463	-0.26126394
117	0x3e10e6e9	0.14150585
118	0x3da66180	0.081240654
119	0x3e2a88a5	0.16653688
120	0xbdde7c4a	-0.1086355
121	0x3e363c0b	0.17796342
122	0xbd960bc1	-0.07326461
123	0x3c776ed7	0.01510211
124	0x3e0f2f57	0.13982902
125	0x3e012f18	0.12615621
126	0xbe88ca85	-0.2671701
127	0xbb3a64d2	-0.0028441441
128	0x3e641d98	0.22276914
129	0xbde12bdb	-0.10994693
130	0x3e9a2096	0.30102986
131	0x3de48494	0.111581
132	0x3e0614da	0.13093892
133	0xbe68987f	-0.22714423
134	0x3e30ba79	0.17258634
135	0x3e2370d9	0.15961017
136	0x3e7b4611	0.24538447
137	0xbda96d20	-0.08272767
138	0xbe7f2f73	-0.24920444
139	0xbe4a8d6e	-0.19780514
140	0x3dda8f79	0.106718965
141	0x3dfee1d2	0.124454156
142	0x3e1d5db7	0.1536778
143	0xbe6dad62	-0.23210672
144	0x3db70128	0.089357674
145	0xbe31c6ad	-0.17360945
146	0x3e2db471	0.16963364
147	0x3de4da9d	0.1117451
148	0xbe2fc6da	-0.171657
149	0x3e8e86e6	0.27837294
150	0xbe8990b0	-0.268682
151	0x3e1cb5b5	0.1530369
152	0x3e8e0ff3	0.27746543
153	0xbe8aa4ca	-0.2707885
154	0x3db06b93	0.08614268
155	0xbdc5ef8a	-0.09664829
156	0xbd3d7ee6	-0.046263598
157	0x3e973e1e	0.2953958
158	0xbdfc0345	-0.12305311
159	0xbe8a11ba	-0.2696665
160	0x3e246058	0.16052377
161	0x3dd08fe1	0.10183693
162	0x3cd26304	0.02568198
163	0x3e027b50	0.12742352
164	0xbd763a29	-0.06011406
165	0x3de7d377	0.113196306
166	0x3dc19ea4	0.094540864
167	0xbe8c9d01	-0.27463534
168	0x3e875f75	0.26440015
169	0x3da5c309	0.08093841
170	0xbe5562ff	-0.20838545
171	0x3dfaadb4	0.122401625
172	0xbe8ebbf4	-0.27877772
173	0xbccb89b7	-0.024845941
174	0x3e9ca33a	0.30593282
175	0x3e8a4dc8	0.27012467
176	0x3e54ae23	0.20769553
177	0xbe527f5b	-0.20556395
178	0x3d1644cc	0.036686704
179	0xbe12382c	-0.1427924
180	0x3e218be2	0.15776017
181	0x3e0dd953	0.13852434
182	0xbe43e08c	-0.19128627
183	0x3c9d2094	0.019180574
184	0x3e13401f	0.14379929
185	0xbe719c1c	-0.23594707
186	0x3e5361d7	0.20642792
187	0x3e50bf6c	0.20385522
188	0xbe871c15	-0.26388612
189	0xbe287e8d	-0.16454525
190	0xbd80c92b	-0.0628837
191	0xbe4d82d0	-0.20069432
192	0xbe0ebcee	-0.13939258
193	0x3e96b5a4	0.29435456
194	0xbce75660	-0.028239429
195	0x3c35e637	0.011102251
196	0x3e06fce0	0.13182402
197	0xbd962346	-0.073309466
198	0x3e3a86ee	0.18215534
199	0xbd4d5971	-0.050134126
200	0x3e970024	0.29492295
201	0xbe1e886a	-0.15481725
202	0x3e5f918b	0.21832864
203	0x3e33077b	0.17483322
204	0x3e2973fa	0.16548148
205	0x3cf9050c	0.030397914
206	0xbe6af8c1	-0.22946455
207	0x3dd40038	0.10351604
208	0xbdfca466	-0.12336044
209	0x3d44a4d1	0.048008744
210	0xbe1b48ce	-0.15164492
211	0xbe13f7f9	-0.14450063
212	0xbd70ba01	-0.058771137
213	0x3e04dda1	0.1297517
214	0x3e5650ef	0.20929311
215	0xbe667084	-0.22503859
216	0xbe0af9c6	-0.13571844
217	0x3e6d5044	0.2317515
218	0xbe064f27	-0.13116132
219	0xbe7856c5	-0.2425185
220	0x3df28de8	0.11843473
221	0x3ce9ff17	0.02856402
222	0xbd576ff8	-0.052597016
223	0x3e076b27	0.13224469
224	0xbe5ea4df	-0.21742581
225	0xbd8344b6	-0.0640959
226	0xbdd4eb5c	-0.10396454
227	0xbe30d22e	-0.17267677
228	0xbe8bc90a	-0.27301818
229	0xbdfbd823	-0.12297084
230	0x3e36afa3	0.17840438
231	0x3e3fd08c	0.18731898
232	0x3d45b639	0.048269484
233	0xbe43c6d3	-0.19118814
234	0x3e620735	0.22073062
235	0xbe144a77	-0.14481531
236	0x3d628fd7	0.055312958
237	0xbe45cfea	-0.19317594
238	0x3de0ab5a	0.10970183
239	0x3d8968fe	0.06709479
240	0x3e8700b1	0.26367715
241	0x3d942954	0.07234445
242	0x3db1fe32	0.08691062
243	0x3e2e8a43	0.1704493
244	0x3e40c2e7	0.1882435
245	0xbe1912b3	-0.1494854
246	0x3e80eedc	0.25182235
247	0x3e7e8c97	0.24858318
248	0x3db76d44	0.08956388
249	0xbe822a1d	-0.25422755
250	0x3daecad0	0.08534777
251	0x3e384668	0.17995608
252	0x3e4f3516	0.20235094
253	0x3e3bb509	0.18330778
254	0x3dba128a	0.09085567
255	0x3e7e3975	0.24826606

linear_relu_stack.2.weight f4 [36, 256]
0	0x3d19f065	0.037582774
1	0xbd7d88c5	-0.06189801
2	0xbce24282	-0.027619604
3	0xbd0aa088	-0.0338445
4	0x3d9c84cf	0.07642519
5	0x3d3f18c9	0.046654496
6	0x3d24456e	0.040105276
7	0x3cc3ba95	0.02389268
8	0x3c2d414c	0.01057465
9	0x3d018759	0.03162322
10	0x3bbd5a48	0.0057785846
11	0x3cee1699	0.02906351
12	0x3d5442bd	0.05182146
13	0xbaa9554d	-0.0012919098
14	0x3dd7bd43	0.10534146
15	0x3cd8cdb7	0.02646528
16	0xbce986a7	-0.02850659
17	0x3ae49ecf	0.0017442348
18	0x3ce0dd51	0.027449282
19	0xbd0feb7a	-0.035136677
20	0xbcc36cdc	-0.02385562
21	0x3d0d500c	0.034500167
22	0x3d304b5e	0.043040626
23	0x3dc549e0	0.09633231
24	0xbcc7cdd1	-0.024390133
25	0x3c15964d	0.009130073
26	0x3cf36988	0.029713407
27	0xbce091e2	-0.027413312
28	0xbb6d1436	-0.0036175377
29	0x3d443e17	0.047910776
30	0x3c088c90	0.008334294
31	0x3d701826	0.05861678
32	0x3d003bb6	0.031306945
33	0xbd33e821	-0.043922547
34	0x3ca27396	0.019830506
35	0x3d7fbc81	0.06243563
36	0xbc7b6e7c	-0.015346166
37	0x3e227e13	0.15868406
38	0xbcaaa3ff	-0.020830153
39	0xba90e754	-0.0011055269
40	0x3cf6fbb8	0.030149326
41	0xbc8a16e0	-0.01685661
42	0xbd39616a	-0.045258917
43	0xbc615c30	-0.013754889
44	0x3da878a6	0.08226137
45	0xbdd7f47c	-0.105446786
46	0xbd04e7c0	-0.032447577
47	0x3d651477	0.05592772
48	0x3da814e6	0.08207111
49	0xbcccbea8	-0.024993256
50	0xbda9525a	-0.082676604
51	0x3c416906	0.011804825
52	0xbcc2bfbe	-0.02377307
53	0x3d530db1	0.05152673
54	0x3d35caa3	0.044382703
55	0xbab3bfb6	-0.001371375
56	0xbc4a162a	-0.012334386
57	0xbb27c212	-0.0025597853
58	0x3d950bb2	0.07277621
59	0xbabb0075	-0.0014267104
60	0xbcde297b	-0.027119389
61	0xbbfe6f59	-0.0077647385
62	0x3d5d6410	0.054050505
63	0x3a97695a	0.0011551783
64	0x3ca3a9ba	0.019978393
65	0x3d0406a9	0.032232914
66	0xbb240280	-0.0025025904
67	0x3cc78691	0.024356158
68	0x3d9c9680	0.07645893
69	0xbc8121ce	-0.01576319
70	0x3d5173e7	0.051135924
71	0xbd916f19	-0.07101268
72	0xbc80f52b	-0.015741905
73	0xbacf929d	-0.0015836541
74	0xbcc77322	-0.024346892
75	0xbce7380b	-0.028224966
76	0xbb8e2992	-0.0043384517
77	0xbbda7c62	-0.0066676596
78	0xbd04bf7f	-0.032409187
79	0xbd4f001c	-0.050537214
80	0x3c46aa51	0.0121255675
81	0xbddc9692	-0.107709065
82	0x3d2bcbce	0.04194241
83	0x3da29eb6	0.07940428
84	0x3bb711d5	0.0055868425
85	0xbb1178e5	-0.0022197303
86	0x3b1c8efc	0.0023888936
87	0x3c2cacd8	0.010539256
88	0xbc314702	-0.010820152
89	0x3c67f179	0.014156693
90	0xba5ecdae	-0.00084992766
91	0xbb3473bb	-0.00275348
92	0x3b58b772	0.0033068326
93	0xbcaedb45	-0.02134479
94	0xbba26874	-0.0049562994
95	0xbd055a1c	-0.032556638
96	0xbca7a242	-0.020463113
97	0xbc19078b	-0.009340177
98	0x3d066436	0.032810412
99	0x3d1846ba	0.037176825
100	0x3d690d55	0.05689748
101	0x3be410f3	0.0069600283
102	0x3d8dcfbe	0.06924389
103	0x3d457c2e	0.04821413
104	0x3d11c5bc	0.035588965
105	0x3d49ef32	0.04930038
106	0x3dd64240	0.10461855
107	0x3d019225	0.031633515
108	0x3cf66eb7	0.03008209
109	0x3d7cdc14	0.06173332
110	0x3c05670d	0.008142245
111	0x3cb60f32	0.022224043
112	0xbb43bfb6	-0.0029868907
113	0x3d82e9ab	0.06392225
114	0xbd2e679d	-0.042579282
115	0xbdafb8b1	-0.08580149
116	0xbd055c50	-0.03255874
117	0x3d0ed5b6	0.03487178
118	0xbbdda02b	-0.0067634783
119	0x3cd81237	0.026375873
120	0xbcce3e2e	-0.025176134
121	0xbbcd45a8	-0.006264407
122	0x3cfb7965	0.030697534
123	0xbc6ce1a0	-0.01445809
124	0x3bd71bf9	0.006564614
125	0x3b8b3c4d	0.004249132
126	0xbcf89a2c	-0.030346952
127	0x3b35d4ed	0.0027745322
128	0xbbdce7b8	-0.00674149
129	0x3d7b7acc	0.061396405
130	0x3cedf5ac	0.02904781
131	0x3c7f1c92	0.015570777
132	0x3d254460	0.04034841
133	0x3d1ecee3	0.03877152
134	0x3d75c346	0.06000068
135	0x3d5ab417	0.053394403
136	0xbc535f92	-0.012901204
137	0xbaedcb1f	-0.00181422
138	0xbd7f742e	-0.062366657
139	0xbbcb2f9f	-0.0062007452
140	0xbcafb530	-0.021448702
141	0xbca5f7f1	-0.02025983
142	0xbbbe39cd	-0.0058052302
143	0xbd7454f4	-0.05965133
144	0x3d83334b	0.06406268
145	0xbbd3de56	-0.0064657135
146	0xbb5765dc	-0.003286711
147	0x3d824bb8	0.063620985
148	0xbd061236	-0.03273221
149	0xb83b1b14	-4.4609493e-05
150	0xbcc87e0f	-0.024474172
151	0x3cf94ff9	0.030433642
152	0x3d40e060	0.04708898
153	0xbd261774	-0.04054971
154	0x3a3cc8f3	0.00072015746
155	0xbcf9e848	-0.030506268
156	0x3d88b219	0.066745944
157	0xbc41bf70	-0.011825427
158	0xbd0aea91	-0.033915106
159	0xbd2b87fe	-0.04187774
160	0x3cfe777b	0.031062832
161	0x3d5b70b2	0.05357427
162	0xbd014016	-0.031555258
163	0x3b7f7480	0.0038979352
164	0x3ce6c256	0.028168838
165	0x3d44ffcc	0.04809551
166	0x3ba6e6e3	0.005093442
167	0x3d504644	0.05084826
168	0x3d87149d	0.065957285
169	0x3d5232dd	0.05131804
170	0x3dcb366a	0.09922488
171	0x3d8624bb	0.065499745
172	0x3ca96e43	0.02068246
173	0x3d704704	0.058661476
174	0x3d76ccbe	0.06025385
175	0x3b211e3a	0.0024584667
176	0x3d4a0e41	0.04933
177	0xbcbcb040	-0.023033261
178	0x3ce7500b	0.02823641
179	0x3d0b1754	0.033957794
180	0x3b9d64c9	0.0048032743
181	0xbc63247a	-0.013863677
182	0xbd2a4af9	-0.041575406
183	0xbb87ff7a	-0.004150328
184	0xbd729964	-0.059228316
185	0x3cc02708	0.023456112
186	0xbc1ad8e5	-0.009451126
187	0x3d5bc2a1	0.05365241
188	0x3bfb525f	0.0076697315
189	0xbccc7027	-0.024955822
190	0xbb755484	-0.0037434408
191	0x3d1c3d89	0.038144622
192	0x3dad6690	0.08466828
193	0xbc2a40f8	-0.010391466
194	0xbb1cda9f	-0.002393402
195	0x3dbae152	0.09125008
196	0xbb2f65ef	-0.0026763638
197	0xbd4b8087	-0.04968312
198	0x3d13732b	0.035998505
199	0xbd149148	-0.036271363
200	0x3da40baa	0.08010037
201	0xbd698d79	-0.057019684
202	0xbca82b26	-0.020528387
203	0x3c3a341e	0.011364965
204	0x3d47e319	0.04880056
205	0x3caa9749	0.020824092
206	0xbcecbf4f	-0.028899817
207	0x3d17c22c	0.03705041
208	0x3d13b4cb	0.03606109
209	0x3ae8e1f9	0.001776754
210	0xbd7bd32c	-0.061480686
211	0x3c7658a2	0.01503578
212	0x3d51077a	0.05103252
213	0x3cddfba7	0.027097536
214	0x3c91c956	0.0177962
215	0xbcf672d9	-0.03008406
216	0xbd25bfaf	-0.040466007
217	0x3a989e7a	0.0011643909
218	0xbd350ce1	-0.044201735
219	0x3cf253bc	0.029580943
220	0xbce8f5fa	-0.028437603
221	0xbd3ccf7d	-0.046096314
222	0x3cc80099	0.024414347
223	0x3caa3f7f	0.02078223
224	0xbd42f6a2	-0.04759849
225	0xbc95a6ce	-0.018268015
226	0x3cacc4eb	0.021089992
227	0xbd55493e	-0.052071802
228	0xbcb12ca8	-0.02162774
229	0xbb9c87ba	-0.004776922
230	0x3ca17adc	0.019711904
231	0x3c956274	0.018235423
232	0xbd5aed46	-0.053448938
233	0x3d03111b	0.031998735
234	0x3d80e381	0.06293393
235	0xbd301fcc	-0.042999074
236	0xbca359a8	-0.019940212
237	0xbc7e405a	-0.015518272
238	0x3bfd19bb	0.0077240146
239	0x3cd38af7	0.0258231
240	0xbc71ca2b	-0.014757673
241	0xbc330405	-0.010926251
242	0x3c7cdb4a	0.015433142
243	0xbbbce5ba	-0.00576469
244	0x3d595a47	0.05306461
245	0x3d461ad6	0.048365436
246	0x3d191356	0.037371956
247	0xbd2b057b	-0.041753273
248	0x3ca32b7f	0.019918201
249	0xbcd2027b	-0.025635948
250	0x3d00b00e	0.0314179
251	0x3d3ccf46	0.04609611
252	0x3d8da081	0.06915379
253	0xbd1df2d7	-0.03856167
254	0x3d1cf708	0.038321525
255	0x3bf8aca7	0.007588941

linear_relu_stack.2.bias f4 [36]
0	0xbcf70465	-0.030153463
1	0xbc824785	-0.015903244
2	0x3d0acdb0	0.033887565
3	0x3cd5892b	0.026066383
4	0xbb040104	-0.0020142207
5	0x3cb17270	0.021661013
6	0x3d3ffad1	0.046870057
7	0xbcedc7ca	-0.02902593
8	0xbc8776a3	-0.016536063
9	0xbb800e83	-0.00390798
10	0x3cde8baf	0.027166216
11	0x3c929f4d	0.017898226
12	0x3da564a1	0.08075834
13	0xbc8c8d4d	-0.017157221
14	0x3d012e19	0.031538103
15	0x3c62cf02	0.0138433
16	0xbcb80f1a	-0.022468138
17	0x3c6961aa	0.014244476
18	0x3da6aa70	0.08137977
19	0xbaacdc62	-0.0013188238
20	0xbcdcd3ef	-0.026956527
21	0x3d497238	0.049181193
22	0x3c2bad15	0.010478278
23	0xbc32ffc9	-0.010925242
24	0x3d0b4d2b	0.03400914
25	0xbbed9562	-0.007250474
26	0x3c8f8cd7	0.017523212
27	0x3d1e0cf3	0.038586568
28	0x3d82fed3	0.0639626
29	0xbc26b599	-0.010175132
30	0x3d8ccb44	0.06874707
31	0x3d1a74b6	0.03770896
32	0x3d92b293	0.071629666
33	0x3d7aef14	0.06126316
34	0xbc28255d	-0.010262814
35	0xbc8b1cb9	-0.01698147
