models/model_potential_damping_n8.pth (torch, 57704 bytes, 4 tensors)

linear_relu_stack.0.weight f4 [256, 17]
00000000: f4f1 3bbd 77ac c43d 47f0 783e f0d2 a83d
00000010: bf1e 343e 883d 0cbe 15d4 353e 96a4 a83d
00000020: be8b 04bd 9ce3 413e cdf4 f0bd 1951 5dbe
00000030: 803f 3fbe 9223 84bd 6519 5dbe 1b59 debd
00000040: a5f3 e2bd cd91 2dbe 8442 b7bd 6a46 f13d
00000050: 521f 3fbd 6c5b c33c eb22 81be 1063 3d3e
00000060: bdd2 5a3c c8b4 e8bd f1f4 983d 3181 f4bd
00000070: e675 45be 62d0 923d 38aa 2cbe be8c e33d
00000080: 4cd7 b53d 4989 d1bd 78cb 28bd 4dd1 bd3d
00000090: 65e1 533e 8776 0ebe 80b4 d13c ddf1 3c3e
000000a0: a3dc 5d3e 59bd 67bd 482b 5ebe f697 12be
000000b0: da13 d7bd 9aab 2f3e 675c 3bbe aa98 0b3e
000000c0: 7ca7 aebd ff84 013e ad66 3abd a907 29be
000000d0: d6d8 b2bc f1d7 b9bc e9a9 0cbe f513 cabd
000000e0: c4c5 7ebc 66fe febd 4876 9dbd 46d1 ea3d
000000f0: 4fb5 803d 49ac 20be 8e71 0b3e 43cc 843d
00000100: dae9 183e 3465 743e e8b7 453e a0b3 2a3e
00000110: b560 c8bd 3a88 34bd de39 813e 29c7 7fbd
00000120: e984 263e 3aa7 793c 12ae 3bbd 702c 4bbe
00000130: 1c81 29bb a6d0 123e 4db3 173c 7d9c 2c3d
00000140: 3e6a 54bc 7d54 d83d fadd d63d 89a0 0d3b
00000150: b448 b6bc 7212 82be 32af da3d 67a1 463e
00000160: bd67 f0bd 9390 68bd 61d7 40be abd4 2dbe
00000170: acd9 2dbe 8ce3 0bbe cbe8 7fbd ab73 613d
00000180: ed0f 02be cd58 42be 5d09 0cbe 4550 c7bd
00000190: 9699 5ebe b2cd 093e 338d 4bbe dcb0 3e3e
000001a0: 1758 303e df0e 13be 097f 023e 73d9 34be
000001b0: 9d45 5b3d 8c60 713d b89d 443e f03e 293e
000001c0: 578d 1d3e 44cc 333d eb4c 9f3d 4426 ba3d
000001d0: 8232 bebd bacc eb3d 2067 823c a211 69be
000001e0: 1e6b 723c d57c fabd d2a2 623e 004a 39bd
000001f0: 729d 72be 8e44 1d3d 3392 e0bd ce51 2fbe
00000200: 18c5 42be 3901 3dbe bbd9 07be d01f 0b3e
00000210: fbbb 6e3e 3550 6abd 5ea4 1fbe 0517 2c3e
00000220: b2fd d43d 9caa 0ebe db2e fdbd 63d8 563d
00000230: 7360 f53d cfc5 48be f910 f6bd 8218 f43d
00000240: d6b3 f13d ec6d 78bb ea59 0abe 0433 d13d
00000250: ae84 f33d 1eaa d3bd 1de4 25be 99ce 1e3e
00000260: 24ba d93b a616 5e3e f375 0e3e fd12 4d3e
00000270: c0d9 b13d 075a 8bbd 1836 603e 896b 2dbe
00000280: 0a58 623e d7da 4a3e c6aa 65be 5433 6bbd
00000290: df96 003e c4a8 5bbe 6eea 243e c588 2ebe
000002a0: dcab 68bd dccc e23c 4b36 213e 3072 2a3d
000002b0: 6b98 9fbd 8310 db3d e282 0cbe 5339 403d
000002c0: e853 ccbc c3b8 14be f3f2 abbd c3fc bbbb
000002d0: 3cba 3c3e 199d 43bd 46cb 6b3c 333a 4c3d
000002e0: 4d38 eb3d e354 f83d 5956 873e 0cb4 b63d
000002f0: b256 09be 169d 71bd d967 83be 2815 9ebd
00000300: dbdb 80be 3a55 89bc 94e2 073d 9163 763d
00000310: 3d17 3ebd de6f ed3d 3038 033d 8a4c 213e
00000320: 9f3d 37be c75b 653e 6a1d 6cbe 2a9b a93d
00000330: 1430 523e e3a0 cf3c 24df e7bd 2efc 1c3e
00000340: 53c4 9c3d 9636 59be c567 acbd 47f4 13be
00000350: 7a66 fc3d f5a5 463e 0ac1 123e c6d7 0a3e
00000360: a4b7 57be f949 f83d 3c80 953d 273b c93d
00000370: 05fa ecbd 3899 4a3e 31ab 833d 8d57 9bbd
00000380: 29e5 07be 6fea c1bc e5e5 08be a3e6 ce3d
00000390: f8dc bfbd f218 6abd 806a 2dbd 84b6 41bd
000003a0: ef24 ce3d 8932 9ebd 78bc 743e 31d8 c33c
000003b0: c1de 803d fc99 103d a3fe ebbd 4e26 8d3d
000003c0: 2420 813e 8534 19be 9bf7 373e b5d1 093e
000003d0: eda1 473e 7d4c 03be 9781 363e f6ea d53d
000003e0: a1ee 2fbd f4bd 23be a3ae 0bbe 961e 04be
000003f0: c9ff 283b c460 eb3d 4b83 33bd 4c01 0a3e
-0.04588504 0.096032076 0.24310409 0.08243358 0.17589854 -0.13695347 0.17756684 0.08234517
-0.03235983 0.18934482 -0.11765442 -0.21612968 -0.18676567 -0.06452097 -0.21591718 -0.10856839
-0.11081628 -0.1695015 -0.08948234 0.117810085 -0.04666073 0.023847304 -0.25221953 0.1849482
0.013355908 -0.11362606 0.07468594 -0.11938704 -0.19283256 0.07168652 -0.16861808 0.11110829
0.08878955 -0.10231263 -0.041209668 0.092684366 0.2069145 -0.13912402 0.025598764 0.18451639
0.21666197 -0.05657706 -0.21696198 -0.14315781 -0.10501833 0.17155305 -0.18296967 0.13632455
-0.08528039 0.1264839 -0.045508076 -0.16506828 -0.021831911 -0.022685977 -0.1373669 -0.09867088
-0.015550081 -0.124508664 -0.07688576 0.11465697 0.06284582 -0.15690722 0.13617536 0.06484272
0.14932957 0.23866731 0.19308436 0.16670084 -0.097840704 -0.04407523 0.25239462 -0.062445793
0.16261639 0.015237624 -0.045820303 -0.1984117 -0.0025864309 0.14337406 0.009259057 0.042141426
-0.012964783 0.1056299 0.104915574 0.002161058 -0.022251464 -0.25404698 0.10677947 0.19397508
-0.117385365 -0.0567785 -0.1883216 -0.16975658 -0.16977566 -0.13661021 -0.062477868 0.05504195
-0.12701388 -0.18979187 -0.13675447 -0.09732107 -0.21738276 0.13457373 -0.19878082 0.18622154
0.17221104 -0.14361142 0.12743773 -0.17661075 0.053533185 0.058929965 0.1920079 0.16527915
0.15385948 0.043895975 0.07778343 0.0908933 -0.09286977 0.11513658 0.015918314 -0.22760633
0.014796047 -0.12230841 0.22132424 -0.045236588 -0.23692873 0.038395457 -0.10965385 -0.1712105
-0.19020498 -0.18457498 -0.13266651 0.13586354 0.23313896 -0.057205398 -0.15590045 0.16805656
0.10399951 -0.1393227 -0.123624526 0.052452456 0.11981287 -0.19606708 -0.12014956 0.11918737
0.11801879 -0.0037907315 -0.13510862 0.102148086 0.11890541 -0.10335182 -0.162003 0.15508498
0.006644504 0.21688327 0.13912182 0.20026775 0.08684111 -0.06804281 0.21895635 -0.16935553
0.22103897 0.19810043 -0.22428426 -0.057421997 0.12557553 -0.21451098 0.16105053 -0.17044361
-0.056804523 0.027685575 0.15743367 0.041612804 -0.07792743 0.10696509 -0.13721803 0.04692967
-0.024942353 -0.14523606 -0.08395948 -0.0057369187 0.18430418 -0.047757242 0.014391726 0.04986019
0.11485348 0.12125566 0.26433066 0.0892106 -0.13411978 -0.0589877 -0.25665167 -0.07718879
-0.25167736 -0.016764272 0.033175066 0.060153548 -0.04640888 0.115936026 0.032036006 0.15751854
-0.178946 0.22398292 -0.23058096 0.08281548 0.20526153 0.025345271 -0.113218576 0.15330574
0.076546334 -0.21212229 -0.0841823 -0.14448653 0.12324233 0.19399245 0.14331451 0.13558874
-0.21066147 0.12123484 0.072998494 0.098257355 -0.11571125 0.19785011 0.064291365 -0.07585058
-0.13271011 -0.023671357 -0.13368948 0.10102584 -0.09368318 -0.057152696 -0.042337894 -0.0472932
0.10065638 -0.077244826 0.2390002 0.023906799 0.06292487 0.0353031 -0.115231775 0.06892072
0.25219834 -0.14961441 0.17965548 0.13458903 0.19495364 -0.12822147 0.17822872 0.10445206
-0.042952184 -0.1599043 -0.13640837 -0.12902293 0.0025787225 0.11493066 -0.043826383 0.13477057

linear_relu_stack.0.bias f4 [256]
00000000: ecf5 14be cd5b 623e 4279 153e 9fe0 d73c
00000010: 4010 fc3d b71d ba3d 8d13 313e 2c6f 75be
00000020: 4584 803e 2340 2bbe 37c2 0d3e c213 793d
00000030: 12e1 763e 75bc 6f3e 0254 263e e75e 433e
00000040: 493f cebd 5230 91bb 67b7 2dbe 8c7a 343e
00000050: e0f3 1fbe 2c4c 99bb 05bc 163c cbb1 32be
00000060: c7f7 ae3d 817b 01be 0bdd 1dbd eee7 1ebd
00000070: c42f 3cbe 4b1d 663e 229f 45be 305c 44be
00000080: 5360 383e f8be 763e 7d26 40be 9678 073e
00000090: b074 8ebd 8d12 8abb fcf8 b43d d569 6b3e
000000a0: 8928 71bd 6532 3b3e eaf0 f6bd c409 2dbe
000000b0: 21d2 793e 6fe9 10bb b398 863d 3977 f63d
000000c0: 9335 0a3e 1157 143e 6246 833d 32eb 8b3e
000000d0: 0377 0a3e cf30 323d 50ba 33be a26b c5bb
000000e0: c60e b03d a6ab 813e b5a0 32be 2619 0b3d
000000f0: f094 5e3e 3fe0 df3d 96cb f23d b107 913d
00000100: 5911 173e a2c9 66be fda9 563d ca88 063e
00000110: 5853 3abd 1710 6bbd 1d02 69be cdd3 6e3e
00000120: 9fea 9fbd b684 6f3e ee18 943c 8b0f f73d
00000130: 911c 1b3e 67a4 5ebc e106 f8bd 59db f43d
00000140: be60 17be 45a5 f9bd cb8e b13d 563b b43d
00000150: 2f91 613e 0f27 373e 4fd3 dbbc 8757 2a3d
00000160: 8013 2fbe 8efe 753e f0da 803e 7934 283e
00000170: a1bd 18be 6621 c83d 8729 f73d 34a0 8e3e
00000180: 513d 913d 31ba 23be 935b 19be 8906 2cbd
00000190: 1e3c 923e 9416 553e b277 64be 9d11 0cbe
000001a0: 4378 673e 40e9 67be 2ac5 763e 2d4e a7bd
000001b0: 885e b63d bf03 bb3d a2e7 e83d a1ec 793e
000001c0: 3e28 edbd 08dd 0a3d ca94 883e f265 09be
000001d0: 13c2 54be 8f6e d1bd 5175 13be ea3a 913e
000001e0: 3572 153e 1a66 b1bd aded 5fbd 34cc 873d
000001f0: 9872 20be bdf7 1c3e 5ebd 163e 99a4 19be
00000200: c036 bc3b 4634 48be c0ed babd 3156 f93d
00000210: bc0b 8f3e 7021 4d3e 2a23 d7bc c23f 56be
00000220: 02ef 853d 522a 44be 13b6 213e 8df3 0f3e
00000230: 1525 3e3e bb3a a7bd a12f 3cbd 9e9c 783e
00000240: 26dc 5cbe f688 31be ae0a 2c3e 4ad2 74be
00000250: 1a52 52be 9e4d 093e a0ef 943e 5fd4 493e
00000260: cf9f d3bc 4f13 4d3e 8a0d adbd 3177 403e
00000270: c9c5 3bbe bb0f 283b db6b 5239 b49f 3bbe
00000280: 3f93 77be af8c 48be b039 833e 7f31 273e
00000290: 4589 723e 929c 4e3e a7c6 3b3e 878e 73be
000002a0: 9481 a4bd 127f 1b3e 5449 7c3e f1f1 0a3e
000002b0: 1e3f d9bd 3356 87ba c6b2 633e 3555 153d
000002c0: c9aa 643e 8267 7e3e ccda f03b 970a 69be
000002d0: c95d 60be 45d4 c73d 9bed 1a3e dfeb 513e
000002e0: ac93 573e 4f82 273e a7dc f13d 1885 db3d
000002f0: 5666 2b3d 7b19 8a3d ef43 7f3d 7a97 4bbd
00000300: f390 54be a6f1 0dbe 282d 683e f043 6fbe
00000310: c59c 2e3d b0cc 2bbe 5791 52be 01f9 853e
00000320: a8f9 723e 9d2c 62be b55c 2e3e 584b ba3d
00000330: 5738 d5bd fe1c cf3c a9ad 243e 72ea 423e
00000340: 9ad9 5a3e 966a 6e3e 89fd 2c3d e491 803d
00000350: 32bf 51be 7194 153e 5037 5abe 0061 b23d
00000360: 3742 c83d 4076 5f3e 25bd 0e3e 7fb8 f43d
00000370: 0952 14be 611a 06be 9c1e 2f3d 0f4b a7bd
00000380: b317 103e 7716 0e3e eb27 32be 34b1 db3c
00000390: 4ee3 783e 858e 123e b758 76be 906c f23d
000003a0: 0375 21be 3ffe f83c 5e80 ba3d 4218 833e
000003b0: 746f 0c3e 2eeb 443e 58d3 073e 6086 663e
000003c0: 926e d03d 94ab 13be 3fc3 4c3e 868b 833d
000003d0: 19f9 373e 4369 723e e2cc 59be a2c4 ef3d
000003e0: a513 23bd f08a 30be bf71 863e b6e1 b2bc
000003f0: 8231 3b3d 389c d13c 713d 8d3e 4bb9 63be
-0.14546937 0.22105332 0.14597037 0.026352225 0.12307787 0.09087699 0.17292614 -0.2396819
0.25100914 -0.16723685 0.13843618 0.06080986 0.24109295 0.23411734 0.16242984 0.19079171
-0.100706644 -0.004430809 -0.16964494 0.17624873 -0.15620375 -0.00467827 0.009200101 -0.17450635
0.085433535 -0.12644769 -0.03854088 -0.038795404 -0.18377596 0.22472112 -0.19298986 -0.19175792
0.18005495 0.24096286 -0.18764682 0.13229594 -0.0695585 -0.004213637 0.088365525 0.2298959
-0.058876548 0.18280943 -0.120576695 -0.16898257 0.24396564 -0.0022111794 0.06572094 0.12034459
0.13497 0.14486338 0.06409909 0.27327877 0.13521962 0.04350358 -0.17551541 -0.0060247937
0.08596568 0.2532627 -0.17444117 0.03395953 0.21736503 0.109314434 0.11855237 0.07081545
0.14752711 -0.22537854 0.052408207 0.13138118 -0.04548964 -0.05738839 -0.22754712 0.23322983
-0.07808422 0.23390469 0.018078294 0.120635115 0.15147616 -0.013589001 -0.12110687 0.119559
-0.14782998 -0.12189726 0.08669814 0.0880038 0.2202804 0.17885993 -0.026834158 0.04158738
-0.17097282 0.24022886 0.25167036 0.16426267 -0.14916088 0.09771995 0.120684676 0.278566
0.07091773 -0.15988995 -0.14976339 -0.04199842 0.2856149 0.20809394 -0.22311285 -0.13678594
0.2260447 -0.22647572 0.2409865 -0.08169208 0.08904749 0.09131574 0.113723055 0.24406673
-0.11579941 0.033902198 0.26676017 -0.13417795 -0.20777158 -0.102261655 -0.14400221 0.2836526
0.14594348 -0.086620525 -0.054670025 0.066307455 -0.15668714 0.1532888 0.14720675 -0.15004195
0.0057438314 -0.1955119 -0.091273785 0.12174643 0.2793864 0.20032287 -0.026261885 -0.20922759
0.06539728 -0.19156769 0.15792112 0.14057751 0.18568833 -0.08165499 -0.04594386 0.24278495
-0.21568355 -0.17337403 0.16800949 -0.23908344 -0.20539132 0.13408515 0.2908907 0.1970992
-0.025833039 0.20026897 -0.08449848 0.18795468 -0.18337168 0.0025644142 0.0002006734 -0.1832264
-0.24177264 -0.19584917 0.2562995 0.16327475 0.23685177 0.20176914 0.18337499 -0.23784839
-0.080325276 0.15185192 0.24637347 0.13568856 -0.10607742 -0.0010325372 0.22236165 0.036458213
0.22330774 0.24844173 0.0073503014 -0.22757946 -0.21910776 0.09757284 0.15129702 0.20500134
0.21052426 0.16358303 0.11809664 0.10718745 0.041845642 0.06743141 0.062320646 -0.049705006
-0.20758419 -0.13861713 0.22673476 -0.2336576 0.042629976 -0.16777301 -0.20563255 0.26166537
0.23728049 -0.22087331 0.17027552 0.09096402 -0.104111366 0.02528238 0.16081871 0.19034746
0.21372071 0.23282847 0.042233977 0.062778264 -0.20483091 0.14607407 -0.21310163 0.087099075
0.097782545 0.21822453 0.1393934 0.11949252 -0.14484419 -0.13096 0.0427538 -0.08168613
0.1407154 0.13875757 -0.1739804 0.026817895 0.2430546 0.1431218 -0.2405728 0.11837113
-0.15767293 0.030394671 0.09106515 0.25604445 0.13714391 0.19230339 0.13264215 0.22512197
0.101773396 -0.1442092 0.19996355 0.06423096 0.17966117 0.23672967 -0.21269563 0.117074266
-0.039813656 -0.172405 0.26258656 -0.021836143 0.04570151 0.025587186 0.2758594 -0.22238652

linear_relu_stack.2.weight f4 [36, 256]
00000000: d388 4b3c 2a26 30bc 4ae2 6e3d aa77 09bd
00000010: c932 083d 567a cebc e400 9bbc 4a1c 2abd
00000020: c8ef 003d cceb febc 0779 efbc 83e3 dbbc
00000030: ed1c 183d 1f76 263d ce0d ccbc 313a e4bc
00000040: 6c59 133d 26dd 703d ee6b 4b3d 098d ff3c
00000050: e505 e43c b994 813d 07e5 1bbd 92a9 daba
00000060: 4c86 3d3d 117f 833d 7c5f 9b3b 0f37 e2bc
00000070: 1cf4 12bb 24b2 7f3d a0f9 96bc e7bc 903d
00000080: b245 32bd dafb a73c f93b 25bd e865 0b3d
00000090: 5ddc c2b9 9388 43bd 33b8 993c 1b6b 9d3c
000000a0: b979 ccbb 4f16 0d3d 3cc5 803d a027 5cbd
000000b0: c843 ad3c ebbe 24ba 3810 183d e01a 6c3d
000000c0: c611 323d c7ec bfbb f361 6f3c 25df 1cbd
000000d0: cf2b bbbc bd19 4b3d ab8d 3c3d cbf0 053d
000000e0: 0556 50bd b51e 19bd 5097 013d aef2 693d
000000f0: fc6f 07bd c528 9a3d fd42 0fbd 2dac 983d
00000100: 51fa 9a3c c05f 9d3a d109 54bb bf46 7fbd
00000110: 4a38 3f3d 9774 71bc 20de 133b ffff 4fbd
00000120: 0b51 35bc dd94 aabc eeff d5bb 9fcc 02bd
00000130: 269c 6b3d 0fe3 4b3d 3717 033c 18e9 b3bb
00000140: 2004 aabc f964 79bd f1ad d03c 4869 e73c
00000150: 3eb3 c93c 5b7a ad3c c4f2 063d 8540 233d
00000160: d756 d4bb 39a8 eb3c 79aa 0c3c b096 643d
00000170: 6006 513d e288 e3bc 66a8 cf3b dd5a 3bbd
00000180: 9515 4bbb aa04 2fbd 5d1f 763d 010a 773c
00000190: dad0 43b9 c010 0c3d 65ba 6a3b afe3 21bd
000001a0: 44ec db3c eae5 0cbc 2838 2c3d 38e4 4a3d
000001b0: 190a aabc d950 98bc 04f4 893b 5ce1 233d
000001c0: b386 253d c8b1 3abc 82dd 3b3d c877 89bc
000001d0: 2000 f93c c103 01bd 1b96 91bd 0810 cf3c
000001e0: 455b 5cbd edce 033b 77f7 43bb d017 0abd
000001f0: c375 c4bb a202 a53b 339e f73c 16c7 463b
00000200: 3faa 303d 4617 5fbd 49f5 933d 3e55 9d3d
00000210: a873 41bb 9d37 27bb 963c 2a3d 40d1 243c
00000220: e8bf 59bb af9c a1bc 7db8 233d 3768 503d
00000230: a217 9c3c af9c 983d 511c 3c3d a7c1 1c3d
00000240: 5880 f7bc f4bb 893c 3aa4 f4bc 083a 3a3d
00000250: 878f 1bbd 3c4d 633d e93a 623d 2b45 8ebc
00000260: 1081 cfbc bd46 0f3d 27f0 10bc 0d11 7bbb
00000270: 2bb5 1e3c 0121 97bc c765 84bb 75e5 203c
00000280: d529 29bc a82f 3ebc f040 ebbc d954 7e3d
00000290: 6568 bd3c 35cd 20bb 8b01 333d 00ed 043d
000002a0: 2d10 053d 4827 50bc b659 963d 435b 9f3d
000002b0: 1732 6f3b 5acf 1dbd 1c41 3b3c 618a ab3b
000002c0: 416a 463c d601 8d3d 42d8 67bc dea2 993a
000002d0: ac31 25bc a6bb 0bbb ea25 87bc b23d 403d
000002e0: 0204 853d 6c65 523d c578 843c 41f7 0fbd
000002f0: 41ed 903d b951 3ebc a8a1 3f3d 2cee 013d
00000300: eb01 283d e33c 973c ed64 853d 979b c2bc
00000310: d2f5 df3c cccd 04bd 239e 77bc 84d6 9a3d
00000320: 4e69 103d aac6 303d 5244 36bc de12 d9bc
00000330: 6bde 59bd 0a49 083d 6170 cfbc c252 383d
00000340: 76fe 4bbc d054 b83c d686 913d 9cca 9f3c
00000350: f0b7 87bb 7b48 46bd 5ea4 e6bc a4d6 153c
00000360: 4c30 14ba a18d 633d 4d89 353d 382c 673d
00000370: 033c 3a3d ee0b adbc 2c45 163c 8d14 793d
00000380: 2283 873c 9785 353d 417f 25bd 6a8d fd3b
00000390: bff1 edba 3152 a53c 9263 afbc afea 65bc
000003a0: 25b3 07bd 783d 1eba 51e4 0dbd 9736 913d
000003b0: a678 4e3c 144a 4dbc eb3d 0fbc c75c 6c3d
000003c0: 195d 01bd 162a 92bc 0e1f 2cbd 28f3 413c
000003d0: 8d5e a73d 7ad2 fd3c 8202 37bd d977 0c3d
000003e0: 5c03 a03c fc72 233d 98b6 3b3c 3300 16bc
000003f0: 7eb0 1e3d 39fd 5dbc 9de0 8e3d 9e3b 5ebd
0.012422758 -0.0107512865 0.058321275 -0.033561386 0.033251557 -0.025204819 -0.018921323 -0.041530885
0.031478673 -0.031118296 -0.029232515 -0.026841884 0.03713696 0.040639993 -0.024908926 -0.02785978
0.03597395 0.058804654 0.049663477 0.03119518 0.027834842 0.06327195 -0.038060214 -0.0016682616
0.046270654 0.0642072 0.0047416072 -0.027614145 -0.0022423333 0.062425748 -0.018429577 0.0706728
-0.043523498 0.020505834 -0.040340398 0.034032732 -0.00037166747 -0.04773767 0.01876459 0.01921611
-0.0062400964 0.034445103 0.062876195 -0.053748727 0.021150485 -0.00062845525 0.037124842 0.057642817
0.04347398 -0.0058570835 0.014610755 -0.038298745 -0.022848038 0.049585093 0.046033543 0.03270034
-0.050863285 -0.0373828 0.031638443 0.057116203 -0.03306578 0.075273074 -0.034975994 0.07454715
0.018918188 0.0012006685 -0.0032354484 -0.062323328 0.04668454 -0.01473727 0.0022562817 -0.050781246
-0.011066685 -0.020822937 -0.0065307533 -0.031933423 0.05752196 0.049777087 0.00800114 -0.0054904334
-0.02075392 -0.06088731 0.025473567 0.028248444 0.024621602 0.021176508 0.032946363 0.039856452
-0.0064800787 0.028766738 0.008585566 0.05580777 0.05103147 -0.027775232 0.0063372133 -0.04574095
-0.0030988206 -0.042729057 0.060088504 0.015078069 -0.00018674452 0.03419566 0.0035816666 -0.039523777
0.026846059 -0.008599738 0.042045742 0.049534053 -0.020756768 -0.018593239 0.004209997 0.04000984
0.040411662 -0.011394925 0.045865543 -0.016780749 0.030395567 -0.03149772 -0.071087085 0.025276199
-0.05379798 0.002011235 -0.002990214 -0.033714116 -0.0059954836 0.0050357142 0.030226802 0.0030331067
0.04313111 -0.054465555 0.07224519 0.07682274 -0.00295184 -0.0025515326 0.041561686 0.010059655
-0.0033225957 -0.019728033 0.039970864 0.050880637 0.019054238 0.0745176 0.045925442 0.03827062
-0.030212566 0.016813256 -0.029863466 0.0454655 -0.037978675 0.05549358 0.055231962 -0.017366966
-0.025330096 0.03497957 -0.008846319 -0.0038309724 0.0096867485 -0.018448355 -0.004040453 0.009820332
-0.010324915 -0.011608042 -0.028717488 0.062092636 0.023121068 -0.0024536375 0.043702643 0.032452583
0.03248613 -0.012704678 0.0734133 0.07781079 0.0036498362 -0.038527824 0.0114290975 0.005235002
0.012110294 0.06885116 -0.014150681 0.0011721512 -0.0100826435 -0.0021321564 -0.016497571 0.046933837
0.06494905 0.051366255 0.016170869 -0.03514791 0.070765026 -0.011616164 0.046785027 0.03172128
0.041017454 0.01846165 0.06513391 -0.023755832 0.027338896 -0.032422826 -0.015113386 0.07560447
0.035256676 0.04315821 -0.011124687 -0.026498254 -0.05319063 0.03327278 -0.025322141 0.0450008
-0.012450805 0.02250138 0.07105796 0.019505791 -0.0041418 -0.048408967 -0.028154548 0.009145413
-0.0005652949 0.05555499 0.044320393 0.056438655 0.045467388 -0.021123853 0.009171765 0.060810614
0.016542021 0.044316854 -0.040404562 0.007737805 -0.0018153711 0.020180793 -0.021409784 -0.014033004
-0.03312983 -0.0006036381 -0.034641568 0.0709049 0.012602007 -0.012529869 -0.00874279 0.057705667
-0.031582925 -0.017842334 -0.042021804 0.011837758 0.08172331 0.030984152 -0.044680126 0.034293983
0.019532852 0.03990458 0.011457108 -0.009155321 0.038742535 -0.0135491425 0.06976435 -0.054256074

linear_relu_stack.2.bias f4 [36]
00000000: 7ef6 393d c22b d5ba 7171 bb3c 6993 2e3c
00000010: 1167 a53d 44ec e5bc 3dc0 223c 4b38 3b3d
00000020: 2407 a73d c58c b53d d524 993d c9a3 7a3d
00000030: f4b8 873d f9e6 3aba 4e48 8e3d 59dc 873d
00000040: ccdb 8a3d 0276 af3d 86b0 323d d134 8c3d
00000050: 8804 f8bb b79d 0d3d f1c8 063d 73bb 563d
00000060: 30d4 8d3d e7e3 6ebb 6fe8 473d 5c86 523c
00000070: 17d2 be3d ba20 47bb a9ee 04bd bc14 033d
00000080: 6f8f 503d 5936 543d 3f88 d53c 94e8 49bd
0.04540109 -0.0016263651 0.022881242 0.0106552625 0.08076299 -0.028066762 0.0099335285 0.045707982
0.08155659 0.0886474 0.07477728 0.061191354 0.06627074 -0.00071297545 0.06947385 0.06633825
0.06780204 0.0856743 0.043625377 0.068460114 -0.0075688995 0.034574237 0.032906476 0.05242486
0.06925237 -0.0036451758 0.04880565 0.012849417 0.09317415 -0.0030384497 -0.032454167 0.032002196
0.05091804 0.051809642 0.026065944 -0.04929407
