models/model_potential_damping_n12.pth (torch, 65896 bytes, 4 tensors)

linear_relu_stack.0.weight f4 [256, 25]
00000000: c91c a2bd 3862 aabc b79b dcbd 91ea fc3d
00000010: 9b74 b03d 2b42 febc 3347 9a3c 3ee3 143e
00000020: b520 a33d b3df 123e 5c96 103e 01bc 09bd
00000030: 7596 0c3e f77b 2d3e 22d2 16be 4872 abbd
00000040: d076 94bd aa0d 31be e9e7 0fbe 4d3a 5abd
00000050: 1dc6 83bd dca4 06be d289 0a3e 39ce 3d3e
00000060: c662 1f3e dab4 22be a770 a6bd 5e80 3ebe
00000070: a562 5d3d 381e 883d c3cc b1bc 81bd f1bc
00000080: bd45 67bd a675 16bd 47c6 463d 8d3e e0bd
00000090: 1579 2ebe cb10 4e3e 2cfd 433d d105 10be
000000a0: 0599 c63c 5d42 15be bd59 2e3e cc91 35be
000000b0: 2557 bdbd 26ab e73c 2a27 0e3e f90e 04be
000000c0: e6f1 19be 13a6 55bd 632a f7bd f397 d4bd
000000d0: a334 fa3d 464e 02be e2c8 d4bd 3156 e63b
000000e0: 0d13 203e e8f5 a23d e0a8 293e e14d 07be
000000f0: 8e50 143e 3a4e f33c 9a6d b4bd 8cd7 bebd
00000100: 3935 41be 0099 223d 91d3 223c d1e3 3abe
00000110: 8c6c 033e 5636 d03d bf71 9fbc 234a 033e
00000120: f7e5 3b3e 5857 903c 4b88 2b3e 7e76 8a3d
00000130: 0574 3f3d 959b 28be 5f86 56be c5a4 e7bd
00000140: 876a 65be da24 03bd 94ed 193c b806 24bd
00000150: dc37 f0bc cd26 053e 8e3a a4bd f019 953c
00000160: 02f1 c5bd c519 f5bd b7c9 593e efb9 243d
00000170: cd13 d33c edf0 e7bd 5b84 383e 51c7 62bd
00000180: f2ff 543d 1309 4cbe 0a73 003e 1ea6 98bd
00000190: 4227 9cbd 2f0d 29bc bdc9 f4bd 31e1 ab3d
000001a0: f3b9 8b3d 8c2b acbd 2cc0 a7bd 9f28 0d3d
000001b0: fd2e 78bd 79ab 5fbd 648c 3a3b 77cb 12be
000001c0: 2035 c9bd dbc8 7abd 278a 1d3e d39e 0fbe
000001d0: a95f 653d 1fb1 1dbe f649 dcbd 8af0 213d
000001e0: 44a3 05be 6ec4 083d 463e 393e e89c 75bd
000001f0: 401c b73d da11 bbbd f585 3b3e 692f 033e
00000200: a3f1 24be 6036 cdbd 3abd 99bd 6a6d 2cbe
00000210: cf8e 113e c986 3d3e 3b97 043e 9da9 b6bd
00000220: 727f e13d 50f2 e73c 48bc 263d d0b9 3bbe
00000230: 4cd9 29bd b8b8 043d 14bc 5c3d 8aa2 ffbd
00000240: d89b 81bc 584f 1bbd 17f0 37be f4f7 8fbd
00000250: c95c 253e 20ec 11be 9325 1e3e c4d8 473e
00000260: 61ef 80bd b3ed 4f3e 1cf5 b3bd 0e37 093e
00000270: 6dc5 0cbe bbae e1bd 2b49 093e 8b16 0b3d
00000280: 675f 50bd f6c6 07bd b5d7 f4bc e4cc 0c3e
00000290: ed46 1c3e 3ea4 a6bd 44fb e5bd f79a 423e
000002a0: a26c 6fbd 57a7 df3c 882b 023e fb18 d73d
000002b0: fcf5 3a3e a10c 083e 8555 b93d 1725 3b3e
000002c0: 5607 7ebb f5f7 613d d1a3 a2bd fa31 b8bd
000002d0: d780 0abd 062a d5bc 9705 11bd ccfb a7bc
000002e0: f595 163e 683b efbc 85c3 6e3d 2190 43be
000002f0: 0202 3c3d 6d73 a0bc 0fe8 33be 5c20 b13d
00000300: 0c4b 1cbd 3cc6 1e3e 3e71 aa3b 726a 053d
00000310: 6c03 89bd 86ce 94bc a51c 533e bb62 d0bb
00000320: 69ba 333e 017f 093e f8cb e0bd f239 133e
00000330: 75e7 16be 13da 39be 00b3 14be bf23 563e
00000340: d556 8abd 655d dfbd 1a2c d83d 40c3 a5bd
00000350: 3fc9 093e 8524 23be bed8 d83b 8a73 f13d
00000360: 9c34 41be 9514 be3c 4ab6 4d3d ef82 0b3c
00000370: d71b 3bbe 1823 223c 1056 bcbd 65fa 933d
00000380: b597 3b3d 89a2 013e 81ea ab3c 13f3 36be
00000390: ed7a 923c 0814 1c3e 9e56 42bd 763d 87bd
000003a0: 34d8 05be 3258 0e3e 6070 043d 77d7 3f3d
000003b0: 2c2b 153e b684 d3bd faf9 c3bd 2ce2 32be
000003c0: ed97 ffbd 4602 24bc 8e80 e53d c7be 6c3d
000003d0: b637 163e 12c7 d23d 120c 233e 7892 2a3d
000003e0: 9566 8bbd a4bd 073e e20e febc 895d 243c
000003f0: bed4 f43c dbaa dd3c 5981 0a3e eb35 edbd
-0.079156466 -0.020798787 -0.10771888 0.123494275 0.08615991 -0.03103741 0.018832779 0.14539811
0.07965223 0.14343147 0.14119858 -0.03362656 0.1372927 0.1694182 -0.14728597 -0.08371407
-0.07249224 -0.17290369 -0.1405331 -0.053278256 -0.064342715 -0.13148826 0.13529137 0.18535699
0.15565023 -0.15889302 -0.081269555 -0.18603656 0.054049153 0.06646389 -0.021704083 -0.029509308
-0.056462992 -0.036733292 0.048528936 -0.109494306 -0.17038377 0.20123594 0.047848865 -0.14064719
0.024242887 -0.14576097 0.1702642 -0.17731398 -0.09245137 0.028279852 0.13882127 -0.12896337
-0.15033683 -0.052160334 -0.120686315 -0.103805445 0.12217071 -0.12725171 -0.10389878 0.007029318
0.15632267 0.07957059 0.16568327 -0.13213302 0.14483854 0.029700387 -0.08809967 -0.09318456
-0.18867959 0.039696693 0.009938137 -0.18250968 0.12834376 0.10166614 -0.019463418 0.1282125
0.18349443 0.017619774 0.1675121 0.06760882 0.046741504 -0.164656 -0.20949696 -0.11310724
-0.22403918 -0.032017566 0.009395022 -0.04004547 -0.02932351 0.13003083 -0.08018981 0.018200845
-0.09665109 -0.11967806 0.21268354 0.040216383 0.025766278 -0.1132525 0.1801924 -0.055365864
0.0520019 -0.19925337 0.12543884 -0.07453559 -0.07624675 -0.010318085 -0.11952541 0.08392561
0.068225764 -0.084067434 -0.08190951 0.034462567 -0.060591687 -0.05460689 0.0028465027 -0.14335428
-0.09824586 -0.061226707 0.15384732 -0.1402543 0.05599943 -0.15399598 -0.107562944 0.039536037
-0.13050562 0.033390455 0.18090162 -0.05996409 0.08940935 -0.09134264 0.1831282 0.12811054
-0.16107802 -0.10020137 -0.07506795 -0.16838613 0.14214633 0.18508448 0.12948315 -0.0891907
0.110106364 0.028313786 0.040706903 -0.183326 -0.041466996 0.032402724 0.053890303 -0.12482174
-0.015821382 -0.037917465 -0.17962681 -0.07029715 0.16148676 -0.14250231 0.15444021 0.19516283
-0.06295658 0.20305519 -0.08786985 0.13399908 -0.13747187 -0.11019655 0.13406818 0.033957046
-0.050872233 -0.03314873 -0.029888013 0.13750035 0.15261431 -0.081367955 -0.11229566 0.19004427
-0.05845321 0.027301474 0.12711918 0.105028115 0.18257898 0.13286068 0.09049515 0.18275867
-0.0038761697 0.05516811 -0.07941402 -0.08993907 -0.033814277 -0.026021015 -0.03540572 -0.020505808
0.14705642 -0.029203132 0.05829193 -0.1909795 0.045900352 -0.01958629 -0.17568992 0.0864875
-0.038157508 0.15505308 0.005201488 0.032572217 -0.06690106 -0.018164884 0.20616396 -0.006359426
0.17551579 0.13427354 -0.10976404 0.14377573 -0.14736731 -0.18149595 -0.14521408 0.20912074
-0.06754843 -0.109064855 0.10555287 -0.080938816 0.13455676 -0.159319 0.0066176346 0.117896155
-0.18867725 0.023203174 0.050222673 0.008515104 -0.18272339 0.009896062 -0.091961026 0.07225493
0.045798976 0.12659658 0.020985844 -0.17866163 0.017880881 0.15242016 -0.047445886 -0.066035196
-0.13070756 0.13900831 0.03233373 0.046836343 0.1456725 -0.10328047 -0.095691636 -0.1746909
-0.124801494 -0.010010308 0.112061605 0.057799127 0.1466969 0.10291876 0.15922573 0.04164359
-0.06806675 0.13255936 -0.031012956 0.010032066 0.0298866 0.02705901 0.13525905 -0.1158255

linear_relu_stack.0.bias f4 [256]
00000000: 3ff3 463e 95a3 0dbe 4a81 3e3d 0b86 02be
00000010: 423e 493d ab6d 3fbe 9c0c 53be bf9c e13b
00000020: 9f82 42be 5ecd cb3d 9b19 0ebd 4731 a13d
00000030: 49c3 853e b501 ef3d 24c3 803d 39ce f83d
00000040: d05a 333e 6c45 533d 4c85 c1bc e5b0 3ebe
00000050: b09f 243e 8420 413e 2c47 743e b464 3fbe
00000060: f520 283e d9b9 30be b8e5 773e 4d5d 56bc
00000070: a8d9 0e3e 5fef e43d 6a5d 67bd 2ca6 c23d
00000080: e8b9 52be fd99 0f3e 813d 2c3e 9e5a 4f3e
00000090: 653d 393e a17c 7b3d d983 553e 92e3 37be
000000a0: 29c6 d9bd e6b8 55bd 0f41 913c e280 c93d
000000b0: d68d 2d3e 67e7 473e f66a 42be 48b0 413d
000000c0: 3c35 123e 8ef8 d13d 7f47 1e3e 66f0 f4bd
000000d0: 7477 f83d 27e6 a3bc 576a 0f3e 603d 523e
000000e0: 4cb5 a2bd 6602 9f3d 9289 36be 4c3d b6bc
000000f0: db6a 2f3d 2d04 103d a58e 21be 5d2e 2cbe
00000100: 7160 4d3e 0bc7 3e3e c2f7 53be 89cd 11be
00000110: 2f2b 01bd 1705 ba3d 3cfc 15be a817 823e
00000120: e5f5 2bbd 263d ecbd d5c0 0abe c110 41be
00000130: 7ea8 8f3d 603e 18be c1a6 0e3e 3448 30be
00000140: ccfa 04be c7b9 36be c87b 493d 469f 1a3e
00000150: 5801 053e cddf 733e 6a7e d2bd b1b1 173e
00000160: 8c54 37be 8e31 373e f63f 46be d3d4 543e
00000170: 5f5c 003e a50f 8fbd de66 623d 7fd6 f4bd
00000180: c84b 9c3d ff83 12be e897 153e c750 ae3d
00000190: ebf4 583e 3dfe 083e 9d28 7e3e f3a4 4a3e
000001a0: b307 723d e265 523d 27ff 8d3d 7ad9 6b3e
000001b0: 2adc 42be 8dca 2cbe 04ca cbbd 9d11 cdbd
000001c0: cea5 663e 5a7c f03d a8ae 113d 1bb2 0d3e
000001d0: c716 023e 9d14 41be 6210 e4bd c685 3cbd
000001e0: b51a 89bd 8ff1 e03c 3f6b 3cbe 02fa c6bd
000001f0: b5db 763e 7e99 03be d324 f9bd 8b91 143e
00000200: eab3 453e 319c 643e fadd 9ebd 452d 08be
00000210: acb0 8c3d c7a9 72bd ff8d 513e 19f2 3c3e
00000220: 11fd 4dbc 9962 5a3e 7f86 1c3e 91ba 603e
00000230: 88d7 0b3e 6633 4ebe f83a 21be b9b1 c83d
00000240: ce9a 96bd ca8c 343e 6333 0abe 65d3 01be
00000250: 15a0 1b3e 38b3 583d 4411 323d 8877 3b3e
00000260: c508 31be 2402 653e f4ce 26be 9f08 633d
00000270: 0a04 773e cfcd 18bd b3e7 3abe f1a0 1cbe
00000280: 3dc0 ebbb ec1a e93d 22f6 6e3e 7d57 04be
00000290: ea9d 0abe 000e 4c3d eaa7 803e 6c5a 3dbe
000002a0: a63c 313d 5e03 ba3d ecc1 9c3d 85b6 5bbe
000002b0: f1d3 633e 0312 bbbd dd69 86bd 0366 9fbd
000002c0: 2ac8 803d 4a88 013e e7ec ac3d 72e8 54bd
000002d0: acc7 3fbe adbd bc3d 3ce5 d43d eda7 623e
000002e0: a403 0fbe 75aa 433e 894a 883d dfe0 4abe
000002f0: 3c18 0abe 759a 2fbe 9b1a bbbd 6ff5 2b3e
00000300: e8a2 af3d 9f10 153e dd78 5b3e e751 333e
00000310: 27b0 4a3e 0ed5 40be ad5e 1b3e cdb0 0a3e
00000320: 5247 2d3e 33ef d53d 0a0a 603d e0ac ac3d
00000330: c322 f43d 9c5e 36be 852e 13bd ece4 453e
00000340: 09f5 d93d 86af ac3d 6924 9a3c dfa2 1ebe
00000350: b529 d8bd ab50 f03d 5e01 68bd a48a 3a3e
00000360: 5c63 26bd 798a 333e c173 333e a8a2 4ebe
00000370: 585c 08be da46 d9bc 283d 76bd 59aa d2bd
00000380: 5b3f 283e 30d6 3bbe ec06 f43b 961d bbbd
00000390: bd56 3e3e 9ccf 213e 07ab 333e fc0f f0bd
000003a0: 6f2f 83bd 5d9e 28be 2e35 203e 9e4e 2bbe
000003b0: 4323 bf3d c2a8 c43d 3220 0cbe 36d8 f4bd
000003c0: 6b11 f139 3f8a f3bc 1104 f03d aa04 443e
000003d0: e39c 003e 41fa e43d c4c6 473e 59b5 49bd
000003e0: 4d44 17bd 6538 e5bc 3db0 433e bb1d 053e
000003f0: febc 9f3d b1ac 1b3e b6fd ec3d 3e20 8f3d
0.19428729 -0.13831933 0.04651002 -0.12746446 0.04913164 -0.18694179 -0.20610279 0.0068851407
-0.1899514 0.0995128 -0.034692388 0.07870727 0.26125553 0.116702475 0.0628722 0.12148709
0.17515111 0.051579878 -0.023623131 -0.18622167 0.16076541 0.1886006 0.23855275 -0.18690759
0.16418822 -0.17258395 0.24208724 -0.013083768 0.13950217 0.11178469 -0.05648557 0.09504351
-0.2057873 0.14023586 0.16820337 0.20249411 0.18089826 0.061398152 0.20851077 -0.17957905
-0.10633499 -0.052178286 0.017731218 0.098390356 0.16948637 0.19521867 -0.18986115 0.047287256
0.1427812 0.10252486 0.15456961 -0.11959915 0.12132159 -0.020007206 0.14005409 0.20531225
-0.07944736 0.07764129 -0.17825916 -0.022246026 0.042826515 0.035160232 -0.15777071 -0.16814561
0.2005632 0.18630616 -0.20699981 -0.14238562 -0.031535324 0.09083002 -0.14647001 0.25408673
-0.04198255 -0.11535101 -0.13550122 -0.18854047 0.07014559 -0.14867544 0.13930799 -0.17215043
-0.12986296 -0.17844306 0.049190313 0.1509982 0.12988794 0.23815842 -0.10278018 0.14813878
-0.17903346 0.17889997 -0.19360337 0.20784311 0.12535237 -0.06985406 0.055273883 -0.119549744
0.076316416 -0.14308165 0.14608729 0.08511501 0.21187179 0.13378234 0.2482018 0.19789486
0.059089374 0.051366694 0.06933432 0.2303218 -0.19029298 -0.16874142 -0.09950641 -0.10013125
0.22524187 0.11742468 0.035566956 0.13837473 0.12704001 -0.1885552 -0.11135937 -0.046026014
-0.06694547 0.027458934 -0.18400286 -0.09715654 0.24107249 -0.12851521 -0.12165227 0.14508645
0.19306913 0.22325207 -0.077571824 -0.13298519 0.06869635 -0.059243944 0.20464323 0.18451728
-0.012572543 0.21326675 0.15285681 0.2194617 0.13656437 -0.20136794 -0.15745151 0.09799523
-0.073537454 0.17631832 -0.13496165 -0.12678297 0.15197785 0.05290529 0.043473497 0.18307316
-0.17288502 0.22364098 -0.16289884 0.055428144 0.24122635 -0.03730565 -0.18252449 -0.1529577
-0.0071945474 0.11382088 0.2333608 -0.12923999 -0.13536802 0.04981804 0.25128108 -0.18491524
0.04327073 0.090826735 0.07654175 -0.21456344 0.22248818 -0.09134295 -0.065631606 -0.07783129
0.06288178 0.12649646 0.08443623 -0.05197949 -0.18728513 0.09215865 0.103952855 0.22134371
-0.13966233 0.19107993 0.066548415 -0.19812344 -0.13485807 -0.17148764 -0.09135934 0.16792844
0.08575994 0.14557122 0.21432824 0.17511712 0.1979376 -0.18831274 0.15172835 0.13544007
0.16921738 0.10446014 0.054697074 0.08431411 0.11920693 -0.17809528 -0.035933036 0.19325608
0.1064244 0.08431916 0.01881619 -0.15491818 -0.1055483 0.11734136 -0.05664193 0.1821695
-0.0406221 0.17533292 0.17524625 -0.20179236 -0.13316476 -0.026523042 -0.060116917 -0.102863975
0.16430418 -0.18343425 0.007447114 -0.091365024 0.18587776 0.15801853 0.1754571 -0.11721799
-0.064055316 -0.16466661 0.15645286 -0.16729209 0.093328975 0.096025005 -0.13684157 -0.119553015
0.0004598008 -0.029729007 0.117195256 0.19142404 0.12559848 0.11180545 0.19509417 -0.049245212
-0.03693037 -0.027980993 0.19110198 0.12999623 0.07799719 0.15202595 0.11571829 0.069885716

linear_relu_stack.2.weight f4 [36, 256]
00000000: d767 743d 0c21 a83d c09b 1ebc 1a05 343d
00000010: d51a f1bb f8e5 df3c 4c14 87bc 030b 813d
00000020: fc45 b4bb 1c71 85bc bb54 093d a8d6 583c
00000030: 8e77 bd3c 2412 c43a 55b9 333c 8e0e a23c
00000040: 4b4f 4c3d bc3f 04bd af0c f8bb bb08 4e3a
00000050: d33b 683d 97fa 18bd 8d12 05bb cc36 afb7
00000060: 9ed1 2cbd 1d45 293c 462c c13c 91b5 c6bc
00000070: af3f 1f3d 011c 883d 42e5 7b3b 5b0e 603d
00000080: 7bc7 c1bc 2e5a 323d b033 09bc f5a1 3f3d
00000090: 7d58 983d 1d96 773d a174 523d fb50 333c
000000a0: fd79 e03d 06a5 cf3c ea25 733b 343f 993c
000000b0: 9289 bc3b 10d8 393d ca7c 513c dfe6 c8bc
000000c0: f2b7 2c3c b677 903c a1aa 11bb 070e 6f3c
000000d0: 6f78 543c 5875 88bc 46e3 c4bc 3f2b 0e3d
000000e0: a85c 3f3c 8c96 5a3d c33b 17bd ffac d8bc
000000f0: f6c5 54bc 3f8b 423a ac9a 75bd d443 0bbd
00000100: 72af a23d 5773 2b3d d6f7 2dbd 810e c43c
00000110: a46e 883c a117 b1bb 0db5 163d 7c18 02bd
00000120: 91f4 0b3d a861 1abd 4097 053d 9357 37bd
00000130: c23a 1f3c bed4 e23a be56 bf3c 5d97 48bd
00000140: 3b10 5b3d a012 653c 84c1 4abc 1cd0 9b3c
00000150: 510d 743d fece e43c e370 abbc 3198 803d
00000160: 5c48 0cbc eae5 3f3c 6f43 b9bc 8b31 b83c
00000170: b107 d53c 3fac d63c e606 cd3c ca48 3e3d
00000180: 67ed febc 5d8b 3b3d 0035 483c 9644 943c
00000190: 5da6 9c3d 68ad f0bc 5aee 773d f905 e63c
000001a0: e994 97bc 654a 173d d6d2 70bb 6431 45bc
000001b0: cc22 3bbd b147 763c f56e ec3c 0954 93bc
000001c0: 3800 2b3d 7479 323b f12c b13c 7ada 2e3d
000001d0: 6cbd 053d 5c50 ee3c 5bdd 0bbd 4af5 31bc
000001e0: 0631 ca3b 014d 2b3d 183e 7a3d 5b23 773d
000001f0: de0c 353d 2a9b f03c 7aa7 efbb 0a73 093d
00000200: f127 4a3b 0b40 cabc d0b5 733c ad7e 9fbb
00000210: d64c 623d 3fbc 813c ebca 2c3d e94b f93c
00000220: 011b 923c 008b 0dbd c742 ba3c 1f77 373c
00000230: 304a f23c 6fd7 b93b ce63 2fbd 5172 0a3d
00000240: aab0 0a3d 2c36 803d 0696 05bc 23fc 873d
00000250: 631b 10bc 0963 f03c c228 723b 11bc e63b
00000260: 601d c03c b998 19bc 3c17 41bd b44c cabc
00000270: 8dd5 403c faa0 8d3b f37e c53a a4db 9d3c
00000280: 9d5d 343d 4f10 323d d465 493d 6782 b03c
00000290: 1304 903b fde1 a739 a3de e0bc e4bc f13c
000002a0: ce58 00bd 2d48 6f3c d9ad 963c 29d2 7d3b
000002b0: b562 7a3d 4745 03bd fbb8 f7bb 89f8 7dbc
000002c0: ae36 053b fd10 443c cc22 1dbc 6b5a 403c
000002d0: c6ba 21bb 0916 ebbc 2c0b 923c ada7 373c
000002e0: 263f f53c 10ab b7bc 7fcf 9ebc 7812 533d
000002f0: 9a61 69bd cf92 933c 6d3b da3a a707 cdbc
00000300: d2e3 803d 9756 173c f456 183d 845f fd3c
00000310: afe3 983d c09e 9cbc 7da9 833c 9ba8 3c3c
00000320: 7d7e a73d 8346 47bc 6d9a 2b3c 4b38 073d
00000330: ba23 18bd a865 303c 8926 16ba 2d7e 3f3d
00000340: 1460 f23c f6bb 0e3d bad6 97bb e890 1ebd
00000350: 3bbc c13b c403 45bb 2511 083b 10fa 863d
00000360: ad9a 87bc 7a81 243c 39d2 273c 1dfc 31bb
00000370: d754 943c afe9 e33c 141f 343c fe8f bbbc
00000380: b343 2b3c 68f6 a1bc 0a41 873c 2e51 86bc
00000390: 7b7c 173d 5464 2c3d ceab 823d 2bc6 153d
000003a0: edd7 52bd 4c6c 993c 018a 62bc 8741 b538
000003b0: cbd5 90bc dd56 103d 9ae8 003d d016 7abc
000003c0: c575 90bc 470c 5bbb 4f7d e7bc 3405 1d3d
000003d0: 7904 95bb 25ad bc3b b16c 73bc 87a5 533c
000003e0: 56d7 94bb e0c2 973a b600 45bc 2a3f e0bc
000003f0: 59c4 47bc 0bca f4ba f8ef 973d 1e09 d1bb
0.059669342 0.08209428 -0.009680688 0.043950178 -0.007357935 0.027331337 -0.01648917 0.063009284
-0.005501507 -0.016289286 0.03352807 0.013234772 0.023128297 0.001495902 0.01096948 0.01978233
0.049880307 -0.032287344 -0.0075698714 0.00078595773 0.056697678 -0.037348356 -0.0020305247 -2.0887142e-05
-0.042192094 0.010331419 0.023580682 -0.0242565 0.038879093 0.06645966 0.003843621 0.05470119
-0.02365469 0.043543033 -0.00837414 0.046785314 0.07438753 0.060445894 0.051380757 0.0109446
0.109607674 0.025347244 0.0037101456 0.018706895 0.0057537043 0.04537207 0.0127861 -0.02452415
0.010541903 0.017635208 -0.0022226947 0.014590747 0.012968167 -0.016657516 -0.024034154 0.03470921
0.011679806 0.05336623 -0.036922228 -0.026449678 -0.012986651 0.0007421262 -0.05996196 -0.034000233
0.0794362 0.041858044 -0.042472683 0.023932697 0.01665432 -0.005404428 0.036793757 -0.03176163
0.034168784 -0.03769079 0.032614946 -0.04476125 0.009718599 0.0017305834 0.023356792 -0.048972476
0.053482275 0.013981491 -0.012375239 0.019020133 0.059583012 0.027930733 -0.020927852 0.06279028
-0.008562174 0.011712531 -0.022615163 0.022484561 0.026004644 0.02620518 0.025027703 0.046456136
-0.031119062 0.045787204 0.012219667 0.01809911 0.07648919 -0.029379562 0.060530044 0.02807902
-0.018503623 0.036936183 -0.0036746762 -0.012035701 -0.04568748 0.015031741 0.028861502 -0.017984407
0.041748255 0.0027233036 0.021627875 0.042688824 0.03265135 0.029091053 -0.034146648 -0.010861704
0.006170395 0.041821484 0.061094373 0.060336452 0.044201724 0.029370863 -0.007313666 0.033556975
0.003084656 -0.024688741 0.01487489 -0.004867396 0.055249058 0.015836833 0.042185705 0.030431705
0.017835142 -0.03455639 0.02273692 0.011197834 0.029576391 0.0056714336 -0.04281979 0.033800427
0.033859886 0.062603325 -0.008153444 0.06639888 -0.008795592 0.029344099 0.0036950563 0.007041462
0.023451507 -0.009374791 -0.0471413 -0.024694778 0.0117696645 0.0043221684 0.0015067741 0.019269772
0.04403459 0.043472584 0.049169376 0.021546556 0.004395017 0.00032021097 -0.027449911 0.029509015
-0.03133469 0.01460461 0.018393444 0.0038730002 0.06112929 -0.03204849 -0.007559893 -0.01550115
0.002032678 0.011966941 -0.009590816 0.011740307 -0.0024677976 -0.02869703 0.017827593 0.011209411
0.029937338 -0.022420436 -0.019386051 0.051531285 -0.056977846 0.01801434 0.001664979 -0.025028063
0.06293453 0.009236953 0.0371923 0.030929334 0.07465302 -0.019118667 0.01607203 0.011514808
0.081784226 -0.012162807 0.01047383 0.03301267 -0.037143447 0.010766424 -0.0005727788 0.04675119
0.02958683 0.034847222 -0.0046337517 -0.038712412 0.0059123314 -0.003006206 0.0020762172 0.065906644
-0.016553247 0.010040635 0.010242992 -0.0027158328 0.018106861 0.02782139 0.010993738 -0.02289581
0.0104531525 -0.019770816 0.016510505 -0.016396131 0.03698395 0.042087868 0.063804254 0.03656594
-0.051475454 0.018728398 -0.013826848 8.642958e-05 -0.01768007 0.03523909 0.031471826 -0.015264228
-0.017634282 -0.0033424066 -0.028257994 0.03833504 -0.0045476523 0.005757945 -0.014857457 0.012917883
-0.0045422716 0.0011578463 -0.012024095 -0.027373869 -0.012192809 -0.0018675936 0.07418817 -0.0063792607

linear_relu_stack.2.bias f4 [36]
00000000: d3b0 3a3d 7b38 dbbc 4ad5 abbc a9d9 11bc
00000010: 10b0 403d a0c0 c93c 0f28 a03d cfcf f4bc
00000020: 4b22 543d 3a31 753d 50c7 57bc c520 7d3d
00000030: 10b6 233d 7561 093d 4b40 653d d0e3 473d
00000040: 34f8 b93d b82a fa3c fdc6 41bc c7e1 30bc
00000050: 2a92 113b 64cb 283d 0909 563d 161b ea3b
00000060: 1fef ddbc 866a 7e3d b2ab 0c3d 1f19 863d
00000070: b70a ce3d 8285 033c 6554 b43d 904c ac3c
00000080: 7a35 b43d 829e e6bc 895f 8ebc 9538 98ba
0.04557879 -0.02676033 -0.020975728 -0.008901992 0.047042906 0.024627984 0.078201406 -0.029884247
0.051790517 0.0598614 -0.013170078 0.06179883 0.03996855 0.033540208 0.055969518 0.048801243
0.09080544 0.030537948 -0.011827228 -0.010796017 0.0022212365 0.041209593 0.05225471 0.007144342
-0.02709156 0.062113307 0.03434343 0.0654776 0.100606374 0.008027436 0.088051595 0.021032602
0.08799262 -0.028151754 -0.01737954 -0.0011613542
