models/model_added_mass_0_wave_frequency_n4.pth (torch, 190824 bytes, 4 tensors)

linear_relu_stack.0.weight f4 [1024, 9]
0	0x3e7ae22e	0.24500343
1	0xbd3b57af	-0.04573792
2	0xbea2fbd4	-0.31832755
3	0xbd98f58e	-0.07468711
4	0xbe7ea89d	-0.24869008
5	0x3e9100a6	0.28320807
6	0x3bd4b80d	0.006491667
7	0xbe9af75f	-0.30266854
8	0x3e5fbd04	0.21849447
9	0xbb9d3900	-0.0047980547
10	0xbd16c86b	-0.036812227
11	0xbce116c0	-0.027476668
12	0xbcdcfa80	-0.026974916
13	0xbe8c7b48	-0.27437806
14	0x3c969b96	0.018384736
15	0x3c572700	0.013131857
16	0x3e2663c0	0.16248989
17	0xbe83c63b	-0.25737175
18	0x3e98ff06	0.29882067
19	0x3e58e8e2	0.21182588
20	0xbe3e2c8c	-0.18571681
21	0xbd9b2b08	-0.07576567
22	0xbdb8b7a1	-0.090193994
23	0x3e5f85c4	0.21828371
24	0xbd014f51	-0.031569783
25	0xbe44f620	-0.19234514
26	0x3e55e3b8	0.20887649
27	0x3cbc0c97	0.022955222
28	0x3eda67f6	0.4265744
29	0x3d077723	0.033072602
30	0xbdee8507	-0.11646467
31	0x3ea48aa8	0.32137036
32	0x3eb42f11	0.3519216
33	0x3ed53934	0.41645205
34	0xbe437be3	-0.19090228
35	0xbe26aeb2	-0.16277578
36	0xbeaae971	-0.33381227
37	0x3e76f03a	0.24115077
38	0x3dc843db	0.097785674
39	0x3ae5dfb9	0.0017537988
40	0x3dff5aa6	0.12468462
41	0xbe9ef83b	-0.3104876
42	0xbe22cffa	-0.1589965
43	0xbdb01a88	-0.085988104
44	0x3e9d0fd2	0.30676132
45	0xbde9e343	-0.114203
46	0xbe1fe663	-0.1561523
47	0xbed55df0	-0.4167323
48	0x3ea0cf47	0.3140814
49	0x3e350f40	0.17681599
50	0xbf1c944a	-0.6116377
51	0xbe02ec42	-0.12785438
52	0xbe424676	-0.18972191
53	0xbc0e7c22	-0.008696588
54	0xbe78b8e6	-0.24289283
55	0xbcd0a4ec	-0.025469266
56	0xbe1ac230	-0.15113139
57	0x3ded5c2c	0.11589846
58	0x3e7823d4	0.24232417
59	0xbde23860	-0.11045909
60	0xbd4187c1	-0.047248606
61	0xbdb2d0bb	-0.087312184
62	0x3ea5196f	0.32245967
63	0xbed0649f	-0.40701768
64	0xbe0ce2f0	-0.13758445
65	0xbe7863a8	-0.24256766
66	0xbe3cb10c	-0.18426913
67	0x3e0effc1	0.1396475
68	0x3e60f222	0.21967366
69	0x3ea912f0	0.3302226
70	0x3eb19784	0.3468591
71	0x3da6b951	0.08140815
72	0xbe86d8b0	-0.26337194
73	0x3e1b036e	0.15138027
74	0xbd123916	-0.035698973
75	0xbda792b0	-0.08182275
76	0x3e8fe6b6	0.28105706
77	0x3cfe85c0	0.031069636
78	0xbe1d2e5e	-0.15349719
79	0xbea57816	-0.3231818
80	0xbe819fcb	-0.25317225
81	0xbeb7e348	-0.3591559
82	0xbbbe9f22	-0.00581731
83	0xbd1ea3db	-0.038730484
84	0x3eb0624e	0.3445
85	0x3e5d8547	0.21632873
86	0xbd1006ee	-0.03516286
87	0x3e402fdb	0.18768255
88	0xbe858f09	-0.2608569
89	0x3dcfd590	0.10148156
90	0xbd9f1aee	-0.07768808
91	0xbdb58adc	-0.08864376
92	0xbe51489c	-0.20437855
93	0xbe71587f	-0.23568915
94	0x3e9142eb	0.28371367
95	0x3de8062a	0.11329301
96	0xbdc126de	-0.094312415
97	0xbbb3fbbc	-0.0054926556
98	0x3e5f058a	0.21779457
99	0x3e21317b	0.15741532
100	0xba830565	-0.0009996115
101	0x3ec73645	0.38908592
102	0xbeb020f6	-0.34400147
103	0xbe90cc2b	-0.28280768
104	0x3eb11356	0.34585065
105	0x3e0c2df2	0.13689402
106	0x3da7aaec	0.08186898
107	0xbe1270e5	-0.14300878
108	0x3e0f9459	0.14021434
109	0x3eeb943f	0.4601154
110	0x3e0a82b4	0.13526422
111	0xbdecca73	-0.115620516
112	0x3e2f82b9	0.1713971
113	0x3e11ce7e	0.14238927
114	0x3e80de9f	0.25169846
115	0x3eacfa4f	0.3378472
116	0xbd774d23	-0.060376298
117	0x3e796a12	0.24356869
118	0xbdfe81eb	-0.12427124
119	0xbe8c824e	-0.27443165
120	0xbd3be7e6	-0.045875452
121	0x3da4ceee	0.08047281
122	0xbe0da62c	-0.13832921
123	0xbd5f1955	-0.054467518
124	0xbd3afb9a	-0.045650102
125	0x3e94eff6	0.29089326
126	0xbe3c555f	-0.18391941
127	0x3e4520b3	0.19250755
128	0xbe90601a	-0.2819832
129	0x3e44a2e8	0.19202769
130	0x3e707045	0.23480327
131	0x3e2f6059	0.17126597
132	0xbe9f38c1	-0.31097987
133	0xbe5764f0	-0.21034598
134	0x3b4aabcb	0.003092515
135	0xbe0c6e8e	-0.13714048
136	0xbe73298e	-0.2374632
137	0x3e30fbe2	0.17283586
138	0x3e13e873	0.14444141
139	0x3e386dc1	0.18010618
140	0xbe0704b1	-0.13185383
141	0x3e8f9d91	0.280499
142	0xbe5487d6	-0.20754942
143	0x3e1fac2c	0.15593022
144	0xbbf92e86	-0.007604423
145	0x3e6089b2	0.21927527
146	0x3db37ab2	0.08763637
147	0xbeb76c07	-0.35824606
148	0x3e32e3b2	0.17469671
149	0x3e11a3b7	0.14222609
150	0xbddbf384	-0.10739806
151	0xbe4cadfc	-0.19988245
152	0x3d06ff13	0.0329581
153	0xbdf5ef02	-0.12008478
154	0xbc783ff0	-0.015151963
155	0xbe8b8342	-0.2724858
156	0xbe195115	-0.14972337
157	0xbe7927b7	-0.24331556
158	0xbe935b8a	-0.28780776
159	0x3e8cca77	0.27498218
160	0x3e7622bd	0.24036689
161	0xbe20d9a7	-0.15708028
162	0x3bf3865e	0.0074317893
163	0x3baf910a	0.005357866
164	0xbea4e33d	-0.3220462
165	0xbcecd0ce	-0.02890816
166	0x3e9ab1e1	0.30213836
167	0x3cf8aeb0	0.030356735
168	0x3c8d41f9	0.017243372
169	0x3d992dca	0.07479437
170	0x3e190c46	0.14946088
171	0xbeaa55ae	-0.33268493
172	0xbe1eb84e	-0.15499994
173	0xbe03a08d	-0.12854214
174	0x3e4b5f52	0.1986058
175	0xbe3d6c79	-0.1849841
176	0xbd35b02b	-0.04435746
177	0x3e612304	0.21986014
178	0x3e4bea23	0.19913535
179	0x3e47cf57	0.19512688
180	0xbe24495b	-0.16043608
181	0x3ec1adb0	0.37827826
182	0xbcaf251c	-0.02138
183	0xbeaa271d	-0.33232966
184	0x3dbd4740	0.092421055
185	0xbc787a1c	-0.015165832
186	0x3e61982c	0.22030705
187	0x3ca096a2	0.019603077
188	0xbeb1a6ac	-0.34697473
189	0xbe50f686	-0.20406541
190	0x3e4f1af8	0.20225132
191	0x3c142161	0.009041161
192	0x3e29edff	0.16594695
193	0x3ef8dc3c	0.48605525
194	0x3e82d29b	0.25551304
195	0xbeabb4f1	-0.33536485
196	0x3e0b7dcb	0.13622205
197	0xbdf2272a	-0.11823876
198	0x3d9d02d0	0.07666552
199	0xbbef42ab	-0.0073016486
200	0x3e56a548	0.20961487
201	0x3e263bf6	0.16233811
202	0x3dbe8da0	0.093043566
203	0xbe799f00	-0.2437706
204	0xbe4d9746	-0.20077237
205	0xbe775a90	-0.2415564
206	0xbe2825fb	-0.16420738
207	0x3e766dc8	0.24065316
208	0x3e1b138d	0.15144177
209	0x3e900337	0.28127453
210	0xbe48bcb4	-0.19603235
211	0xbe2bf190	-0.16791368
212	0x3e7a284c	0.24429435
213	0xbe24a6fa	-0.16079322
214	0xbe883b0c	-0.2660755
215	0xbda766c6	-0.08173899
216	0xbe88e134	-0.26734316
217	0xbda8f6d1	-0.082502015
218	0xbeb30ce9	-0.34970787
219	0xbda5f4a6	-0.081033036
220	0x3e3eca98	0.18631971
221	0xbd25a559	-0.04044089
222	0x3df5a620	0.119945765
223	0xbeb9897d	-0.36237708
224	0x3e595259	0.2122282
225	0x3f045296	0.51688516
226	0x3be15d19	0.006877553
227	0xbc8a8cf7	-0.01691292
228	0x3e555ba6	0.20835742
229	0x3d2dd8f6	0.04244324
230	0x3de7fcab	0.113274895
231	0xbec73a3c	-0.38911617
232	0xbd77d642	-0.060507067
233	0x3e9877e8	0.2977898
234	0xbb056ed3	-0.0020360246
235	0xbdf4a3f2	-0.119453326
236	0x3e8797d5	0.26483026
237	0xbe132427	-0.1436926
238	0x3e4eef1b	0.20208399
239	0xbea73d02	-0.32663733
240	0x3c6e5c64	0.014548395
241	0xbe1e54d9	-0.15462054
242	0x3e8a4504	0.2700578
243	0x3c6be6f9	0.01439833
244	0x3e861e86	0.26195163
245	0xbd5a3456	-0.053272568
246	0x3e28a716	0.16469988
247	0x3ea5cfc8	0.32385087
248	0xbe4a1c9f	-0.1973748
249	0x3e6c20fe	0.2305946
250	0xbe1a8546	-0.15089902
251	0xbd9157da	-0.070968345
252	0x3d2f158f	0.04274517
253	0xbe9200fe	-0.28516382
254	0xbe70925d	-0.23493333
255	0xbe3789e6	-0.17923698

linear_relu_stack.0.bias f4 [1024]
0	0x3dd27801	0.10276795
1	0xbe09278e	-0.13393995
2	0x3e23664b	0.1595699
3	0xbe5b82dd	-0.21436639
4	0xbdd90850	-0.105972886
5	0x3bd14aab	0.006387075
6	0x3e8e5d06	0.27805346
7	0xbd9a39a3	-0.075305246
8	0xbe7093c3	-0.23493867
9	0xbe5477bd	-0.20748802
10	0x3e1ac7c7	0.15115272
11	0x3e0f2de0	0.13982344
12	0xbe7046fd	-0.2346458
13	0x3e4a65ae	0.1976535
14	0x3e172a63	0.14762263
15	0x3e0b6da5	0.13616045
16	0x3e1aa80e	0.1510317
17	0xbe5cdcc9	-0.21568598
18	0x3ea8d719	0.32976606
19	0xbc8416ff	-0.016124247
20	0xbd365b59	-0.04452071
21	0xbcfe0e84	-0.031012781
22	0xbe97a484	-0.29617703
23	0x3e47a0d5	0.19494946
24	0xbea88ca7	-0.3291981
25	0xbe9e291c	-0.3089074
26	0xbe29936f	-0.16560148
27	0x3eabd7ef	0.33563182
28	0x3e1d7fac	0.15380734
29	0x3d0edb2a	0.03487698
30	0x3b035ed8	0.0020045545
31	0xbbebae42	-0.007192404
32	0x3e7e0b96	0.24809107
33	0xbea06c5c	-0.31332672
34	0x3df6d213	0.12051787
35	0xbe297cce	-0.16551515
36	0xbdf8a79a	-0.121413425
37	0x3e4143ea	0.18873563
38	0xbc9c01c4	-0.01904381
39	0x3e721ce1	0.23643829
40	0x3c60ee3e	0.013728676
41	0x3d4be8b8	0.049782485
42	0xbea96353	-0.3308359
43	0xbd1b86b0	-0.037970245
44	0x3e924a5b	0.28572354
45	0x3e6f99bc	0.23398489
46	0xbd604643	-0.054754507
47	0xbb58340d	-0.003299001
48	0xbdecc652	-0.11561264
49	0x3e1a2a13	0.15055113
50	0x3ea8f67e	0.3300056
51	0xbdd7fac8	-0.105458796
52	0xbea62de0	-0.32456875
53	0x3ea0d441	0.31411937
54	0x3eadd5db	0.3395222
55	0x3e86f724	0.26360428
56	0xbe8c735c	-0.27431762
57	0xbe6e64cc	-0.23280638
58	0x3e899029	0.26867798
59	0x3d84c776	0.06483357
60	0x3dde1c11	0.10845197
61	0xbdda0a54	-0.10646501
62	0x3e80a015	0.25122133
63	0xbbf18b46	-0.007371339
64	0x3d122878	0.035683125
65	0x3eac72df	0.3368139
66	0x3d02f994	0.031976297
67	0x3e4134de	0.18867823
68	0xbceb7f60	-0.02874726
69	0xbe24929c	-0.16071552
70	0x3cd67efc	0.026183598
71	0x3d23cf5c	0.039992675
72	0x3d90512b	0.070467316
73	0xbd3e5f84	-0.04647781
74	0x3b67c237	0.0035363564
75	0x3c9e8bc3	0.019353753
76	0xbe1dad9b	-0.15398256
77	0x3e576825	0.21035822
78	0xbe89febe	-0.26952165
79	0xbe259fdf	-0.16174267
80	0xbb496607	-0.003073098
81	0xbe81ec77	-0.2537572
82	0x3e9b3035	0.30310217
83	0xbea31acb	-0.3185638
84	0x3e226433	0.15858535
85	0x3eaaaa9c	0.3333329
86	0xbe28baa1	-0.16477443
87	0x3e437187	0.19086276
88	0x3c2b0da4	0.010440264
89	0x3d9e3b73	0.07726183
90	0xbea47bfc	-0.32125843
91	0x3da4f9f7	0.080554895
92	0x3d95deac	0.07317862
93	0x3daef0b2	0.08542003
94	0x3e21d630	0.15804362
95	0x3e79eca9	0.24406685
96	0x3c0c446a	0.008561233
97	0xbd809b2e	-0.06279598
98	0x3e0460d1	0.12927558
99	0xbe064376	-0.13111672
100	0x3e91f1e5	0.28504863
101	0x3e6d2597	0.2315887
102	0x3dcb025b	0.09912559
103	0x3d468f65	0.048476595
104	0x3dcd4663	0.10023191
105	0x3e2bcc86	0.16777238
106	0x3dee847f	0.116463654
107	0x3df2c849	0.118546076
108	0xbe64c14c	-0.22339362
109	0x3d47ed3a	0.04881022
110	0x3ea2afba	0.31774694
111	0x3ea4789d	0.3212327
112	0x3e84fc65	0.25973812
113	0xbdbb63a8	-0.09149867
114	0x3da76cd6	0.08175056
115	0x3e9281d7	0.28614685
116	0x3e1de6d8	0.15420091
117	0xbd1d882e	-0.03845995
118	0xbda99c27	-0.08281737
119	0xbe7776a6	-0.24166355
120	0x3d78df31	0.060759727
121	0x3e92d5a3	0.28678617
122	0x3e64184e	0.22274897
123	0x3e3b296c	0.1827752
124	0xbe7b81f5	-0.24561293
125	0x3e02151d	0.12703367
126	0x3e4d9c66	0.20079193
127	0x3e67d5b3	0.22640114
128	0x3e360d81	0.17778589
129	0x3dd9a99e	0.10628055
130	0xbe95dbd3	-0.29269275
131	0x3d7eba15	0.06218918
132	0xbda1a3e3	-0.07892587
133	0x3ddc5d37	0.10759967
134	0xbc7a8d14	-0.015292425
135	0xbe59e118	-0.21277273
136	0xbda1b1dc	-0.07895252
137	0x3e7f9ae9	0.24961437
138	0x3e16a6bb	0.1471204
139	0xbe49796c	-0.19675225
140	0xba95ebc7	-0.0011438065
141	0x3d8a1241	0.06741763
142	0x3e29c987	0.16580783
143	0xbe312856	-0.17300543
144	0xbea4afb4	-0.321653
145	0x3e8de969	0.2771714
146	0x3e816750	0.25274134
147	0xbe5dd37d	-0.21662708
148	0xbe38dade	-0.18052241
149	0x3e359d0d	0.17735691
150	0xbddf119d	-0.10892031
151	0xbe02309b	-0.12713854
152	0xbea36b12	-0.31917626
153	0xbe914a22	-0.2837687
154	0xbda4d63d	-0.08048675
155	0xbe887ec2	-0.2665921
156	0xbe4f9419	-0.20271339
157	0x3e824966	0.25446624
158	0xbe177250	-0.147897
159	0x3d257484	0.04039432
160	0x3e6d34b7	0.2316464
161	0x3e005702	0.12533191
162	0x3ea7653a	0.32694417
163	0x3e6e6339	0.23280038
164	0x3d8a1d50	0.06743872
165	0x3e351c24	0.17686516
166	0x3d2922f3	0.041293096
167	0x3d961d43	0.073298
168	0xbb99d9ad	-0.0046951384
169	0xbdd4b2f2	-0.103856936
170	0xbe4c1118	-0.19928396
171	0xbe16e221	-0.14734699
172	0x3e40906a	0.1880509
173	0xbd85c85e	-0.06532358
174	0x3e7d25a3	0.24721389
175	0xbdfa81f3	-0.12231817
176	0x3d3a2720	0.04544747
177	0x3e8da265	0.2766296
178	0x3e001b05	0.12510307
179	0x3e9de542	0.30838972
180	0x3cbe2d09	0.023214834
181	0x3d93bc93	0.07213702
182	0x3d74e7ae	0.05979126
183	0x3e6ec86d	0.23318644
184	0xbe81a40c	-0.2532047
185	0x3d84e5fc	0.064891785
186	0xbe240d90	-0.16020799
187	0x3e5e7beb	0.21726958
188	0xbd1f1450	-0.03883773
189	0x3db5a366	0.088690564
190	0x3e54434b	0.20728795
191	0xbca1f7df	-0.019771514
192	0xbe838938	-0.25690627
193	0xbe484a88	-0.19559681
194	0xbdf32bdd	-0.11873601
195	0x3ea39083	0.3194619
196	0xbdf0cebd	-0.11758182
197	0xbe928532	-0.28617245
198	0xbe591439	-0.2119912
199	0xbeacd8f0	-0.3375926
200	0x3e94402c	0.2895521
201	0xbea53d23	-0.32273206
202	0xbe566f66	-0.20940933
203	0xbe722cb3	-0.23649864
204	0x3dbcefb0	0.09225404
205	0x3d797753	0.060904812
206	0xbe80b040	-0.25134468
207	0xbd647779	-0.055778
208	0x3e6731ea	0.22577634
209	0x3e835a2a	0.25654727
210	0xbe8f0312	-0.2793203
211	0x3e96eef4	0.29479182
212	0x3de528a8	0.11189395
213	0x3e37b6c3	0.17940812
214	0xbd942f55	-0.0723559
215	0xbe2de057	-0.1698011
216	0x3dc1d471	0.09464348
217	0xbe106a06	-0.14102945
218	0xbdb4f3ec	-0.08835587
219	0x3ea14ac6	0.3150236
220	0x3df36f40	0.11886454
221	0x3e3ffb3e	0.18748185
222	0xbd3fb42d	-0.04680269
223	0xbd814d18	-0.063135326
224	0xbe3242db	-0.17408316
225	0x3e2e5245	0.17023571
226	0x3e5b8be0	0.21440077
227	0xbe5d4ae6	-0.21610603
228	0xbeaba710	-0.33525896
229	0xbe9efeed	-0.31053868
230	0x3e19ed08	0.15031826
231	0xbdf1979a	-0.11796494
232	0xbe4177f6	-0.18893418
233	0x3e73d0a9	0.23810066
234	0xbe562731	-0.20913388
235	0x3dfaf5c9	0.12253911
236	0x3ea84035	0.32861486
237	0xbe9dbb25	-0.30806842
238	0xbea6a0cb	-0.3254455
239	0x3e88daae	0.2672934
240	0x3e3a4f13	0.18194227
241	0xbe7df598	-0.24800718
242	0xbe056b54	-0.13029224
243	0x3e8c0989	0.27351025
244	0x3db5fe6b	0.08886417
245	0x3e3a4de0	0.1819377
246	0x3e8b0607	0.27153036
247	0x3ceb5458	0.028726742
248	0xbe86ba78	-0.2631414
249	0xbea70a8b	-0.3262523
250	0xbdb8fc3f	-0.09032487
251	0x3daabe84	0.08337119
252	0xbd842826	-0.0645297
253	0x3e8680cf	0.26270148
254	0xbeaa7704	-0.33293927
255	0x3e5568b7	0.20840727

linear_relu_stack.2.weight f4 [36, 1024]
0	0x3cd6a9aa	0.026203949
1	0x3c986c04	0.018606193
2	0x3cd7898a	0.0263107
3	0xbd796c1e	-0.060894124
4	0x3b53048b	0.0032198753
5	0x3e500688	0.20314991
6	0xba95d4a2	-0.0011431167
7	0xbc10fcf1	-0.008849368
8	0x3bdab320	0.0066741854
9	0xbdf90552	-0.12159218
10	0xbc91672a	-0.017749388
11	0x3b9fe401	0.004879475
12	0xbd1d8c8b	-0.03846411
13	0xbb0bcdb2	-0.002133232
14	0x3c068470	0.0082102865
15	0x3c70c013	0.014694232
16	0xbb47acda	-0.0030468018
17	0xbd8a9243	-0.067661785
18	0xbcd54133	-0.026032066
19	0xbb86e651	-0.0041168113
20	0xbcdb5f08	-0.026778713
21	0x3df7738d	0.120825864
22	0x3cf18d3e	0.029486295
23	0xbb1cb052	-0.0023908806
24	0xbe24fa67	-0.16111146
25	0x3d88a250	0.06671584
26	0x3c434031	0.01191716
27	0x3b9d3264	0.004797267
28	0x3c90bce2	0.017668191
29	0xbc415cc9	-0.011801907
30	0x3ca4c2d1	0.020112427
31	0xbccc5139	-0.024941074
32	0x3c7935ce	0.015210582
33	0x3dbbe6d9	0.0917489
34	0x3c6e434d	0.014542413
35	0xbbc03228	-0.005865354
36	0x3e1c2ef5	0.15252288
37	0x3cc631d3	0.02419368
38	0x3e67c01d	0.22631879
39	0x3d473ab1	0.048639957
40	0xbb5200a1	-0.0032043832
41	0xbdd8b487	-0.10581308
42	0xbb268ef0	-0.0025414787
43	0xbd29df55	-0.04147275
44	0xbd72afcb	-0.05924968
45	0xbd17557d	-0.036946762
46	0x3ccdef25	0.025138447
47	0xbd7519c1	-0.059839014
48	0xbdd1781f	-0.102279894
49	0x3d31851e	0.04333984
50	0xbcad6946	-0.021168362
51	0x3db514b2	0.08841838
52	0xbb8720f8	-0.004123803
53	0x39b3b4b7	0.00034276184
54	0xbc28566a	-0.010274509
55	0xbc7009d2	-0.014650779
56	0x3cb2c240	0.021821141
57	0x3d7f330e	0.06230455
58	0x3c4bf1fd	0.012447831
59	0xbc25068f	-0.0100723645
60	0x3d055a63	0.032556903
61	0x3d0bf29e	0.034166925
62	0xbc8c1f41	-0.017104747
63	0xbcb1761a	-0.02166276
64	0x3cd18333	0.025575256
65	0xbca000fb	-0.019531718
66	0xbbc5ae79	-0.0060327617
67	0x3c1ea836	0.009683659
68	0x3c16b9c9	0.009199568
69	0x3de98b63	0.11403539
70	0xba81dbab	-0.0009907385
71	0xbcc40721	-0.02392918
72	0xbd58793f	-0.052850004
73	0x3c9dc98a	0.01926114
74	0x3cd23dd5	0.02566425
75	0xbe08e004	-0.13366705
76	0x3d6fd938	0.058556765
77	0xbb24818f	-0.0025101637
78	0x3cf12dd1	0.029440792
79	0xbb8951c3	-0.004190655
80	0x3d5bc394	0.053653315
81	0x3c62aefc	0.013835665
82	0x3cf1f42d	0.029535377
83	0xbc4f6d94	-0.012660403
84	0xbcfe166d	-0.031016553
85	0xbd1e3c75	-0.038631875
86	0x3b7de8b8	0.0038743448
87	0x3cd329b8	0.025776729
88	0x3d7c3443	0.06157328
89	0xbbf19298	-0.0073722117
90	0xbc53bb40	-0.012923062
91	0xbc801294	-0.015633859
92	0xbdb918b1	-0.09037913
93	0xbd144e96	-0.036207758
94	0x3d625b8b	0.055263083
95	0xbbe19454	-0.006884137
96	0xbd002954	-0.031289414
97	0xbdab7b07	-0.08373075
98	0xbc2462b5	-0.010033299
99	0xbc7737e0	-0.015089005
100	0x3c2ad100	0.010425806
101	0xbafae7d3	-0.0019142575
102	0xbc86c548	-0.016451493
103	0x3df04282	0.11731435
104	0xbad917f3	-0.0016562924
105	0xbbc14768	-0.005898405
106	0x3cbff545	0.023432383
107	0xbd8ca4f2	-0.06867398
108	0x3c89ce5f	0.016822038
109	0xbd2ef239	-0.04271147
110	0x3bb6bfc0	0.0055770576
111	0xbc8d1c56	-0.017225426
112	0x3d54fe56	0.052000366
113	0xbcf1ccb5	-0.029516557
114	0xbb77e687	-0.0037826614
115	0xbd89e75a	-0.0673358
116	0x3d9f674d	0.07783375
117	0x3d15d6e0	0.036581874
118	0x3d353616	0.044241033
119	0x3d33bbb4	0.04388018
120	0xbcdaf5f3	-0.026728606
121	0x3c40edc5	0.011775439
122	0x3d0379b6	0.032098494
123	0x3c07a24d	0.008278442
124	0xbc6d7f3d	-0.014495668
125	0x3c13e5f8	0.009026997
126	0xbb0cc8b8	-0.0021481942
127	0xbc0855f9	-0.008321279
128	0xbdc88d6d	-0.097926
129	0xbbc7f700	-0.0061024427
130	0x3c39abdc	0.011332478
131	0x3cba55db	0.022746017
132	0xbd823d24	-0.06359318
133	0x3d212042	0.039337404
134	0x3d9767cb	0.07392844
135	0xbc2d8639	-0.010591083
136	0xbce007dd	-0.0273475
137	0x3c3b8389	0.011444935
138	0x3b95ad9e	0.004567816
139	0x3d945927	0.07243567
140	0xbdf9bd1f	-0.12194275
141	0xbc84993d	-0.016186351
142	0xbd652b63	-0.05594958
143	0xbc60a131	-0.013710306
144	0x3d592596	0.05301436
145	0x3d2e68c4	0.04258038
146	0xb8cdc792	-9.8123346e-05
147	0x3dd75ca1	0.105157144
148	0x3d5a6261	0.053316478
149	0xbc30d286	-0.01079238
150	0xbd34cde2	-0.044141658
151	0xbe317e6e	-0.17333385
152	0x3e09469c	0.13405842
153	0xbb0ef079	-0.0021810813
154	0xbcfdb701	-0.030971052
155	0x3c06a54c	0.008218121
156	0x3d5f74ff	0.054554936
157	0x3b572dce	0.0032833698
158	0x3cfbf3e8	0.030755952
159	0x3df04fd8	0.11733979
160	0x3cae5b3b	0.021283736
161	0x3941503f	0.00018435808
162	0xbcd55192	-0.026039872
163	0xbcbfae9a	-0.023398686
164	0x3c6de662	0.01452026
165	0xbbc6d358	-0.0060676746
166	0xbc95dd30	-0.018293947
167	0x3cf1f411	0.029535325
168	0xbc0b49b6	-0.008501461
169	0x3e0138e8	0.12619364
170	0xbc23a1bc	-0.009987291
171	0x3dd29f18	0.10284251
172	0x3bdc4158	0.006721657
173	0xbde8e347	-0.11371475
174	0x3cd4f56a	0.025995929
175	0xbc802b4e	-0.01564565
176	0x3d8608a9	0.065446205
177	0xbd2cd5ad	-0.042195965
178	0x3ccae044	0.024765141
179	0xbcc07679	-0.023493992
180	0xbe191565	-0.14949568
181	0x3cccdc91	0.025007518
182	0x3dc57162	0.09640767
183	0xbd87bf5f	-0.06628298
184	0x3d9131f4	0.07089606
185	0xbd3fb8ec	-0.046807215
186	0xbddde16d	-0.10834012
187	0x3c355381	0.011067272
188	0x3d3c1bb7	0.04592487
189	0x3c4a18e1	0.012335033
190	0x3d20b850	0.039238274
191	0xbc3bf9ca	-0.011473129
192	0xbcf0f2a0	-0.029412568
193	0x3cc7569a	0.024333287
194	0xbd755046	-0.059891008
195	0xbc75f123	-0.015011105
196	0xbcc8356b	-0.024439534
197	0xbb5e3610	-0.0033906735
198	0xbc1ad5ca	-0.009450385
199	0xbc1c6e03	-0.009547713
200	0xbbe4506b	-0.0069675944
201	0x3e93d86d	0.28876057
202	0x3dac3bae	0.084098205
203	0xbe413785	-0.18868835
204	0x3c3e9ab6	0.011633566
205	0x3c19e0d4	0.009391982
206	0x3e85ed92	0.26157814
207	0xbcca7fdb	-0.02471917
208	0x3b0f98f6	0.002191124
209	0x3bd912e4	0.0066245664
210	0xba250e40	-0.0006296374
211	0x3c00fa6b	0.007872204
212	0xbcca32b0	-0.024682373
213	0x3cb4711e	0.022026595
214	0x3cc4903b	0.023994556
215	0x3d7851ac	0.060624763
216	0x3cec7832	0.028865907
217	0xbd3dd6a6	-0.046347283
218	0xbcb2715a	-0.021782566
219	0x3c2e9546	0.010655707
220	0x3cce5d27	0.025190903
221	0x3bad4216	0.005287419
222	0xbd2fa11e	-0.042878263
223	0x3ca64e33	0.02030096
224	0x3c537f10	0.012908712
225	0xbccbbc62	-0.024870101
226	0x3cfd5b50	0.03092733
227	0xbc086b54	-0.00832637
228	0x3b567d85	0.0032728624
229	0x3d8c55b8	0.06852287
230	0xbc7ee0dd	-0.015556541
231	0xbced1f94	-0.028945722
232	0xbdc2b8b8	-0.095078886
233	0xbc928be0	-0.017888963
234	0xbcd83a00	-0.026394844
235	0xbc3b4c56	-0.011431774
236	0x3c4841f2	0.012222754
237	0x3dc09488	0.0940333
238	0xbc08c7ec	-0.008348446
239	0x3c20d1de	0.009815661
240	0xbc82cb7b	-0.015966168
241	0x3ba78208	0.0051119365
242	0x3d646365	0.055758853
243	0xbd80f27b	-0.062962495
244	0x3affc12b	0.0019512525
245	0xbc712cf8	-0.014720194
246	0x3c319ff3	0.0108413575
247	0xbe097a2f	-0.13425516
248	0x3cb13a40	0.021634221
249	0xbc6090d8	-0.013706408
250	0x3df4429b	0.119267665
251	0xbd87aa3e	-0.06624268
252	0x3bd6f8ce	0.0065604215
253	0xbd0c4fa0	-0.034255624
254	0x3af88760	0.0018961243
255	0x3cae79b9	0.021298276

linear_relu_stack.2.bias f4 [36]
0	0x3c7cbc8d	0.015425813
1	0xbaacc97f	-0.0013182609
2	0x3cd4ac3e	0.025961038
3	0x3d1ad7f1	0.037803594
4	0xba790432	-0.00094992213
5	0xbb7b4a1d	-0.0038343736
6	0x3cef015a	0.02917545
7	0x3c8f15f7	0.017466528
8	0x3c1a7893	0.009428161
9	0xbceb1560	-0.028696716
10	0x3d02efba	0.031966902
11	0xbb548e85	-0.003243358
12	0x3c96b8a9	0.0183986
13	0x3c9b4383	0.01895309
14	0xbb8d2ff9	-0.0043086973
15	0x3d17b10b	0.037034076
16	0x3c79051c	0.015198972
17	0x3bb68567	0.005570102
18	0x3a049196	0.00050570944
19	0xbcdae59b	-0.026720813
20	0x3cf33933	0.02969036
21	0xbcf74429	-0.030183868
22	0xbc96801c	-0.018371634
23	0xbc3cb756	-0.01151832
24	0x3d1e1f7d	0.03860425
25	0xbcabc0a6	-0.020965885
26	0x3ce14a21	0.027501168
27	0xbc96289a	-0.018329907
28	0x3b96f268	0.004606534
29	0x3d0b5aee	0.034022264
30	0x3ce56ee9	0.028006988
31	0xbbdb1245	-0.0066855275
32	0x3b25ddea	0.0025309273
33	0xbbae661e	-0.005322232
34	0x3aba36de	0.0014207026
35	0xbca481b1	-0.020081373
