models/model_added_mass_0_wave_frequency_n5.pth (torch, 199016 bytes, 4 tensors)

linear_relu_stack.0.weight f4 [1024, 11]
00000000: 25e9 973d e922 953c d948 863e df98 6fbd
00000010: cf62 81be 02ab 7cbe d807 413e ca3c 9bbd
00000020: 03ff 703e db84 babc 0e0c 76bd 5d98 b2be
00000030: 0f6f f8bd b107 dabb 2384 89be f0e2 3d3d
00000040: b818 283e 2ab9 c43d 020b 813e aefd d63e
00000050: c198 b23e df86 f23d aba9 95bd 7fa6 d23d
00000060: 6ff2 c13e 204c 70be a3c0 c03d 7924 c4be
00000070: a8c9 36be 92f5 ef3d 9e71 a9be c154 3f3e
00000080: 4998 6fbe 55df ab3d 933e ccbc 2f74 e1bc
00000090: 5aa6 483e 8bbd 1a3e 19a6 3e3e b239 38bd
000000a0: d45f 6abe 2e99 193d 87ba 753e 2280 603c
000000b0: 0b9f 0d3e 4286 1cbe 92a4 a1bc 5bd1 a4be
000000c0: f624 333e 847d 093e c519 edbd 40fd 64be
000000d0: d1ce f03d bbed f53d 838b 81be 312f b13d
000000e0: 70e5 643e f5e6 913e 529e afbd a4d6 a9bd
000000f0: 780d b0bd 9cca fe3a a42f 8d3d c9e1 9b3e
00000100: 024e e2bd 3164 b73d 2ffc f0bd 677d 50be
00000110: f1e0 183e 6f37 0cbe 3e9f ec3d ac0a b03d
00000120: f2c0 203b 7625 233e 9333 493c bc39 8fbe
00000130: 58ae 8a3e 58f9 313e 5bc0 493e c1d9 80be
00000140: 18ad a63d 450b 563e 9ca5 5ebe ad36 223e
00000150: 2419 9abd f589 c5bd 2aae 16be a986 d13d
00000160: 5aa1 aabd 5df9 a3be b14c 0abe cea6 e5bd
00000170: 33d8 953e 7bc8 af3e bab7 e93d 86fb 953d
00000180: 8490 e33d 4f0d c1bd 59f1 943c 8a7a 83be
00000190: b5da bcbd 77a7 7f3e 9d19 b33c a7fe 99be
000001a0: cfd2 ecbe 52e0 83be 82fe 2c3e 92d5 82be
000001b0: baa3 39bd b1f1 a2bd 5b77 56be 638d 7dbc
000001c0: c118 bfbd 8912 263e 096a 773d 3bf8 9ebe
000001d0: 97b1 58bd c72f f7bc 6bae aabe db49 533e
000001e0: 916e d93d 35aa c9be 04c6 f4bd e776 c03e
000001f0: f8c1 e4bd e681 ad3e fd0e b23e 8128 143d
00000200: 809b 10be 6ab5 75be d723 03be a496 45be
00000210: 5f09 17be a7d5 bcbd 82f4 10be 0757 813d
00000220: 73c7 6c3e 7c3f 283e f40c 55be 5367 15be
00000230: 24a2 5c3d 3f57 87be 701f 563e da55 6ebe
00000240: 8a28 b33d 63d3 8dbe da57 8dbe 8dfe df3d
00000250: 64bc 34be 632b ffbd 7624 f73d 27b2 15be
00000260: ec62 883d 7c88 0e3e cec6 88be 32e3 143e
00000270: 0adf 27be 6bee 373e 8bb5 9a3d 4ca8 913e
00000280: 6cb8 663d 8564 5fbe 95f1 ab3d 67cf 1bbc
00000290: a149 0d3d 17f7 603e 5c15 763d 8347 fa3d
000002a0: b29a fcbc 4b3c 643d 43f5 61bd 27c8 14be
000002b0: e506 c4be a7b3 db3e 2997 c53e 4227 4e3c
000002c0: 6bb9 1cbe 016a 1fbe 42e0 93be bb2b 1c3e
000002d0: 6fb8 8a3d 8574 38be 2503 36bc 4725 ab3e
000002e0: dff9 92be 23d2 fdbd 6d9f a53b 61ec 01bd
000002f0: 975f 11bd 55fe 103e e180 1dbe de3f a0bd
00000300: 77c7 483d 34e3 af3d f87c fd3d c9d6 ac3d
00000310: 7121 513e ec6e 14bd a625 6e3e 4446 8bbe
00000320: 66f2 113d 1d2d a5be 5cf1 79be 1097 e53d
00000330: 67c6 afbd 5ce9 e5bc 19db c6bd 5658 c3bd
00000340: 0f9b 82be e5b1 8e3e d971 553e 6a0a 36be
00000350: b94a 823e 7525 40be 2316 72be ae86 31bd
00000360: 1fe6 843d 6204 e43e 5258 29be e6b9 36be
00000370: a8ac 8c3e 661b 583d e2f2 043e 2b76 e7bd
00000380: e72c 0abe ec78 25bc 1226 213e f0e4 8d3e
00000390: 5848 57be c440 42be 24ec 1d3e f033 4e3e
000003a0: 2374 5dbd 1dcc 1a3e ebc9 06be af2c 673e
000003b0: 37a6 613e 5eb3 813e b56e 01bd d879 1d3a
000003c0: 8075 1d3e ec11 a03e ef5c c2bd 2596 81be
000003d0: 86ed 7cbe dd8d 763d 7220 57be 235d 87be
000003e0: 32ff 8abe 0d4a 743e 4259 d1bd c8b5 fabd
000003f0: 9029 d73d 5ed2 0d3e e2be 56be b7f3 9b3d
0.07417516 0.018205123 0.26227453 -0.0584954 -0.25270697 -0.2467461 0.18850648 -0.07579954
0.23534779 -0.022768429 -0.06007009 -0.3488187 -0.12130558 -0.006653749 -0.26858625 0.046359003
0.1641568 0.0960563 0.2520371 0.41990417 0.34882167 0.11842131 -0.07307752 0.10285663
0.37880275 -0.2346654 0.094117425 -0.38309076 -0.17850363 0.11716761 -0.33094496 0.18684675
-0.23397936 0.083922066 -0.024932181 -0.027521221 0.19594708 0.15111367 0.18618049 -0.044976898
-0.22888118 0.0374996 0.23996936 0.013702424 0.13830201 -0.1528559 -0.019731794 -0.32190976
0.17494568 0.13426787 -0.11577181 -0.22362232 0.11758197 0.12008234 -0.25301751 0.08651579
0.22353148 0.2849652 -0.08575119 -0.082928926 -0.08596319 0.0019439044 0.06893852 0.30445698
-0.11050035 0.08954657 -0.1176685 -0.20360337 0.14929558 -0.13693021 0.115538105 0.085957855
0.0024529067 0.15932259 0.012280363 -0.27973735 0.2708614 0.17380273 0.19702284 -0.25166133
0.08138484 0.20902736 -0.21742862 0.1584117 -0.075243264 -0.09645454 -0.14714876 0.102307625
-0.083315566 -0.32026187 -0.13505818 -0.11213456 0.2926651 0.34332642 0.11411996 0.07323365
0.111115485 -0.094263665 0.01818149 -0.25679427 -0.092214026 0.24966227 0.0218628 -0.30077097
-0.46254584 -0.2575708 0.16893962 -0.25553566 -0.045322157 -0.07956255 -0.20943968 -0.015475604
-0.09330893 0.16218008 0.060403857 -0.3104876 -0.052903738 -0.03017415 -0.33336195 0.20633642
0.10616792 -0.3938767 -0.11951831 0.37590715 -0.11169809 0.33888167 0.3477706 0.03617144
-0.14121819 -0.23994985 -0.1280664 -0.19295746 -0.14749669 -0.092204385 -0.14155772 0.06315427
0.23122959 0.16430467 -0.20805722 -0.14590196 0.053865567 -0.2643375 0.2091043 -0.23274937
0.087479666 -0.27700338 -0.27606088 0.109372236 -0.1764999 -0.12459447 0.12067501 -0.14618741
0.06659493 0.13919252 -0.26714176 0.14539793 -0.16393676 0.17962043 0.07554158 0.28448713
0.056328222 -0.21815689 0.083956875 -0.009509898 0.034494046 0.21969257 0.060078964 0.12220671
-0.030835483 0.055721562 -0.05516554 -0.14529477 -0.3828651 0.429105 0.3859189 0.012582602
-0.15305106 -0.15567781 -0.28882033 0.15251057 0.06773459 -0.18013199 -0.011109148 0.33426878
-0.28706262 -0.12393596 0.0050544054 -0.03171957 -0.035491552 0.1415952 -0.15381195 -0.07824682
0.04901835 0.085882574 0.123773515 0.084394045 0.20422913 -0.036238596 0.23256549 -0.27202046
0.03563156 -0.3226098 -0.24408478 0.112104535 -0.08582764 -0.028065376 -0.09709758 -0.09538333
-0.25508925 0.27870098 0.2084421 -0.1777741 0.25447634 -0.18764289 -0.23641257 -0.04334133
0.064892046 0.44534594 -0.16537598 -0.17844352 0.27475476 0.052760504 0.12983277 -0.113018356
-0.13493691 -0.010099631 0.15737179 0.27713728 -0.2102369 -0.18970019 0.15422112 0.20137
-0.054065835 0.15116926 -0.13162963 0.22575639 0.22036062 0.2533216 -0.03159972 0.0006007231
0.15376854 0.31263673 -0.09490382 -0.25309864 -0.24699983 0.060193885 -0.2100847 -0.26438245
-0.27147824 0.23856373 -0.10222103 -0.12241703 0.10505974 0.1384978 -0.20971254 0.07614844

linear_relu_stack.0.bias f4 [1024]
00000000: 6271 2f3e 1952 cfbd d511 97bd e64f 1c3e
00000010: 3f19 4d3e 376b 003c cd55 bcbd 6a29 7f3e
00000020: 303b 6cbc 7a96 82bd df49 7d3d 4d77 e43c
00000030: ef3c 353e 547c 533e cb82 b83d d66e 29bc
00000040: dff6 bf3d c355 5f3e 46df 153e 0fed 33be
00000050: 80ca 2f3e 5982 bdbd 462a 5d3e 74e7 013c
00000060: 975b 63be f177 5bbe e4c7 ef3d 8c44 08be
00000070: ae96 89be afc2 793e 2969 693e 34f9 5ebd
00000080: fdd2 3c3e 5265 1d3e 9c31 673d 6200 8e3a
00000090: 79a5 debd e8bd 5ebe 86f5 113e 41c8 38be
000000a0: 3899 debd e6f3 803e 5822 2b3e 2a8b 073d
000000b0: 0ded 79be ba17 4e3e a38e 5abd 0589 d9bd
000000c0: 0a18 fd3b bbd7 65be 6dcb 873d f28c 3dbe
000000d0: 8155 6dbd eda5 93be 371e 59be df04 033e
000000e0: 6100 133e b87c 013e 0df0 2a3e eafd 043b
000000f0: ab46 243e 31e2 4f3d bdfb afbc 03c2 06be
00000100: ddf1 703d 9178 7dbd 820a cdbc e16f 883e
00000110: 4372 6ebe a0ec 173e 07d2 103e 9c62 5ebe
00000120: 85b3 e1bd e449 9cbc f60b ddbd ade5 abbe
00000130: 9049 8e3e 1c14 48be 7e29 1d3e a4fb 87be
00000140: 0aac 0b3e 2914 a53b cb8c 8fbe 007c 973e
00000150: 83b5 93be 5620 8a3e 200a 98be 3495 453e
00000160: ca0e 043d 0d81 e93b 007e 0e3e 14fb 423e
00000170: 3be7 f3bd 0b96 293e c434 933e efb5 63bd
00000180: c039 473e 3f31 8f3d abd8 8e3e 4eb4 723d
00000190: a596 c13d 9699 3f3e 65d9 f93d 4167 243e
000001a0: 1f6f 3ebe 849a ca3c bb40 e3bd 06db 8bbe
000001b0: 6e88 ce3c 3ac6 9cbe e813 96bd b26b 7dbe
000001c0: 3a0e 33be 6778 06be 2bf2 573c 12d8 4f3e
000001d0: 275b 80be e823 f3bd 1c3f 35be a835 80bb
000001e0: a21b febd 6a6c 963e 11cb 81be b806 8d3e
000001f0: b9af 4b3e ffca a0be 0451 8b3e 9d1d 19be
00000200: 92f4 8d3e 4100 30be 2503 783e 57a7 37bb
00000210: 1026 563c a02c 133c ab7f 6a3d 9d72 4f3e
00000220: 846b 74be 7584 2e3d fbe8 433e 8c45 83be
00000230: aafc bf3c 4cbd ca3c e823 7e3e 7ccb 5c3e
00000240: 2825 3abc e703 153e bc12 863d 0afe 0cbe
00000250: e91b 37be a593 8cbe 501b 363c ba12 e8bd
00000260: 95f8 fd3d 6dbb 60be f264 5d3d 6d51 623e
00000270: f4e4 73bc 3f2b 133e 37ae 1a3e 4547 a4be
00000280: adc6 93be 515d 0f3e 9ad4 c13d eb0f 50be
00000290: d980 2abe ed08 78be 7825 053e d3a2 81be
000002a0: ae91 70be 9338 293e 19da 963e 4038 24ba
000002b0: e608 94be 5519 40be 460d 89be 2984 13bd
000002c0: 053a 893e 8f3f 7dbd a840 5a3b b1cd 5fbe
000002d0: e201 883e 6d5c 7b3e 44fc cb3d dc3f 803e
000002e0: d475 9a3e d9d6 3d3d 773f 2e3d 90b3 6e3e
000002f0: dc15 e03d b589 97bc ec1e 793d 7ef6 9c3e
00000300: 8d9f 2f3e 2ab9 153e e492 413e c243 123c
00000310: a5e4 fa3d 8516 b33c 35bd 733e a991 973e
00000320: 2032 9abe 79a9 1bbb 99a7 893e f268 74be
00000330: 32e4 983e 5abd 893a c8c7 2abe 6878 ffbd
00000340: b582 d0bd ce11 7b3e 4902 9cbe eaeb 563c
00000350: 62e2 2ebe 46be 943e b5c0 833e da3e 77be
00000360: 033a 1f3e 5839 ed3d 6142 4bbe bd18 8d3e
00000370: 1a76 283d 1f67 233e 6f4f 9dbe b7dd 50be
00000380: efbc 6c3e a197 d4bb ec85 8c3c 072a 7ebe
00000390: f7fe 3f3e d4a5 953d 4efd 84be aa77 733d
000003a0: f449 7ebe b208 99bd cde6 e13d cecf 0fbd
000003b0: 9ef1 0c3e 2731 fdbc 2356 afbd a631 d73c
000003c0: aaf1 97be a68f 83be ba6b eb3d c285 35be
000003d0: d1c5 483e 4bfb 1fbe 3339 643e d778 d93d
000003e0: 56e1 683d b1a1 883e a4ed 8ebe ac79 323e
000003f0: b63f 37be b7b4 3a3d 718b 2dbe 43c0 1ebe
0.17133096 -0.10123081 -0.07376448 0.15264854 0.20029162 0.007838062 -0.09196053 0.24918142
-0.014418408 -0.063763574 0.061838027 0.027888918 0.17699026 0.20652896 0.09009322 -0.010341367
0.09373259 0.21810059 0.14635953 -0.175709 0.17167091 -0.092533775 0.21598157 0.007928718
-0.22202908 -0.21432473 0.11708048 -0.13307399 -0.26872772 0.24390672 0.22794022 -0.054436877
0.1843986 0.15370682 0.056443796 0.0010833854 -0.10871405 -0.21752131 0.14253816 -0.18045141
-0.10869068 0.2518608 0.1671232 0.0330917 -0.24406834 0.20126238 -0.053358685 -0.106218375
0.007723813 -0.22445576 0.06630597 -0.18510798 -0.05794287 -0.2883753 -0.21202932 0.12794827
0.14355613 0.12645233 0.16693135 0.0020292946 0.16042583 0.050752822 -0.021482343 -0.13159947
0.05882441 -0.06188256 -0.025029425 0.26647857 -0.23285775 0.14836359 0.14142619 -0.21717304
-0.11020569 -0.019078203 -0.10793297 -0.33573666 0.277905 -0.19538921 0.1534786 -0.26559174
0.13639846 0.0050378037 -0.28037104 0.29586792 -0.2884942 0.26977795 -0.29695225 0.19295198
0.032240666 0.0071259798 0.13915253 0.19041091 -0.11909338 0.16561143 0.28751194 -0.055593427
0.19455624 0.06991815 0.2789968 0.059253983 0.09452561 0.18710932 0.12199668 0.16055013
-0.18597077 0.024731882 -0.11096331 -0.2731554 0.02521154 -0.30619985 -0.073280156 -0.24748114
-0.17485896 -0.13131867 0.013180296 0.20297268 -0.25069544 -0.11872083 -0.17699856 -0.0039126463
-0.12407614 0.29379588 -0.2535024 0.27544188 0.19891252 -0.31404874 0.27210248 -0.14952703
0.27725655 -0.17187597 0.2421995 -0.0028023326 0.013070598 0.008982807 0.05725066 0.20258565
-0.23869139 0.04260679 0.19131844 -0.25638998 0.02343591 0.024748467 0.24818385 0.21561998
-0.011361398 0.1455227 0.06546542 -0.13768783 -0.1788174 -0.27456394 0.01111491 -0.11331697
0.12400929 -0.21946497 0.054051347 0.22101374 -0.01488613 0.14371966 0.1510552 -0.32085624
-0.28862515 0.14000441 0.09464379 -0.20318572 -0.16650714 -0.24222155 0.13002574 -0.25319538
-0.23493072 0.16525488 0.2946327 -0.00062644854 -0.2891304 -0.18759663 -0.2676794 -0.03601471
0.26802078 -0.061828192 0.0033302698 -0.21855809 0.26563936 0.24546976 0.09960225 0.2504872
0.3016802 0.046347473 0.042540994 0.23310685 0.10941669 -0.018498281 0.060820505 0.3065681
0.17150708 0.14621416 0.1890369 0.0089272875 0.12250642 0.021861324 0.23802646 0.29603317
-0.30116367 -0.0023752137 0.2688568 -0.23868158 0.298616 0.0010508702 -0.16677773 -0.124741375
-0.101811804 0.2451851 -0.30470493 0.01311777 -0.17078546 0.29051417 0.2573296 -0.2414507
0.15549473 0.11583203 -0.1984954 0.27557936 0.041128255 0.15957306 -0.30724666 -0.20397078
0.23118947 -0.006487802 0.017153703 -0.2482072 0.18749605 0.0730702 -0.25974506 0.059440292
-0.24832898 -0.074723616 0.1103035 -0.035110287 0.13764045 -0.030907227 -0.08561351 0.026268791
-0.29676563 -0.25695533 0.114951566 -0.17726806 0.19606711 -0.15623204 0.22287445 0.106187515
0.056855522 0.2668586 -0.2791568 0.17429227 -0.17895398 0.0455825 -0.16947724 -0.1550303

linear_relu_stack.2.weight f4 [36, 1024]
00000000: a3a1 423c 725e dd3c dfc6 f73c 29fb 933b
00000010: ad99 e73c 6023 5bbc 3805 02bc 82f2 8dbc
00000020: f917 d53d 48d8 103a 3903 ad3c 5acb 473d
00000030: 9b75 67bb 17ed dcbc 7b8a 6537 f8d2 b43d
00000040: 72cf a1bc cd67 dfb9 e928 393c f472 36bd
00000050: 1e6d 893c 15f3 c83c 82df ee39 a765 e23c
00000060: 489a 2bbd 23c7 1f3e 5027 8bbc 22d3 c9bd
00000070: 7724 80bd 2fa7 ba3c 4b6e b738 62de d13d
00000080: 8876 0cbd 86b1 afbd e016 e2ba ab99 c4bd
00000090: c274 923c 16b2 2bbe ccee c83c 677b 12be
000000a0: ced4 7e3d 064c a73c e2ab 1fbc 915e b8bc
000000b0: 9405 11bb e4ff c7bc d6b2 02bd bcd7 24bc
000000c0: 6be0 ac3c c053 c1bb e851 083c d1a2 943d
000000d0: aaf4 45bd e5c4 ba3d 44a9 36bc cb00 543c
000000e0: 2345 9cbd 6602 c73a cdd4 c8bc 0a69 c23d
000000f0: 259c d43c b9e3 82b8 ac48 6f38 544e 07be
00000100: 11df 19bd 7c00 92bd b8de 3e3d fa6f f3bc
00000110: f8b6 83bb 8e3c b5bc cc57 85bc 8026 4e3a
00000120: 197e 18bd 32cd dabc c94b 993d 2f04 553e
00000130: e66d 0bbd d8cd 81bc 717c 9b3c 9a5d 4f3e
00000140: 7d70 d03c 3593 063d c031 d3bb d325 05bc
00000150: ab34 643d 0a25 cd3b 1afa f33d 13d2 223c
00000160: c936 263c e046 eb3b e7d1 8f3c c204 8fbc
00000170: 6432 93bd 5d59 813d 8245 9dbc 9b7b fa3c
00000180: 8e41 26bc d16c 2cbd bf1c 0cbc e810 4dbd
00000190: 4614 0d3d 78d6 dabc cc21 d6bc 4eca a7bc
000001a0: 7926 6a3c 7bfe dbbd 14b6 033d 7e74 1b3e
000001b0: 1392 053d ac6b 50bc 97db a7bd 1776 4dbc
000001c0: 3154 b6bd e447 1dbd bbc0 5c3b fa58 12bc
000001d0: bba3 b9bd 42f6 0abc 7e96 97bd 8057 6abd
000001e0: 8a6e 23be d06f 4a3b ccb0 e3bd 9545 9d3c
000001f0: e0c1 dbbc 5ce4 873d a2b8 52bc 74c5 63be
00000200: 4a5e db3c 3043 9f3b bf56 8c3c 5707 083c
00000210: 4793 62bd 7619 fc3b 17bd 9dbc cc03 933c
00000220: 7e5c 163d 6870 6e3b 1d4f f93c fb1a 98bd
00000230: 3edd a1bc 88a0 0fbd 47f5 2a3c b695 47be
00000240: 6e41 943c ebea a03b ed1f 03bd 560b be3d
00000250: d969 aabd 9a8f acbc 77cb 093e 511b 09bd
00000260: be46 e1bc a3db 263e 0602 4fbd bb06 453c
00000270: 37a8 92bc 702c 2abc 5e54 93bb 4ffa 883c
00000280: 36c2 a3bc b198 36bc 8cc0 6e3c 8b9e 503c
00000290: 1a5c 9ebc d802 4f3d f841 36bc fbf6 4a3e
000002a0: a163 c0bd cb5d 81bc d785 973c ae73 e9bc
000002b0: 6a6e afbb be53 30bb c5dc 643d ea39 363d
000002c0: 929a b93c 066a 403c e72e 823a 1bcd bd3d
000002d0: 03ec 1f3c c1da c0bb a7b6 093c cafc 743c
000002e0: 171f 22bc 6806 033d 062d b1bb 7e7e dd3c
000002f0: c0d1 283d 3b8f 103d fac0 6b3c 6f58 b3bc
00000300: 74c9 fa3c 3281 9dbc c24b 273c dd64 22bd
00000310: 1dfd 85bc 009f 11bc 7f16 38bc e36f c13c
00000320: b43d 7ebc 227e 373c d5c9 71bc 244f cc3c
00000330: 1e07 813c a5b3 5dbd c5d2 fa3c 42c7 513d
00000340: 4bc9 eebd c436 e7bc 3524 a53d 64ed debc
00000350: a089 e03b 395c 4cba 4e76 0cbc a486 1f3e
00000360: a48b 7f3b 1658 813a 0e87 003d cd94 563c
00000370: 95a9 38bc b36f 923c fefa 013d 54a9 b3bd
00000380: 6058 f33d 5757 cd3c 2c44 29bd 0079 303a
00000390: fabc fbba ed9e bdbc 50cb 103c eb3e 18bd
000003a0: 6969 b1bb a713 9b3d 2c25 75bc 3776 5e3d
000003b0: 7893 32bc c10f c23c 518c bebd 462d 0dbd
000003c0: fab2 f5bc 2600 8cbd 00dc cebc 2e26 bdbc
000003d0: 4588 c33b 9c43 2cbe 0783 0e3d 27ed b6bc
000003e0: 9512 4cbd dc53 9dbc fd6e 2c3c ee84 febb
000003f0: 8c37 c93d 3c78 12bd 6ca5 0f3c 482e c93c
0.0118793575 0.027022574 0.030246196 0.0045160246 0.02827152 -0.013375133 -0.007935815 -0.01732755
0.10404963 0.00055253925 0.0211197 0.048777916 -0.00353179 -0.026968522 1.3681706e-05 0.088293016
-0.019752238 -0.00042611212 0.011301258 -0.04454322 0.016775664 0.024529973 0.00045561424 0.027636362
-0.04189518 0.15603308 -0.01698652 -0.098547235 -0.06256955 0.022784797 8.746664e-05 0.10247494
-0.034292728 -0.08578782 -0.0017249249 -0.09599622 0.01787794 -0.16767153 0.02452793 -0.14304887
0.062214665 0.020421993 -0.00974557 -0.02250603 -0.002212857 -0.02441401 -0.031908832 -0.010061201
0.021103105 -0.0058998764 0.008320309 0.07257617 -0.048329033 0.09119586 -0.0111487545 0.012939642
-0.07630374 0.001518321 -0.024515534 0.09492691 0.025953362 -6.2413e-05 5.704972e-05 -0.13213474
-0.03756625 -0.07128999 0.04659912 -0.02971648 -0.0040196143 -0.022123601 -0.016277216 0.00078640133
-0.03722963 -0.026709173 0.07485158 0.20802377 -0.034040354 -0.015845224 0.018980237 0.2025055
0.025444264 0.03285523 -0.0064451396 -0.008126694 0.05571429 0.006260519 0.119129375 0.009937781
0.010144898 0.00718008 0.017556144 -0.017458323 -0.071873456 0.06315873 -0.019198183 0.030576518
-0.010147465 -0.042095963 -0.0085517755 -0.05006495 0.034443162 -0.026713595 -0.026139162 -0.020482209
0.014291399 -0.10741898 0.032156065 0.15181157 0.03261001 -0.0127209835 -0.0819618 -0.012540362
-0.08902777 -0.03839864 0.0033684212 -0.0089323465 -0.09064432 -0.008481564 -0.07401751 -0.057212353
-0.15960136 0.00308894 -0.11117706 0.019198218 -0.026825845 0.06635353 -0.012861403 -0.22243291
0.026778359 0.0048603043 0.017131208 0.008302531 -0.055316236 0.007693465 -0.019255204 0.017946146
0.0367093 0.0036382917 0.030433232 -0.07427021 -0.019758817 -0.035065204 0.010434455 -0.19490704
0.018097606 0.004910817 -0.03201287 0.09279506 -0.0832097 -0.021064568 0.13456522 -0.033473317
-0.027499553 0.16294722 -0.05053904 0.01202553 -0.017902477 -0.010386571 -0.0044961413 0.016720919
-0.019990068 -0.011144803 0.014572274 0.012733112 -0.019331027 0.05053982 -0.011124127 0.19820778
-0.09394003 -0.015791794 0.018496437 -0.028497543 -0.0053537386 -0.0026905383 0.055874605 0.044488825
0.022656713 0.011744028 0.0009932191 0.092676364 0.009760859 -0.0058854525 0.008405364 0.014952848
-0.009895108 0.03198853 -0.0054069785 0.027037855 0.04121566 0.035292845 0.014389271 -0.021892754
0.030613638 -0.019226644 0.010210933 -0.039646972 -0.016356045 -0.008888006 -0.011235832 0.023612922
-0.015517641 0.011199506 -0.014757593 0.024940081 0.015750464 -0.0541264 0.03061808 0.051215418
-0.11659487 -0.028224356 0.080635466 -0.027212806 0.0068523437 -0.00077957247 -0.008573128 0.15578705
0.0038993144 0.0009868171 0.0313788 0.013097 -0.0112709 0.017875528 0.031733505 -0.08772531
0.118820906 0.025066061 -0.04132478 0.00067318976 -0.00192061 -0.02314707 0.008837536 -0.03716938
-0.005414177 0.07572108 -0.014962476 0.054311957 -0.010899417 0.023689153 -0.09304107 -0.034467004
-0.02999257 -0.06835966 -0.025251389 -0.023089495 0.0059671723 -0.16822666 0.034792926 -0.02232988
-0.04982241 -0.019205026 0.010524509 -0.0077673113 0.09825048 -0.035759196 0.008767467 0.024558201

linear_relu_stack.2.bias f4 [36]
00000000: 3fa4 b63c de1c 483c d3ef 0d3d c324 f63c
00000010: 2cdb f23a 19c9 533c 85bf 9b3c 51ca 953b
00000020: 4931 87ba b47e 7cbc 4f4c b1bc 4e04 ee3b
00000030: 5ac2 203c 5e4d c63c 4086 88bc 9c6d 1e3c
00000040: 9753 153d 967c 3bbc 2b7c 43ba 7d92 b93c
00000050: b200 0f3c 3962 87bb 6635 173d 6884 023c
00000060: aeaf b33c 839d a03c 9c15 923c 03be 4e3b
00000070: 09c5 d4bc e6cc 42bc 2700 ec3b 550c c33c
00000080: ab01 553c 10c8 63bc 7d7c ea3c 9479 51bc
0.022295116 0.012213914 0.034652542 0.030046826 0.0018528453 0.012926363 0.019012222 0.004571237
-0.0010314371 -0.015411068 -0.021642832 0.0072636968 0.009811962 0.024206813 -0.016665578 0.009669688
0.03645667 -0.011443278 -0.0007457162 0.022652859 0.008728193 -0.004131582 0.03691616 0.007966138
0.021934357 0.019606357 0.01783257 0.0031546361 -0.02597286 -0.011889672 0.0072021666 0.023809591
0.013000886 -0.013902679 0.028623814 -0.012785334
