models/model_added_mass_0_wave_frequency_n10.pth (torch, 239976 bytes, 4 tensors)

linear_relu_stack.0.weight f4 [1024, 21]
00000000: b56f 8c3e 2af4 08bd 1ad5 c1bd b685 ccbd
00000010: 3f16 253e dbd0 23bd 6c2f 24be ea0f 60be
00000020: 57b3 5cbd 91ae 003e 3131 fcbc ddd7 6fbe
00000030: b8d7 dd3d 7040 e1bd c45f c23c 6734 c43c
00000040: 3d5d 433e 0c0a 39be a680 233e e1a2 22be
00000050: 420f 6ebd 7a8e cb3d 0bd5 76bd 246a 94bd
00000060: 47cf a6bc d36d 173c e258 fc3d ed35 9f3d
00000070: 9bbc dcbd 257b 3fbe f0c9 16be f482 6fbe
00000080: 19ba 463d cc22 01be 163d dcbd 2539 72be
00000090: aacd 2d3e 6760 fe3d f8f4 a33d 96a2 9dbd
000000a0: 86f1 c3ba 37e5 37be 5948 333e bddd d83c
000000b0: 4ca1 38be f9de afbc e5ef a53d 77df 323e
000000c0: cfa9 c2bd 07e3 303e 686a 45bb d394 5a3e
000000d0: 9b8a db3c 1e10 9dbd 1c49 9b3d 3797 0c3e
000000e0: f564 873d 88f7 bcbd 781d 043d 40f9 30be
000000f0: 87fd 413d ce60 0dbe 1baa 663e c9f9 2fbe
00000100: 8221 a93d f553 e63d 43b1 ba3c 0388 48be
00000110: 0ee8 27be e8e0 ebbd 336b f83d d472 7a3e
00000120: 34b6 603d 1f1a bfbc b901 a93d af64 043e
00000130: 638c e2bc 6ca8 c93c 58df 23bd 1616 203e
00000140: 6a02 853d 547f 0b3e 1389 6abd f105 8e3d
00000150: 6643 4e3e c2eb 4bbe 6d66 b03d ed73 61be
00000160: 08da 1c3d ad37 9b3d 9f51 bbbd 932a 853c
00000170: e54a 263d 0c29 19bc ae6e fdbd e38f cfbd
00000180: cc6a d7bd ec09 a3bc 1118 1abe 89dd 02be
00000190: 2ad7 683e d274 183c aed5 dc3d 5bcf 4dbc
000001a0: 7487 883d c093 d3bd f02c 0d3e 9fee 143d
000001b0: 5b84 4e3e cd6b 3dbe ef32 39bc efdb cf3d
000001c0: 273e 23be fc5f ab3d bb50 2d3d 148b 99bb
000001d0: 12dc cebc eae1 243e 9a91 eb3d ef71 953d
000001e0: cef1 623e c57f 61be a2cf 13be 5df1 b6bd
000001f0: 4bba 16be 1eb1 833d c042 4dbe 244a 033e
00000200: 1079 513d 4482 e4bd 7256 643e 623a a63c
00000210: ae1b 1f3e caa5 843c a8d1 f9bd 7dab 42be
00000220: 2d29 07be 450e 8ebd fa2f 8cbd 0d36 34be
00000230: 8b67 723d 2ea8 b23d 991a b13d 6d22 f13d
00000240: b77c 323e dab2 a9bd 8801 b73d 7dac ba3c
00000250: 1ebb d73d 4d6e ccbc e74c 9dbd 16f1 14be
00000260: 92bd 2cbe 2280 e3bc 28aa bbbc 9d77 e43d
00000270: 450e 8abe dbe0 4e3e c08b 05be 1134 853d
00000280: cebe 61bd 7c08 f6bd e5ef 843e 7a9f ad3d
00000290: 0d90 753e 76e4 413e b4a6 f3bd 1a62 a5bd
000002a0: c872 dd3c d65e b8bd 0b80 e4bd 3855 2ebe
000002b0: da61 41be fe60 833b e9bf 50be 0cbb d63d
000002c0: ba3d 6ebd 4579 033e 68a0 123d 7634 66be
000002d0: 953b 1a3e 0496 9bbd 9848 8abd b656 0e3e
000002e0: 2f1b 423d d406 cc3d cb1a 1d3d 6621 393e
000002f0: e4dc e13d cd23 e53d 950d 3fbe 879f 54be
00000300: 22cb b2bd 1986 d8bd f26a 1f3e 34cc 56be
00000310: 1246 78bd cff1 3c3e 34e5 083e ee0f d03d
00000320: af95 d6bd 7af6 fa3d 060a 05be cdf0 62be
00000330: 0d0b 553e c51e 23be 60fc ec3d fa97 99bd
00000340: b4b7 37be 2cd8 2c3e b0b2 3d3e 900a 6ebe
00000350: 6161 03be 44c4 3dbe b1b1 babd e635 a8bb
00000360: ad9f 0a3e 9789 1c3e 7924 333e f616 65be
00000370: cd02 893d e6d8 0d3e 3df6 37be 8b5b 163c
00000380: 2ac2 fb3c 4820 bebc 1dbf 48be 46d9 d23c
00000390: a4ad 213e 9f37 4f3d c1e6 893d 177e a3bd
000003a0: 22a9 11bd 964e fc3d ab8d 7dbd 9fd9 9f3d
000003b0: 0c7c a6bd eac2 6bbe b872 6bbe 1718 3d3d
000003c0: d6a2 3d3e db59 433e 1409 edbd 5e15 043d
000003d0: 19df 9db9 6a24 283d df12 073e b09e eabc
000003e0: 1128 6dbd e89e 43be fb5f 84bb 4b1a 9a3d
000003f0: 5ad7 033e 2f67 c23d 28c2 7dbc 8c3a 2f3e
0.27428976 -0.033435978 -0.09464474 -0.09986441 0.16121767 -0.039994102 -0.16033715 -0.2188107
-0.05388197 0.12566592 -0.030785175 -0.23422189 0.10832161 -0.109986186 0.023727305 0.023950769
0.19078536 -0.18070239 0.15967044 -0.15882446 -0.05812002 0.099392846 -0.060261767 -0.07246807
-0.02036251 0.009242493 0.123216406 0.077739574 -0.10778161 -0.1869932 -0.1472547 -0.23389798
0.04851732 -0.1261093 -0.10753839 -0.23654611 0.16972986 0.12420731 0.080057085 -0.076970264
-0.0014949299 -0.17958532 0.17508067 0.02647292 -0.1803028 -0.021468626 0.08102397 0.17468058
-0.09505045 0.17274104 -0.0030123238 0.21345834 0.02679949 -0.0766909 0.07582304 0.13729559
0.06611053 -0.092269 0.032254666 -0.17282581 0.047360923 -0.1380646 0.22525828 -0.17185129
0.08258344 0.11246482 0.022789603 -0.19583134 -0.16397116 -0.11517507 0.12129822 0.24457866
0.054861262 -0.023327885 0.08252282 0.12929033 -0.027654832 0.024616443 -0.04000792 0.15633425
0.06494601 0.1362279 -0.05725963 0.06934727 0.20142898 -0.19914153 0.08613286 -0.22016878
0.03829387 0.07578979 -0.09146427 0.016255653 0.04059877 -0.009348165 -0.12374626 -0.10134866
-0.10518417 -0.019902192 -0.15048243 -0.12779821 0.22738329 0.009305196 0.10782944 -0.012561644
0.06666461 -0.103309155 0.13786674 0.03636038 0.20167677 -0.18498154 -0.011303647 0.10149371
-0.15941678 0.08367917 0.04231332 -0.004685769 -0.025251422 0.16101804 0.11502381 0.07297122
0.22162554 -0.22021396 -0.14434674 -0.08932755 -0.14719503 0.06430267 -0.20044994 0.12821251
0.051140845 -0.11157659 0.22298601 0.020291511 0.15537903 0.016192336 -0.12198192 -0.1901073
-0.13199301 -0.069363154 -0.06845088 -0.17598744 0.059180778 0.08723484 0.08647651 0.11774144
0.17430387 -0.08286066 0.08935839 0.022787327 0.10533737 -0.02495494 -0.076806836 -0.14545092
-0.1686919 -0.02777106 -0.022908285 0.11155627 -0.26964012 0.20202963 -0.13041592 0.065040715
-0.055113606 -0.12013337 0.25964275 0.08477683 0.23980732 0.18934807 -0.118970305 -0.08075352
0.027032271 -0.090024635 -0.11157235 -0.17024696 -0.18884984 0.004009365 -0.20385708 0.10484895
-0.058164336 0.1283923 0.035797507 -0.2248095 0.15061791 -0.075969726 -0.067521274 0.13900265
0.047389206 0.0996224 0.03835563 0.18079147 0.1102846 0.11188469 -0.18657525 -0.2076398
-0.08730151 -0.10572452 0.1556814 -0.20976335 -0.0606137 0.18451618 0.13368684 0.10159288
-0.10477769 0.12254043 -0.12992105 -0.2216217 0.20804997 -0.15929706 0.11571574 -0.0749969
-0.17941171 0.16879338 0.18525195 -0.23246217 -0.12830116 -0.185319 -0.09115923 -0.0051333783
0.13537474 0.15286861 0.17494382 -0.2237204 0.06689987 0.13852271 -0.17965026 0.009177099
0.030732233 -0.023208752 -0.19604154 0.02573837 0.15788895 0.050590154 0.06733466 -0.07983034
-0.03556169 0.123196766 -0.061902683 0.0780518 -0.08129129 -0.23023573 -0.2299298 0.046165552
0.18519148 0.19077246 -0.11573997 0.03224694 -0.00030111594 0.041050352 0.13190793 -0.028640121
-0.05789954 -0.19103587 -0.004039762 0.07524546 0.12875119 0.09492337 -0.015488185 0.17112178

linear_relu_stack.0.bias f4 [1024]
00000000: a5c9 c33b a4e5 463e 14e2 fa3c 7087 0fbe
00000010: 1c1f 77bd 42a5 343e 451c c43d 7733 eabc
00000020: a970 a73d b6db e93c 1926 683d 4ea5 113e
00000030: c3c6 23be 37d5 4ebe 422a 6d3e fb03 54be
00000040: f310 96bc 9305 313e 7191 debd 377c d93c
00000050: 83de dc3c 44fe 763d c03b 0f3e 2654 9bbd
00000060: 898a 303d 1b12 adbb 17e7 d23d f647 b3bc
00000070: c19c c13d b1e9 4bbc fe6c 1fbe 15bc 74bd
00000080: 510a 463e d346 71bd 1c1d 453e 9c7a d4bd
00000090: ba65 b13d 7ef7 0dbe 2128 cd3d 6f4e 24be
000000a0: c00b 35be 4d4a 8abd 4143 38be 7f2e e93d
000000b0: 5a09 093d 7fbc c0bd ce29 933d 6d40 323e
000000c0: e5b7 113c 14d5 18be dcfe e33c b441 d43d
000000d0: 6f1b 333e db30 4fbe 8cc8 273e b4f4 233e
000000e0: 4923 c43d 14cf 8d3c ba84 25be 2239 7e3c
000000f0: 5856 233e ab44 f1bd ce24 7f3e eb48 343e
00000100: cca0 2c3d 3403 383d 5d46 19bd 3bd4 7b3d
00000110: 1dc9 50bd dfd9 53be a7ce b63d fd6e 13be
00000120: b5f3 193e 8352 d63d 9f8d 45be bc6c b9bd
00000130: 1fa0 47be 9708 47be 798c 00bd 8900 a23d
00000140: 1f5c 8f3d 5722 e13d d6ff 8b3b b974 e9bd
00000150: 8e8b 82bd eb30 323d c39b 81bd a19b 6a3e
00000160: 272e 0e3d 72dd dd3c cbb0 8ebd 34f1 003d
00000170: 44a2 863d dfe7 36be ef30 97bd 7733 4e3e
00000180: 5627 5abd 6cb5 783d 0026 ce3d 26cf febd
00000190: 1daa 053e 804d 2cbe b262 11be 5823 383e
000001a0: 2752 59be 3f02 1f3e 524e 3a3c 20dd d8bd
000001b0: 1205 82be 8233 61be 5c88 cc3d aad2 30be
000001c0: 68b5 2c3d c958 f03c b475 a83d bbcd 6b3e
000001d0: 5fef 253e 20ae 493e 8752 123e c42f 463e
000001e0: b8ee ec3d 0e09 05be 1cff 5d3e 0e5d 923d
000001f0: 3cc3 dcbc 0fd4 d73c 1e0d 1a3e e92a 0abe
00000200: 5f1e d53d b93c 7abd 4fdf 86bd 9813 acbb
00000210: 325d 03be d3f4 2c3d 0397 583d a755 663e
00000220: 1812 1b3e 8d2d 013e dc44 39bc cce9 05be
00000230: 31c3 173e b008 e63d 9887 0f3e f6a0 5a3e
00000240: de04 633e 396d 073e 1f9a 393e d7b4 70be
00000250: 30d8 b93d c09e 55bd 1bc0 443e 8890 1a3d
00000260: 1700 8a3d b1fd c13d 7319 4cbe 9360 4fbe
00000270: d63a a43d d504 d83d 4ba3 51be 3262 983c
00000280: 61b5 273e bec8 66be 8925 2fbe 67bc f1bd
00000290: 8150 f43d 011e 42be 3330 4d3e bbd6 263c
000002a0: 9e95 613e 6074 433e 23fd 533e d7b6 9a3d
000002b0: 76b6 93bd f4a6 ab3d 30d7 583c a2d1 4fbe
000002c0: d740 863d f93c 1f3e c391 0e3e b86a 873c
000002d0: d363 5dbe b25a 3bbd 19d4 3f3e 7391 3d3e
000002e0: fee7 463e 62d5 8abc bfa6 0c3e 71da 6bbe
000002f0: 1b86 3cbe d827 a83d fc1a d9bd 8c54 493e
00000300: a6e3 723d a7ce 36bd 7567 8b3d b6bc 01be
00000310: 0bb1 41be e951 0cbe 0983 013e 21fb 81bd
00000320: 1843 ad3c eb9e a0bd 8889 c73d 0948 88bd
00000330: 9a89 9c3d 8c69 f9bd a12c c83d eb18 513e
00000340: b2b1 e9bd bbed 203d 8616 e8bc 56cf a83d
00000350: 65f7 8dbd 2b02 48be 7837 18bd 3e31 d8bc
00000360: 40a6 673d bdb6 f3bd c752 4a3d 71c4 96bd
00000370: bdd3 263e 5a62 393e 4d2d f33d d64b bdbd
00000380: 8148 193e f599 c2bd adaa 52be 9424 3bbe
00000390: fe90 433e a108 59be f31b 0d3e 6025 533e
000003a0: 3534 4d3e 17b2 21be a3fa e43d dd99 883d
000003b0: f4ea 8cbd 04a5 20be 7f47 26be fef7 b53d
000003c0: 14ec 31bd 7ca9 113e 498f 12be 43b3 2f3e
000003d0: bee0 c43c 76ef b9bb 662b bf3d 8408 c8bd
000003e0: f2ca 0e3c 1b08 533e 992f 603e c1ca a33d
000003f0: a42f 173d e480 0c3c 34d4 643d c70f 6c3e
0.0059749656 0.19423538 0.03062538 -0.14016509 -0.060332403 0.17641166 0.095757045 -0.028588993
0.08175785 0.02854715 0.056676958 0.14223215 -0.1599379 -0.20198523 0.23160651 -0.20704643
-0.018318629 0.17287283 -0.108675845 0.026548488 0.02696157 0.06030108 0.13987637 -0.075844094
0.043100867 -0.0052816994 0.10297983 -0.0218849 0.094537266 -0.012445853 -0.15568921 -0.05974968
0.19339873 -0.058905434 0.19249386 -0.103749484 0.08661981 -0.13863942 0.100174196 -0.16045545
-0.17680264 -0.06752453 -0.17994405 0.113858216 0.033456184 -0.09410953 0.07185708 0.17407389
0.0088939415 -0.14925033 0.027831487 0.103640944 0.17490934 -0.2023348 0.16385096 0.16011316
0.095770426 0.017310657 -0.16163912 0.015516551 0.15950906 -0.117806755 0.24916384 0.17605941
0.042145535 0.04492493 -0.03742062 0.061481696 -0.050973047 -0.2068858 0.089261346 -0.14397807
0.15034373 0.104649566 -0.19292305 -0.090539426 -0.19494675 -0.1943687 -0.031383965 0.07910258
0.069999926 0.10992878 0.0042724414 -0.11399216 -0.06374274 0.043503683 -0.06328537 0.2291093
0.034711983 0.027083132 -0.06967314 0.03148003 0.065739185 -0.1786189 -0.0738238 0.2013682
-0.05326017 0.060719892 0.10065842 -0.12441854 0.13053174 -0.16826439 -0.14197806 0.17982233
-0.21222745 0.155282 0.011371212 -0.10589051 -0.25394493 -0.21992305 0.09986946 -0.17267862
0.04216519 0.029339211 0.08225575 0.23027699 0.16204594 0.1969533 0.14289294 0.19354159
0.115689695 -0.12991735 0.21679348 0.07146655 -0.026948564 0.026346235 0.15044066 -0.13492931
0.104061835 -0.061093066 -0.065855615 -0.005251359 -0.1282852 0.04222567 0.05287839 0.22493611
0.15143621 0.12615032 -0.011307921 -0.13077468 0.14820553 0.11232126 0.14016569 0.21350464
0.22169825 0.13225259 0.18125199 -0.23506485 0.090744376 -0.05215335 0.19213907 0.037735492
0.067382984 0.09472216 -0.19931583 -0.20251684 0.080190346 0.10547797 -0.20472448 0.01860151
0.16377784 -0.22537515 -0.17104162 -0.11803513 0.119294174 -0.18956758 0.20037918 0.010183032
0.2202973 0.19087362 0.20702033 0.07554405 -0.07212536 0.08381453 0.013234898 -0.20294812
0.06555336 0.15550603 0.13922791 0.01653038 -0.21620111 -0.04574079 0.18733253 0.18512516
0.19424435 -0.016947452 0.13735484 -0.23032548 -0.18410532 0.082107246 -0.1060085 0.19661158
0.059299134 -0.044630673 0.06806842 -0.12669644 -0.18915193 -0.13703121 0.12647642 -0.06346727
0.021150157 -0.07842811 0.09743029 -0.066543646 0.07643433 -0.121783346 0.09774137 0.20419662
-0.11410846 0.039289217 -0.028331053 0.08242671 -0.069319524 -0.19532077 -0.037162274 -0.026390668
0.056555033 -0.11900089 0.04939535 -0.07361687 0.16291709 0.18103924 0.11873875 -0.0924298
0.14969064 -0.09502021 -0.2057292 -0.18275672 0.19098279 -0.21194698 0.13780193 0.20619726
0.20039447 -0.15790592 0.11180618 0.06669972 -0.06880751 -0.15687948 -0.16238211 0.088851914
-0.043438032 0.1422481 -0.14312471 0.17158227 0.024032947 -0.005674298 0.093344495 -0.09767249
0.008715378 0.2060856 0.21893157 0.079976566 0.036910668 0.008575652 0.055866435 0.23052894

linear_relu_stack.2.weight f4 [36, 1024]
00000000: ade3 1dbd 6e17 08bd 69cf 0d3c 373e 993c
00000010: 7ef4 16bd ff10 3bbc a939 273c 4c41 bcbd
00000020: 1a5a d9bc a732 f23c 7df1 093c ecef 003c
00000030: 04f4 87bc 91ad 9c3d 30a1 93bc 60eb 5e3c
00000040: da9e 7bbd 0c7c 2a3b 5f8c 1abd 86cb 55bc
00000050: 2dec 4dba e2ea 103b 64c1 9abc 5367 54be
00000060: 1316 a73b f9dd 73bd 38f0 c53c 738e 033c
00000070: ed0e 1a3d 0a04 f73a 6c68 123c 9a97 3bbd
00000080: 5921 57bc 1c6e efba da0e a03d 7fb4 883c
00000090: 2d6d 103c 117b 60bd d874 93bc 2bed 07bd
000000a0: fdd9 863d adb3 5a3d 628e a5bc db77 163c
000000b0: 7fca ae3c c4b3 e7bc 5f25 a33c de04 873c
000000c0: f7c3 efbc f2fe cebd ad74 11bd 376e 04bc
000000d0: c0ed 1c3b 1fcf ee3b cd8e 253b 4ac5 dfbc
000000e0: 2eb1 443c db39 a83b 1ae4 77bb 89bb 8e3b
000000f0: 0f67 953c 6ce2 e93c 8e9b 9abc 86cd 1cbb
00000100: 9aca 45bb b77d c13c 84e5 1dbd a954 c83b
00000110: 5bc3 8cbb 80bc 273e 0671 f6bb 0127 16bd
00000120: edaa 3a3c 2fd6 a4bb 0ec8 033e 34a7 4c3d
00000130: 0cab 96bd 834b ea3d d3f4 bbbb 84ea af3b
00000140: 2ce9 ef3b 0bdf 0cba c707 efbb b660 cc3c
00000150: c6f9 8abd 7a39 36bc 32cf 2dbd 032d 0fbd
00000160: b049 833b 7a3d 97bc 8e0b bd3c 546a 9dbc
00000170: 8c22 c6bb 833f 973d 309c 34be a74f b43c
00000180: fc36 fd3c 1f68 8e3c 32d6 dd3d 28c7 173d
00000190: ebf9 43bc 299c 813d c6d4 b63d 7204 a9bc
000001a0: 147e 133d 43f6 a33c 9ce1 41bc 3a9d 213d
000001b0: bbd9 1c3d 25a5 153e 3724 f1bc 47c5 d93d
000001c0: 9eb2 c6bc 5fe5 163d 7dbf a33c 043c 3e3d
000001d0: f08e d3bc c47f 3b3c f603 b93c 668a eebc
000001e0: 85bc 4a3c 5a2b 933d 309b 22bc 7f5f 523d
000001f0: 152c b5bc a8a3 bf3c 97cf c8bc fe97 44bd
00000200: 6ec1 253d 0338 e8bd 7b71 9dbb 8280 583c
00000210: a430 2f3d 02d3 e23b 0829 533c 3f15 c73c
00000220: 0bc4 113d aa7e ff3a 3f7d 0d3d 3e7b b73c
00000230: 776a 67bb 90f4 ccbc ce58 45bc b277 db3c
00000240: dfcb 04bd 3fa4 a93c 2319 493b e377 833c
00000250: ac9d 923a 6b54 7e3d fc10 89bc 452a 143c
00000260: 5a2e 5cbc bb25 bbbc 7cbe 7c3d f841 d13d
00000270: 4506 8f3c 9248 c7bc fa2b 2f3d e46e 98bd
00000280: 81c9 0cbd 330b 793e d176 383d 5e94 00bb
00000290: 45c3 06bd 08eb a03d 94a0 94ba e725 583d
000002a0: ca4c 2c3c 0bfd f8bb e052 b7bc a174 56bd
000002b0: 6340 3d3d 4a54 b5bb 8d27 303c cc11 dbbc
000002c0: 74eb 10bc 561f 9bba 1670 84bc b2c1 243c
000002d0: e463 133c f1f5 123d 6b74 00bd 3e55 053c
000002e0: 15ad 1ebd 65a3 7fbd bea6 8dbb dd86 ba3d
000002f0: ca32 c4bc 36c4 853d 379f 47bd 3e30 a53b
00000300: f61b 133c 09e7 193c d373 debc f60f 163c
00000310: cd33 f6bc 680e 263d ce41 8d3c 4a6d 66bc
00000320: e664 24bd 68f1 b3bb 5eb4 22bd 5fb5 803d
00000330: af8c 1b3c 991f 1e3d 88a1 f6bc ad53 943b
00000340: 12af a1bd bb35 3abd a52a fb3d 65b8 813c
00000350: 2c80 9c3d dd50 153e ed18 49bd da26 8a3c
00000360: d062 4cba a716 03bc 1b3f 7dba 3ec8 993d
00000370: d42f bdbc cd31 27bc f80b ef3b 9985 383d
00000380: 2c8b 15bc 5824 803b cc44 1ebd 8060 24bc
00000390: 9683 643c 3c3c 1f3e 500c 613c 49de 64b8
000003a0: 262a 133c 4b59 58bb fef0 edbc 6ffc 593b
000003b0: 1dba afbb 4297 e5bd c053 cbba febe d93b
000003c0: 49b6 d03c 8336 093c 82b6 ac3d dd70 d0bc
000003d0: 9767 703d f037 3a3d 8957 e83c 5f40 a3bd
000003e0: c826 3d3d de3d 8a3c bd13 553b 9c7b 12bd
000003f0: 798f 263d 4071 79bc d0bf 0cbd 1dee 80b9
-0.038547207 -0.03322547 0.0086554075 0.018706424 -0.03685426 -0.011417626 0.010206618 -0.09192142
-0.026532222 0.029565169 0.008419392 0.007869702 -0.016595848 0.07650293 -0.018021196 0.013605922
-0.06143079 0.002601388 -0.037731525 -0.013049012 -0.00078553223 0.0022112657 -0.018891044 -0.2074254
0.005099067 -0.05953786 0.024162397 0.008029568 0.03761189 0.0018845808 0.008936029 -0.045798875
-0.013130509 -0.0018267068 0.07815333 0.01668763 0.008815092 -0.054804865 -0.018000051 -0.033185165
0.06584547 0.05339401 -0.020209495 0.009183849 0.021336792 -0.028283961 0.01991528 0.016481813
-0.029268248 -0.10107221 -0.03551166 -0.008082918 0.002394542 0.0072878744 0.0025262118 -0.027315754
0.012005134 0.00513385 -0.0037825168 0.004355852 0.018237619 0.02855035 -0.018873002 -0.0023926212
-0.0030180574 0.023619516 -0.03854896 0.006113608 -0.004295749 0.16380501 -0.0075207977 -0.03665829
0.011393291 -0.0050304155 0.12869284 0.049964145 -0.07356843 0.11440184 -0.0057359724 0.0053685326
0.0073214974 -0.0005373812 -0.0072946283 0.02494846 -0.06785922 -0.011122102 -0.042433925 -0.034955036
0.004006587 -0.018461931 0.023076799 -0.01921574 -0.006046599 0.07385161 -0.17637706 0.022010637
0.030910008 0.017383633 0.1083187 0.037055165 -0.011961441 0.06328613 0.08927302 -0.020632003
0.03600891 0.020014888 -0.011833575 0.039456584 0.03829358 0.14613779 -0.029436214 0.10633331
-0.024255093 0.03683984 0.01998877 0.046443954 -0.025824994 0.011444036 0.022584897 -0.029118728
0.012374048 0.07186003 -0.009924695 0.051360603 -0.022115747 0.023393467 -0.024513049 -0.047996514
0.040467672 -0.113388084 -0.0048047877 0.013214232 0.042770997 0.0069221267 0.012888201 0.024302123
0.03558735 0.0019492705 0.034543272 0.022397634 -0.003531126 -0.02501896 -0.0120450985 0.026790474
-0.03242099 0.020708201 0.0030685149 0.016048377 0.0011185906 0.062092226 -0.016731732 0.009043281
-0.013438785 -0.02284514 0.061705098 0.10217661 0.017459044 -0.024326596 0.04276655 -0.07443026
-0.034371857 0.24320678 0.045035187 -0.0019619684 -0.032901067 0.07857329 -0.001133936 0.05277052
0.010516355 -0.0075985244 -0.022378385 -0.05235732 0.046203982 -0.0055337297 0.010751617 -0.026741885
-0.008845199 -0.00118349 -0.016166728 0.010055946 0.008995984 0.03587908 -0.031361025 0.008137999
-0.038739283 -0.062411685 -0.0043228557 0.091077544 -0.02395 0.06531565 -0.048735823 0.0050411513
0.008978834 0.009393462 -0.027154839 0.009159079 -0.030053997 0.040541083 0.017243292 -0.0140641425
-0.040135287 -0.0054914244 -0.039722793 0.06284594 0.009493991 0.038604353 -0.030106321 0.0045265765
-0.0789472 -0.045461398 0.12263993 0.015834996 0.07641634 0.14581628 -0.049096037 0.016864229
-0.00077967066 -0.008001006 -0.00096605875 0.07508896 -0.023094095 -0.0102047445 0.007295128 0.045049284
-0.009127419 0.0039105825 -0.03863983 -0.010032773 0.013947388 0.15550321 0.013735846 -5.4566455e-05
0.008982217 -0.0033012207 -0.029045578 0.0033262034 -0.0053627626 -0.11210491 -0.001551263 0.0066450825
0.025477545 0.008374813 0.08433248 -0.025444442 0.05869254 0.045463502 0.028362053 -0.07971262
0.046179563 0.016875204 0.0032512986 -0.035762414 0.04066417 -0.015224755 -0.034362614 -0.0002459147

linear_relu_stack.2.bias f4 [36]
00000000: 1724 bc3c ab8a 283c 89c7 573c da22 6ebb
00000010: fd82 243d ed67 8a3b feb0 30bc fa2e dd3b
00000020: f809 0a3c aa1f 36bb 092a e03c 7570 863b
00000030: ff39 82bc b0a3 bc3b 9134 8e3b e51f d83c
00000040: 252e f23c ed35 0a3c d97e f73c 7aa5 cdbc
00000050: 9bc5 6a3c dcce e1bb 28d7 213d a89c 9bbc
00000060: 5500 31bc 788d 243b 3e86 a2bc c253 173d
00000070: f318 d73c 9c1e 86bb 74c5 ea3b 925c b6bc
00000080: b87c c23b 6e2a 4f3b e279 b8bc d16d 96bc
0.022966428 0.010286967 0.0131701315 -0.003633669 0.040163983 0.0042238147 -0.010784386 0.006749985
0.008425228 -0.002778987 0.027363794 0.0041027614 -0.015896795 0.0057568178 0.0043397625 0.026382396
0.029563019 0.0084357085 0.030211853 -0.02510332 0.014329339 -0.0068911146 0.03951183 -0.018995598
-0.010803302 0.0025108736 -0.019839402 0.036945112 0.026257014 -0.0040930044 0.0071646515 -0.022260938
0.005935278 0.0031610983 -0.022519056 -0.018362911
