models/model_potential_damping_n5.pth (torch, 51560 bytes, 4 tensors)

linear_relu_stack.0.weight f4 [256, 11]
-0.18031634 0.19570525 -0.04280365 -0.072451726 -0.20214054 -0.039980385 0.009961592 0.12904584
-0.18726769 -0.26407447 -0.12580915 0.23409912 0.14959216 0.06346109 -0.12364978 -0.15978277
-0.1972724 -0.16724782 0.04894166 0.18487448 0.15255617 0.28674203 -0.23727076 -0.056620173
0.2972386 -0.18001343 0.093831316 0.03152818 -0.16780534 -0.005813262 0.111350894 0.04069998
0.22898906 0.27203804 -0.2380474 -0.19833268 0.09442011 -0.17474689 -0.1437011 -0.24281774
0.12743016 0.11622943 -0.24193838 -0.14208804 -0.17299613 -0.01527372 0.08689761 0.17178461
0.09237322 0.059685856 -0.026158035 -0.11053224 0.22620875 -0.14487047 0.06793812 -0.24813056
0.30138552 0.16309945 0.35031903 0.10266979 -0.30434662 -0.1651212 0.008797481 0.24741183
-0.09708346 0.16386199 0.13514283 0.116047524 0.2851889 0.21732894 -0.13995862 0.16909815
-0.07052648 -0.25071907 -0.29783326 0.19080292 0.1731614 0.1895106 -0.16651843 0.16214597
-0.06253332 0.07586298 -0.02273807 0.29476675 0.1690878 -0.07737955 -0.299433 -0.00611826
0.09918889 -0.002229959 -0.28065887 -0.16410029 -0.2999893 0.23252957 -0.06880661 -0.27483183
-0.21487927 -0.13324812 -0.019918108 -0.11573096 -0.21179737 -0.03193888 -0.12876062 -0.1509994
0.19095968 -0.006254667 -0.014106822 0.24699575 -0.27735966 -0.20661853 0.29352683 -0.2665512
-0.1553289 -0.16956697 0.17601155 -0.02875424 0.26670223 -0.08451047 -0.19290525 0.028004425
0.17313963 0.032232273 -0.027682478 -0.01460609 -0.011132637 -0.056971144 0.22695129 0.07738471
0.3368389 -0.19744927 -0.20003639 -0.098224685 -0.14192425 0.21622804 0.19737431 -0.3082555
0.297756 -0.10370649 -0.058663473 -0.09752103 0.22426565 0.031395715 0.13139358 -0.12151704
-0.065553635 0.0056587122 0.08556975 0.27243292 -0.042719215 -0.05889735 -0.10362903 0.23079692
-0.21077766 0.22005366 0.094134465 0.04176691 0.26740712 0.25178012 0.20265302 -0.03459154
-0.17588584 -0.056148283 0.26326784 -0.23178004 0.056952607 0.24806114 0.002691771 -0.2945892
-0.1858408 0.2460988 0.06466418 0.013096711 0.057342783 -0.21789499 -0.24586764 0.28734085
0.07181853 -0.14571446 0.3157224 0.17171162 -0.21961401 0.08781408 0.22927517 0.18323673
0.18340352 0.23599619 -0.07758038 -0.0017067232 0.14187768 -0.049032077 0.12651712 -0.15936472
-0.14905483 -0.082701996 -0.024544548 0.1590066 -0.1467125 -0.16019571 0.18992504 0.20562962
0.23106582 -0.19813189 -0.29260445 0.14972533 -0.23578413 0.18600489 0.10771349 0.03771552
-0.09388552 0.10617596 0.23876889 0.13672824 -0.12940541 -0.11322806 -0.26600432 0.23579082
-0.18515325 -0.064953014 0.22102728 0.21992825 -0.19392334 -0.10850181 0.12264717 0.070125476
-0.103697926 -0.12293412 0.09328545 0.10309222 0.08665482 0.14867978 0.2042393 0.2512315
0.22424968 0.070544966 0.11344998 -0.20890383 0.04949558 -0.0008602104 0.03443012 0.030002762
-0.1054027 0.14555559 0.19438507 -0.121389985 0.19587582 -0.10105186 0.14306395 0.10740431
0.122048005 0.28228793 0.17058052 0.17310372 0.12009391 -0.10088602 0.00093384465 -0.28058845
00000000: d9a4 38be f566 483e e152 2fbd 9261 94bd
00000010: eefd 4ebe 79c2 23bd f235 233c 9824 043e
00000020: 1ac3 3fbe c534 87be 1dd4 00be aeb7 6f3e
00000030: b02e 193e e3f7 813d 193c fdbd 189e 23be
00000040: c701 4abe 0343 2bbe 0d77 483d bc4f 3d3e
00000050: af37 1c3e dacf 923e 1bf7 72be 8eea 67bd
00000060: a82f 983e 7155 38be a22a c03d b123 013d
00000070: 2ad5 2bbe 2d7d bebb f00b e43d 06b5 263d
00000080: 1c7c 6a3e 9248 8b3e b3c2 73be b917 4bbe
00000090: 555f c13d d9f0 32be 6226 13be 37a5 78be
000000a0: 0d7d 023e b209 ee3d b2be 77be 877f 11be
000000b0: e625 31be a03e 7abc 60f7 b13d 4ee8 2f3e
000000c0: 2c2e bd3d 2879 743d 6049 d6bc ba5e e2bd
000000d0: 44a3 673e ed58 14be 2423 8b3d f015 7ebe
000000e0: 344f 9a3e 8b03 273e 045d b33e 8a44 d23d
000000f0: 52d3 9bbe 8815 29be 4f23 103c 8759 7d3e
00000100: b1d3 c6bd 70cb 273e e262 0a3e 53aa ed3d
00000110: 4804 923e 7a8b 5e3e 5051 0fbe 1128 2d3e
00000120: 3070 90bd 405e 80be 9a7d 98be d761 433e
00000130: 3951 313e 110f 423e cf83 2abe 9809 263e
00000140: 7811 80bd 0d5e 9b3d 3045 babc abeb 963e
00000150: 5a25 2d3e 2b79 9ebd 484f 99be af7b c8bb
00000160: 8b23 cb3d 8124 12bb 85b2 8fbe e809 28be
00000170: 3398 99be 3b1c 6e3e 7bea 8cbd c2b6 8cbe
00000180: 5009 5cbe 3272 08be 4d2b a3bc 5b04 edbd
00000190: 69e1 58be 58d2 02bd d3d9 03be 969f 1abe
000001a0: ef8a 433e f3f3 ccbb 4d20 67bc 74ec 7c3e
000001b0: 1602 8ebe cf93 53be 2649 963e 6679 88be
000001c0: 8a0e 1fbe f7a2 2dbe 5f3c 343e 038e ebbc
000001d0: 328d 883e d313 adbd f488 45be 8969 e53c
000001e0: 844b 313e fd05 043d 5dc6 e2bc 624e 6fbc
000001f0: aa65 36bc 935a 69bd eb65 683e e07b 9e3d
00000200: 2676 ac3e 2430 4abe 57d6 4cbe 062a c9bd
00000210: 9754 11be e26a 5d3e 7e1c 4a3e aad3 9dbe
00000220: 7973 983e 1164 d4bd 1c49 70bd 1bb9 c7bd
00000230: e5a5 653e cb98 003d 0a8c 063e eddd f8bd
00000240: fc40 86bd b86c b93b 313f af3d 547c 8b3e
00000250: 58fa 2ebd 593e 71bd 753b d4bd 0756 6c3e
00000260: 19d6 57be bf55 613e 92c9 c03d c813 2b3d
00000270: 96e9 883e 53e9 803e 4684 4f3e dcaf 0dbd
00000280: 6b1b 34be befb 65bd 0bcb 863e bf57 6dbe
00000290: 2347 693d bd03 7e3e 6c68 303b 65d4 96be
000002a0: 0d4d 3ebe 5301 7c3e a76e 843d 9693 563c
000002b0: 44e0 6a3d dd1f 5fbe bac4 7bbe 571e 933e
000002c0: 9815 933d 2c36 15be 5ea6 a13e 2cd5 2f3e
000002d0: 7fe2 60be ded7 b33d 1cc7 6a3e 69a2 3b3e
000002e0: 22ce 3b3e fca8 713e 76e2 9ebd 21b4 dfba
000002f0: 6248 113e dcd5 48bd b48d 013e 8130 23be
00000300: d4a1 18be aa5f a9bd a611 c9bc a0d2 223e
00000310: cd3b 16be 580a 24be b67b 423e 9290 523e
00000320: 859c 6c3e 16e3 4abe 40d0 95be 9951 193e
00000330: 6571 71be 1178 3e3e e498 dc3d 977b 1a3d
00000340: 0d47 c0bd c872 d93d d57f 743e 7d02 0c3e
00000350: da82 04be 1de4 e7bd b831 88be 2673 713e
00000360: d098 3dbe 1606 85bd fa54 623e df34 613e
00000370: d793 46be 3236 debd 712e fb3d f29d 8f3d
00000380: 945f d4bd e2c4 fbbd 710c bf3d 0422 d33d
00000390: 1578 b13d 833f 183e 1b24 513e 6aa1 803e
000003a0: b5a1 653e e179 903d 7758 e83d e3ea 55be
000003b0: e1bb 4a3d be7f 61ba 9906 0d3d 5ac8 f53c
000003c0: 5fdd d7bd 860c 153e e10c 473e 509b f8bd
000003d0: ac93 483e 47f4 cebd 5b7f 123e caf6 db3d
000003e0: 4ef4 f93d 0b88 903e a9ac 2e3e 1a42 313e
000003f0: ccf3 f53d 549d cebd 41cd 743a 4aa9 8fbe

linear_relu_stack.0.bias f4 [256]
0.11363976 0.038256824 -0.2786334 -0.09856701 -0.23816523 -0.26332456 -0.08018509 -0.1317855
-0.10641926 -0.06481302 0.12630561 -0.11965308 0.108391635 0.014194374 0.25118557 0.22694984
-0.02570288 0.04231903 -0.1020142 0.07901949 0.32409656 0.19728346 0.042121705 -0.070178494
-0.10678222 0.05852467 -0.039600648 0.09071476 -0.28479233 0.31950405 0.34034786 -0.2529128
0.19485775 0.11283081 -0.22113344 -0.06411342 0.06591279 0.27945873 -0.05356961 -0.15442333
-0.21813492 -0.18000878 0.2792505 0.26191205 0.19988078 -0.112435564 -0.24551842 0.18089351
0.11610944 0.18557145 0.24357514 -0.07170374 -0.17459132 0.200503 -0.21682866 0.14829548
-0.19094881 0.09815944 0.13338415 0.17245516 0.108543 -0.047024306 0.2510066 -0.22829877
0.22708713 0.15627536 0.18523051 0.23296775 0.1703811 -0.2953878 0.077827565 0.16663961
0.12839238 -0.1837633 -0.13775116 0.09930004 0.025368508 0.21307755 -0.05943995 0.13912657
0.060076926 0.17273498 0.20937409 0.16502228 -0.034958377 -0.12957634 -0.14097752 -0.14623496
0.3067818 0.1217176 0.14271677 -0.2217532 -0.113455385 -0.11465702 -0.22095795 -0.16932887
-0.022206238 -0.15616302 0.122024834 -0.22883934 -0.16417202 0.15056582 0.15816714 0.21163613
0.080135286 0.15401214 0.009951025 0.019178573 0.108048074 -0.2477685 0.1513606 0.06752737
0.22336206 -0.27839044 -0.24149373 -0.25257128 0.23846596 -0.049151007 0.17028259 0.08800971
0.08603793 0.27282003 0.21027102 0.2528327 0.22397953 0.049419306 0.17994338 0.13607581
-0.12841651 -0.054661136 -0.004210342 0.26967186 -0.024314346 0.10179075 -0.15509239 -0.114476286
0.01588284 -0.12063451 0.22351637 0.14929779 -0.1012382 -0.15312368 0.31015283 -0.16752984
0.14579153 0.28442663 0.054536175 0.009235199 0.2549053 0.1298528 0.30890933 -0.1474953
0.2712808 -0.1892129 -0.18042514 -0.036505282 -0.17825934 -0.118751355 0.05742294 0.013453865
-0.04508522 0.07230572 -0.06443826 0.22215861 0.1553761 0.29159623 0.31763032 -0.2433408
-0.09766749 0.1065027 0.14640157 0.19948949 -0.2130347 -0.0149818 -0.26166418 0.27648872
-0.13271633 -0.22639993 0.2109474 -0.29669428 0.2642577 -0.15033951 0.12505947 0.2814105
0.09266599 0.16137205 -0.19182073 -0.13832521 0.1475576 -0.2947696 -0.0660087 -0.04885997
-0.25234774 0.09322557 0.1746146 0.15792055 0.13183461 -0.17822774 0.27741146 0.010685765
0.15415831 0.17403002 0.22945344 -0.19153547 0.27141064 0.15724902 0.23582464 0.0136431195
0.2169672 0.2014108 -0.09836109 0.19979562 -0.14208718 0.23773219 0.1341242 0.24897772
0.23073876 0.029779144 0.33543807 -0.30851635 -0.13173082 0.14085855 0.13912937 -0.11386678
-0.26092917 0.083296046 0.18930146 0.20915768 -0.09043394 -0.08414985 0.14295352 -0.0718145
-0.18780825 -0.09134915 0.061990406 0.34692025 -0.058361817 0.021816345 0.08177274 -0.19956015
-0.08936564 0.29549253 -0.18346834 -0.017938264 -0.16273338 -0.019225035 -0.1620566 0.29412803
-0.07745195 -0.21946767 0.08926383 0.28102857 -0.003005588 0.113760926 -0.14877306 -0.25361046
00000000: f6bb e83d 30b3 1c3d 09a9 8ebe 80dd c9bd
00000010: 96e1 73be 7ad2 86be 1538 a4bd c7f2 06be
00000020: 57f2 d9bd b0bc 84bd 4256 013e ad0c f5bd
00000030: 6ffc dd3d 858f 683c 659b 803e 8a65 683e
00000040: d98e d2bc b856 2d3d d2ec d0bd f8d4 a13d
00000050: fcef a53e ad04 4a3e cf87 2c3d beb9 8fbd
00000060: a3b0 dabd 90b7 6f3d 4a34 22bd a9c8 b93d
00000070: 4dd0 91be 0996 a33e 1342 ae3e c97d 81be
00000080: ca88 473e d713 e73d ce70 62be e64d 83bd
00000090: 49fd 863d 3715 8f3e cf6b 5bbd 2621 1ebe
000000a0: c35e 5fbe 3954 38be ecf9 8e3e 5619 863e
000000b0: 8cad 4c3e 9e44 e6bd 2e69 7bbe 263c 393e
000000c0: c9ca ed3d 7106 3e3e c36b 793e 69d9 92bd
000000d0: 11c8 32be a950 4d3e 5508 5ebe c5da 173e
000000e0: 1688 43be d107 c93d db95 083e 1698 303e
000000f0: cb4b de3d 8f9c 40bd f083 803e 27c7 69be
00000100: 8789 683e a606 203e 11ad 3d3e 198f 6e3e
00000110: 6278 2e3e 123d 97be 0f64 9f3d 93a3 2a3e
00000120: 4b79 033e 722c 3cbe a40e 0dbe d25d cb3d
00000130: 9ed1 cf3c 0031 5a3e 4e77 73bd 3277 0e3e
00000140: 3913 763d 70e1 303e 2966 563e 9afb 283e
00000150: 8430 0fbd a9af 04be 695c 10be 9ebe 15be
00000160: 8112 9d3e 1447 f93d 5824 123e 4513 63be
00000170: 4c5b e8bd 4dd1 eabd cd42 62be 8c64 2dbe
00000180: dbe9 b5bc 33e9 1fbe 28e8 f93d dc54 6abe
00000190: b61c 28be ed2d 1a3e 91f6 213e 24b7 583e
000001a0: f81d a43d 5cb5 1d3e a009 233c 621c 9d3c
000001b0: 4f48 dd3d 07b7 7dbe 46fe 1a3e ca4b 8a3d
000001c0: 06b9 643e 3189 8ebe 224a 77be 0651 81be
000001d0: 6c30 743e 9152 49bd 8f5e 2e3e 6f3e b43d
000001e0: a734 b03d 11af 8b3e 4951 573e 4a73 813e
000001f0: e45a 653e e66b 4a3d 1443 383e 7557 0b3e
00000200: 9e7f 03be 5be4 5fbd e9f6 89bb 6e12 8a3e
00000210: e12e c7bc ab77 d03d 8ad0 1ebe 8b72 eabd
00000220: bb1c 823c 3a0f f7bd 7ae1 643e 85e1 183e
00000230: f955 cfbd 74cc 1cbe 5acc 9e3e f18c 2bbe
00000240: 604a 153e 5ea0 913e 5361 5f3d 3b4f 173c
00000250: f382 823e 22f8 043e 5d29 9e3e 0209 17be
00000260: 51e5 8a3e 07c1 41be 5ec1 38be 9086 15bd
00000270: 9e89 36be e933 f3bd 5134 6b3d 9a6d 5c3c
00000280: 48ab 38bd 0515 943d 35f8 83bd 8c7d 633e
00000290: ea1a 1f3e 1a4c 953e 71a0 a23e 552e 79be
000002a0: e505 c8bd 161e da3d 4bea 153e f946 4c3e
000002b0: c525 5abe 3976 75bc d9f8 85be ee8f 8d3e
000002c0: cae6 07be 62d5 67be 9802 583e 50e8 97be
000002d0: c94c 873e 9af2 19be 970f 003e 0915 903e
000002e0: abc7 bd3d b73e 253e a76c 44be 20a5 0dbe
000002f0: 5719 173e 0aec 96be 922f 87bd 6421 48bd
00000300: b933 81be 0ced be3d 2bce 323e edb5 213e
00000310: a7ff 063e 5581 36be e008 8e3e 5913 2f3c
00000320: addb 1d3e ed34 323e d8f5 6a3e e021 44be
00000330: 56f6 8a3e e305 213e 047c 713e 6487 5f3c
00000340: a62c 5e3e a23e 4e3e 8a71 c9bd 3997 4c3e
00000350: 4d7f 11be 1170 733e db57 093e 04f4 7e3e
00000360: c846 6c3e 64f3 f33c 8abe ab3e dbf5 9dbe
00000370: 72e4 06be 393d 103e ee77 0e3e fd32 e9bd
00000380: 8298 85be 1e97 aa3d 3ed8 413e 6e2d 563e
00000390: 6e35 b9bd c256 acbd 6862 123e 7b13 93bd
000003a0: ce50 40be 4315 bbbd a7e9 7d3d 889f b13e
000003b0: cd0c 6fbd 31b8 b23c 7778 a73d 7f59 4cbe
000003c0: 5505 b7bd cc4a 973e 20df 3bbe 44f3 92bc
000003d0: 94a3 26be d27d 9dbc 2af2 25be f397 963e
000003e0: 219f 9ebd 22bc 60be f4cf b63d fae2 8f3e
000003f0: 66f9 44bb 7dfb e83d f757 18be 3bd9 81be

linear_relu_stack.2.weight f4 [36, 256]
0.07129538 -0.018193575 -0.0407547 -0.018668085 0.04759801 0.022350153 0.024666268 -0.034307554
0.072564684 -0.045795247 -0.045561124 -0.061281204 0.03821201 0.011218367 0.039116763 0.015240112
0.010869176 0.05054497 0.009421502 -0.057920728 0.033045758 0.026824603 -0.0053060683 0.0136009455
-0.0007925099 0.07123667 0.05681775 0.05146416 0.06104581 -0.0087424675 -0.0030915837 0.08672917
0.067792095 -0.051710177 -0.04766244 -0.0764865 0.016435964 0.034362085 -0.01088475 -0.052912723
0.044376604 -0.02428791 -0.010748587 0.016468013 -0.0016947909 -0.036230087 0.100929 0.091457635
0.015054998 -0.02937823 0.0125760585 -0.060822234 -0.019937027 0.05865415 -0.018407127 -0.04740222
0.046077587 -0.011637023 -0.022713196 -0.021575455 -0.056532353 0.052956652 -0.04753653 0.023841975
0.042280223 0.05350518 0.00536705 0.03014018 0.011883567 0.058196872 0.025522301 -0.043346
0.02287012 0.010751119 0.05005197 -0.0146728605 0.0031966807 0.036957093 0.011139781 0.08749006
0.020909123 -0.008418356 0.034984425 0.053455442 0.050441273 0.04771094 -0.006823855 0.028382333
0.0049510053 -0.032704562 0.04188386 0.023900408 -0.0724215 -0.07078986 -0.022664543 -0.0066496483
-0.008479743 -0.09847549 -0.02546448 -0.038113102 0.0007430077 0.046924986 -0.01719047 0.038107906
0.056031544 0.051957294 -0.025265984 0.058177907 0.04483007 0.004077436 0.04722653 0.041545637
0.0057465755 -0.030738898 -0.08215031 0.04993618 0.010207075 0.03395587 -0.049376138 -0.01301716
-0.064723715 0.078004755 0.03592294 0.024812264 -0.022768108 0.027305199 0.03233359 -0.051340085
0.0065055457 -0.039875362 -0.053352036 0.04600401 0.012548303 0.049603727 0.0100695165 0.09170952
-0.0031677487 0.016200185 0.04996375 0.03241113 0.031493872 -0.06647467 -0.0038146921 0.009075794
-0.046390597 0.047315795 -0.059001397 -0.07319765 0.0040756953 0.006987431 -0.013167744 0.00254042
-0.025446609 0.03543158 -0.05785521 0.08157381 0.086708464 0.027356915 0.028320692 0.023057172
-0.063049875 0.028230006 0.055184036 0.06429181 -0.017248677 0.04928537 0.0053179497 0.03009212
-0.032122854 -0.0009550788 0.056266442 0.042746764 -0.020089919 -0.054432973 0.024742046 0.041296653
-0.05387928 -0.016644454 0.021259975 0.037381038 0.03380441 -0.053080976 0.07737141 -0.0067465925
0.0046072225 0.07365576 0.051244214 -0.0074462723 0.03490436 0.024935573 -0.040272925 -0.021562645
-0.00015679337 -0.009444823 0.04532033 0.07192218 0.03786891 -0.07245014 0.021984557 -0.026852017
0.051802028 0.09105481 -0.014189497 -0.05198744 -0.01275908 0.028103411 -0.03436378 -0.034579873
-0.020872934 0.04297387 0.031688556 -0.024198221 0.041459147 -0.0028577202 0.0081507 0.059711732
-0.028257836 0.034624066 0.06069872 -0.03393212 -0.06349829 0.056624487 -0.013581678 -0.028865395
0.045346446 -0.03244007 -0.008491695 0.020477712 -0.007456858 0.005856761 0.00023837485 -0.044086706
-0.01810275 0.06999128 0.056024205 0.019645447 0.031089373 0.053328585 -0.00736712 0.03254801
0.038069535 -0.006331498 0.003823807 -0.056007706 -0.05703696 -0.009707526 -0.046391465 0.011514474
0.00047479424 -0.0031039491 0.026459018 -0.043696303 0.028632563 0.071361884 0.062195234 0.03215798
00000000: 5003 923d b10a 95bc 66ee 26bd d0ed 98bc
00000010: 22f6 423d ab17 b73c ea10 ca3c 1486 0cbd
00000020: cb9c 943d cc93 3bbd 4d9e 3abd 0002 7bbd
00000030: 3284 1c3d 3ecd 373c e638 203d aab1 793c
00000040: a114 323c 3e08 4f3d a55c 1a3c 493e 6dbd
00000050: fd5a 073d 45bf db3c 87de adbb 80d6 5e3c
00000060: 70c0 4fba 88e4 913d bbb9 683d 15cc 523d
00000070: 2c0b 7a3d 913c 0fbc 2b9c 4abb 109f b13d
00000080: 95d6 8a3d 0dce 53bd b139 43bd f4a4 9cbd
00000090: b7a4 863c 42bf 0c3d f355 32bc 03bb 58bd
000000a0: 3ec4 353d 70f7 c6bc d71a 30bc ede7 863c
000000b0: bf23 deba 0066 14bd ddb3 ce3d 244e bb3d
000000c0: 3da9 763c 9daa f0bc d00b 4e3c bc20 79bd
000000d0: fa52 a3bc 563f 703d 8bca 96bc d528 42bd
000000e0: dabb 3c3d 36a9 3ebc 0611 babc 02bf b0bc
000000f0: 788e 67bd 13e9 583d aab5 42bd 3f50 c33c
00000100: 072e 2d3d 3f28 5b3d 14de af3b 8ae8 f63c
00000110: 4bb3 423c d85f 6e3d 2514 d13c 938b 31bd
00000120: 1e5a bb3c 7625 303c 4b03 4d3d 7066 70bc
00000130: 677f 513b 5260 173d a183 363c fd2d b33d
00000140: 9c49 ab3c 25ed 09bc d44b 0f3d 18f4 5a3d
00000150: 829b 4e3d 8c6c 433d a59a dfbb 1182 e83c
00000160: 0b3c a23b 38f5 05bd 698e 2b3d caca c33c
00000170: b951 94bd 46fa 90bd feaa b9bc 4be5 d9bb
00000180: 9fee 0abc 85ad c9bd e39a d0bc 7c1c 1cbd
00000190: 67c6 423a 6a34 403d 07d3 8cbc 0917 1c3d
000001a0: 5581 653d 2cd1 543d 9cfa cebc f54b 6e3d
000001b0: bc9f 373d 039c 853b 9b70 413d c22b 2a3d
000001c0: c54d bc3b 24d0 fbbc 6c3e a8bd e189 4c3d
000001d0: 933b 273c 4f15 0b3d a23e 4abd ed45 55bc
000001e0: de8d 84bd f5c0 9f3d ef23 133d 1743 cb3c
000001f0: 2f84 babc 27af df3c 3a70 043d fb49 52bd
00000200: 792c d53b 5954 23bd aa87 5abd b36e 3c3d
00000210: 6697 4d3c 472d 4b3d 9dfa 243c 33d2 bb3d
00000220: 019a 4fbb 40b6 843c caa6 4c3d 88c1 043d
00000230: b8ff 003d df23 88bd eaff 79bb a4b2 143c
00000240: 1104 3ebd 35ce 413d 73ab 71bd a6e8 95bd
00000250: 698d 853b d2f6 e43b 85bd 57bc 2d7d 263b
00000260: 6875 d0bc b420 113d 96f9 6cbd 2b10 a73d
00000270: 3594 b13d 9c1b e03c cc00 e83c 65e2 bc3c
00000280: 4b20 81bd 9d42 e73c a808 623d 6dab 833d
00000290: 194d 8dbc 75df 493d 3242 ae3b c083 f63c
000002a0: 4193 03bd 415e 7aba a477 663d 3b17 2f3d
000002b0: 9d93 a4bc 1cf5 5ebd d5af ca3c ae26 293d
000002c0: 85b0 5cbd f359 88bc 6629 ae3c dc1c 193d
000002d0: 7e76 0a3d 706b 59bd e774 9e3d 8512 ddbb
000002e0: 2ff8 963b d5d8 963d 74e5 513d dcff f3bb
000002f0: e0f7 0e3d b045 cc3c 39f5 24bd 25a4 b0bc
00000300: e668 24b9 75be 1abc cfa1 393d f04b 933d
00000310: 6e1c 1b3d bd60 94bd f518 b43c c3f8 dbbc
00000320: 5d2e 543d f27a ba3d 107b 68bc c8f0 54bd
00000330: 760b 51bc 2039 e63c 09c1 0cbd a0a3 0dbd
00000340: b7fd aabc 5e05 303d dccb 013d 593b c6bc
00000350: 11d1 293d 9748 3bbb 838a 053c 4a94 743d
00000360: fa7c e7bc f7d1 0d3d 399f 783d 68fc 0abd
00000370: 640b 82bd 14ef 673d b085 5ebc 1f77 ecbc
00000380: 32bd 393d e1df 04bd c020 0bbc e0c0 a73c
00000390: a958 f4bb 12ea bf3b 43f4 7939 4394 34bd
000003a0: 384c 94bc 9757 8f3d a379 653d 7def a03c
000003b0: 24af fe3c 136f 5a3d e267 f1bb 1051 053d
000003c0: cdee 1b3d 7478 cfbb d698 7a3b 5668 65bd
000003d0: 969f 69bd 510c 1fbc fa04 3ebd 34a7 3c3c
000003e0: ceed f839 a06b 4bbb 95c0 d83c e5fa 32bd
000003f0: d68e ea3c 2e26 923d 6ec0 7e3d 16b8 033d

linear_relu_stack.2.bias f4 [36]
0.054577783 0.023124274 0.06019799 0.020976154 0.09235492 -0.031066919 -0.028452596 0.0031748381
0.079460464 0.009327412 -0.012387841 0.03355136 0.014760864 0.08948202 0.0025806553 -0.009487099
0.08677714 0.07628158 0.03369038 -0.012339223 -0.0007026202 0.10652755 0.007128656 0.08249749
0.07359474 -0.039618958 0.06045612 0.029862396 0.08453742 0.014389655 0.0016023718 -0.00076949067
-0.0210317 -0.022324016 -0.0055945874 0.025490329
00000000: f48c 5f3d 1e6f bd3c 2b92 763d 2fd6 ab3c
00000010: 9424 bd3d 0d80 febc 6b15 e9bc f210 503b
00000020: 2bbc a23d 00d2 183c 5ff6 4abc 276d 093d
00000030: 8dd7 713c 5942 b73d 3620 293b c76f 1bbc
00000040: 37b8 b13d 8439 9c3d edfe 093d 742a 4abc
00000050: 0b30 38ba 1e2b da3d 8097 e93b 72f4 a83d
00000060: d7b8 963d 7d47 22bd d6a0 773d fca1 f43c
00000070: f421 ad3d 96c2 6b3c ad06 d23a a5b7 49ba
00000080: ac4a acbc dbe0 b6bc cd52 b7bb 18d1 d03c
