models/model_added_mass_0_wave_frequency_n3.pth (torch, 182632 bytes, 4 tensors)

linear_relu_stack.0.weight f4 [1024, 7]
0.41804215 -0.33134037 -0.13607895 0.38195488 -0.123621285 -0.083878115 -0.0069077695 -0.31705427
-0.38498616 -0.18047795 -0.072731666 0.23643827 -0.05864738 0.23955536 0.06735943 -0.32798603
0.48307034 0.24473377 0.25872603 -0.45351526 0.1331511 -0.25808734 0.067537196 0.37028775
0.21164574 0.37164447 0.029169973 0.27547708 -0.044909745 -0.37169725 0.0028678214 0.30495098
0.12282293 0.2289474 0.2875462 0.33277884 0.07191861 -0.008238041 -0.14764561 0.046700694
0.24212539 -0.2840936 -0.0025657695 0.18257864 0.2832031 -0.30189657 -0.24087945 0.2747399
-0.117688976 -0.23150837 -0.04967499 0.16777106 -0.38660118 0.26016107 -0.27209097 -0.025966067
-0.20274998 0.27343482 -0.30770034 0.14923981 0.3922912 -0.26273465 0.13328205 -0.22579648
0.15642226 0.3605533 -0.30711228 -0.29899892 0.11363046 -0.27804804 0.09498384 0.26250845
-0.1406223 -0.04102914 -0.13490514 0.19313765 0.36663318 -0.02404048 -0.41546664 0.15220273
0.36668575 -0.20063663 -0.27529857 0.22624311 -0.36388662 -0.06056975 0.10682221 -0.19644573
-0.41360664 0.00048371515 -0.062701434 -0.006964478 0.2782045 0.08210075 -0.0669891 0.04852245
0.31141472 -0.08995545 0.4179994 0.2627227 -0.31405726 0.009115854 -0.32163355 0.04964898
0.08400914 0.13261874 -0.06343908 -0.060067035 0.03891122 -0.016909363 0.33490014 0.27649063
-0.2554476 -0.28504154 -0.32821476 -0.22759347 0.31232974 0.4106812 -0.18596175 -0.3254482
0.27094778 0.12938072 -0.16711223 -0.05831602 -0.27949673 -0.15695833 -0.16846924 0.14459108
-0.35669363 0.33530995 0.039602865 0.06213388 0.20208092 -0.03996896 -0.034507457 -0.30949885
-0.4255878 0.35372356 0.22235024 -0.091703296 -0.06221901 -0.097868495 -0.29688066 0.21759231
-0.049590692 0.17390905 -0.13012058 -0.15534952 0.4036686 -0.2638331 -0.0063175266 -0.17680354
-0.3335492 -0.18557732 -0.09799267 -0.3650659 0.31341642 0.07232867 0.23803018 0.14235537
0.26715818 -0.31898522 -0.028740736 -0.34141275 -0.21633202 0.066487655 0.1687939 0.37415773
0.09283852 0.1828909 -0.031305276 0.35756874 0.09530196 -0.39517888 0.32229465 -0.40238065
0.40140268 0.30702463 -0.34247395 0.2542331 -0.18777278 -0.026757017 -0.00040300508 0.13659716
0.30918795 0.0003100395 -0.3445356 0.26163244 -0.16525523 -0.10442822 0.22281419 0.02650199
0.20983505 -0.064611085 -0.10975927 -0.079559326 -0.10045937 -0.097547345 -0.12285913 0.14092603
-0.09041499 -0.11786228 0.33960897 -0.15434994 -0.19997394 0.0074426457 0.08278942 0.2526629
0.2606613 -0.31042492 -0.07525016 -0.3241141 0.32036605 -0.049257528 0.1985943 -0.15003471
0.07149737 -0.04534204 0.19053097 0.27403584 -0.04220635 -0.11912457 -0.3111662 -0.21972395
-0.044345256 0.20735087 -0.13721173 -0.15865125 -0.029099856 0.17790243 0.35972023 0.2300472
-0.22132108 0.24230242 0.11090719 0.06745656 0.35822323 -0.19220388 0.14950657 -0.095426604
0.15433939 -0.22991171 -0.32131004 0.36265188 -0.16473773 -0.22327687 0.045224316 0.06754973
0.046035364 -0.28491288 0.018747179 0.2452721 0.17310975 -0.19392133 -0.35937276 0.21975037
00000000: 9f09 d63e 72a5 a9be 4858 0bbe 978f c33e
00000010: 282d fdbd 4ac8 abbd 925a e2bb f054 a2be
00000020: e81c c5be 36cf 38be 57f4 94bd e01c 723e
00000030: 3c38 70bd 004e 753e bef3 893d c9ed a7be
00000040: ff54 f73e 7d9b 7a3e bd77 843e 2733 e8be
00000050: c358 083e 0624 84be f150 8a3d 5b96 bd3e
00000060: a9b9 583e 2f48 be3e def5 ee3c 550b 8d3e
00000070: 48f3 37bd 1a4f bebe 0ff2 3b3b 8922 9c3e
00000080: 978a fb3d 3071 6a3e 4139 933e fd61 aa3e
00000090: 104a 933d d9f8 06bc 6930 17be 3a49 3f3d
000000a0: b8ef 773e b774 91be 7826 28bb e5f5 3a3e
000000b0: ffff 903e 3092 9abe 1aa9 76be b5aa 8c3e
000000c0: eb06 f1bd 8810 6dbe 0178 4bbd 2dcc 2b3e
000000d0: 97f0 c5be d533 853e 824f 8bbe cab6 d4bc
000000e0: b19d 4fbe a6ff 8b3e e68a 9dbe 52d2 183e
000000f0: 64da c83e 2885 86be 177b 083e 3137 67be
00000100: 282d 203e 719a b83e d23d 9dbe 6316 99be
00000110: 16b7 e83d 505c 8ebe e386 c23d 8267 863e
00000120: 4bff 0fbe 2c0e 28bd 9324 0abe e0c5 453e
00000130: 58b7 bb3e 8af0 c4bc 0bb8 d4be 08db 1b3e
00000140: 3cbe bb3e b073 4dbe eff3 8cbe 46ac 673e
00000150: 594f babe fc17 78bd 9ac5 da3d 1229 49be
00000160: 40c4 d3be 269b fd39 9c69 80bd 4736 e4bb
00000170: d270 8e3e 7024 a83d 9531 89bd 7abf 463d
00000180: c071 9f3e 903a b8bd 0404 d63e 9783 863e
00000190: 1dcc a0be aa5a 153c 27ad a4be bb5c 4b3d
000001a0: fc0c ac3d 35cd 073e 59ec 81bd da08 76bd
000001b0: 5f61 1f3d 8185 8abc 0878 ab3e 2e90 8d3e
000001c0: 07ca 82be f7f0 91be c40b a8be 430e 69be
000001d0: afe9 9f3e ce44 d23e c26c 3ebe 25a1 a6be
000001e0: abb9 8a3e 617c 043e 781f 2bbe c7dc 6ebd
000001f0: 321a 8fbe afb9 20be 3383 2cbe af0f 143e
00000200: 8ca0 b6be bfad ab3e 9d36 223d 1880 7e3d
00000210: 4dee 4e3e 7eb6 23bd b157 0dbd a276 9ebe
00000220: a5e6 d9be 411b b53e c8af 633e f0ce bbbd
00000230: 5cd9 7ebd 476f c8bd be00 98be 85d0 5e3e
00000240: 9c1f 4bbd 3715 323e 543e 05be f213 1fbe
00000250: a7ad ce3e 2215 87be 4103 cfbb fd0b 35be
00000260: f6c6 aabe fb07 3ebe 62b0 c8bd ebe9 babe
00000270: 1e78 a03e 0e21 943d 2fbe 733e 9bc5 113e
00000280: f5c8 883e 0852 a3be b171 ebbc a7cd aebe
00000290: 2486 5dbe ae2a 883d 4fd8 2c3e 9a91 bf3e
000002a0: 1f22 be3d c147 3b3e f639 00bd 4013 b73e
000002b0: ad2d c33d e354 cabe ce03 a53e d604 cebe
000002c0: a784 cd3e 5532 9d3e bf58 afbe d72a 823e
000002d0: 8247 40be 8831 dbbc 6d4a d3b9 20e0 0b3e
000002e0: e24d 9e3e cc8c a239 f866 b0be b0f4 853e
000002f0: ab38 29be 76de d5bd 6729 643e b41a d93c
00000300: 00df 563e d152 84bd 78c9 e0bd 00f0 a2bd
00000310: a4bd cdbd e7c6 c7bd 919d fbbd ea4e 103e
00000320: 7f2b b9bd c761 f1bd 3ae1 ad3e e90d 1ebe
00000330: f8c5 4cbe 70e1 f33b 808d a93d 085d 813e
00000340: 6675 853e 04f0 9ebe c21c 9abd 49f2 a5be
00000350: 0507 a43e 43c2 49bd 4e5c 4b3e b3a2 19be
00000360: 376d 923d 93b8 39bd 8d1a 433e 6d4e 8c3e
00000370: 91e0 2cbd 95f7 f3bd 2d51 9fbe 51ff 60be
00000380: 5fa3 35bd c953 543e 3b81 0cbe 7975 22be
00000390: d262 eebc 0e2c 363e 402d b83e 7e91 6b3e
000003a0: fea1 62be 201e 783e 4f23 e33d aa26 8a3d
000003b0: 0969 b73e 18d1 44be 4018 193e 066f c3bd
000003c0: 250b 1e3e fa6d 6bbe c082 a4be 82ad b93e
000003d0: 02b1 28be b1a2 64be 223d 393d 8357 8a3d
000003e0: 948f 3c3d 1ae0 91be af93 993c 9c28 7b3e
000003f0: af43 313e 5093 46be b5ff b7be 3e06 613e

linear_relu_stack.0.bias f4 [1024]
0.0030302692 0.1366739 -0.03763989 -0.37581748 -0.045888413 0.2368662 0.23909295 0.31506985
-0.30969045 0.21217781 0.23776647 0.07563125 -0.011137378 0.17491259 0.020994723 0.11913799
0.060943946 0.001891334 0.2559892 0.083139084 0.28671846 0.2631729 0.359046 0.19169271
-0.26487672 -0.13420385 -0.003831819 0.3554309 -0.10320263 0.32132533 -0.3424262 -0.25729403
0.019343428 -0.21933503 0.017588021 -0.07293075 0.07826516 -0.24444233 -0.14745711 -0.13870654
-0.010430704 -0.31997013 -0.060986478 0.20930055 0.08597501 -0.119669 -0.2311752 0.31216407
0.014576447 0.018136393 -0.2342517 0.08539609 -0.28078288 -0.2257382 -0.29526207 0.32256582
-0.36070994 -0.111941226 0.14828727 0.17696826 -0.23392683 0.3124708 -0.033707008 0.08595247
0.227365 0.14712048 0.2147901 -0.010621993 -0.121895805 0.11226542 0.12021788 0.068685874
0.032918442 0.37669635 0.30354807 0.065986045 -0.26644883 -0.24008396 0.2257431 -0.018333018
0.09666854 0.3589179 -0.020234566 0.2331559 -0.009212395 0.18275793 -0.15481968 0.27451006
0.22900923 0.037095957 0.14904913 -0.070339255 -0.362112 0.2169656 0.20235425 0.17690703
0.3703224 0.3268497 -0.19567646 0.00029562958 -0.17615885 0.27354622 0.3640501 -0.19202405
0.29226866 -0.29894665 -0.3501143 0.1217745 0.27185503 -0.2369955 -0.16894092 0.09639007
0.17199948 0.07095129 -0.090165034 0.16171782 -0.29130176 -0.19915098 -0.017115533 -0.31374386
-0.30687484 0.1217125 -0.3616351 -0.24419849 0.18793511 0.063833185 0.33049688 -0.19299826
-0.20124424 0.24407257 -0.1283238 -0.30332637 -0.2720807 0.27574795 0.20830564 -0.2854199
-0.009498495 0.25038385 0.25448424 0.09980023 0.30369982 0.22430848 0.3511435 -0.05080056
0.3378531 -0.36775053 -0.22794528 -0.19515656 0.36706996 -0.35428405 0.1679255 0.05402011
-0.28202313 0.16951472 -0.365251 0.38462797 -0.24671222 0.021209927 -0.2718525 0.06032366
-0.3623434 0.04418047 0.3358074 0.046011247 0.13483275 -0.21232222 0.30345067 -0.043052915
-0.342817 0.29519594 -0.20412943 0.2958065 -0.012530635 -0.18949196 0.24729449 0.29068485
0.2322993 0.27738547 -0.35969076 -0.33790475 -0.33518448 -0.29553312 -0.023629563 -0.28789863
-0.18682852 0.28696686 -0.30016565 -0.060157154 -0.38424867 -0.26217815 0.3090114 0.12929182
0.21163444 0.2797829 0.19043408 0.17079042 0.304817 0.098115556 0.21532115 -0.01890847
-0.15636653 -0.2113482 -0.36010587 -0.34863263 0.11740549 -0.14226331 -0.1541289 -0.37718877
-0.3057587 -0.22880222 0.106248625 0.13970132 0.01885576 0.13026983 0.35349533 0.09497858
-0.28143767 -0.017604891 0.04592574 0.11812707 0.14110257 0.14750245 -0.21968144 0.3347704
0.1818825 0.24896549 -0.24833332 -0.32844532 -0.0057393475 -0.05033462 0.19509383 0.09004243
0.33271936 -0.068625145 -0.20454416 -0.009132422 -0.15222134 -0.05059288 0.29356012 -0.28585827
0.011113238 0.11553953 0.10998001 -0.2773262 0.31164157 0.07099831 -0.36397555 -0.03639921
-0.18831189 -0.020224644 0.001947953 -0.302037 0.1859838 -0.0069618165 0.011495896 0.34051508
00000000: 7b97 463b 3ef4 0b3e 492c 1abd 266b c0be
00000010: 7df5 3bbd 0e8d 723e c8d4 743e d650 a13e
00000020: bf8f 9ebe 2445 593e 0e79 733e 8fe4 9a3d
00000030: 8d79 36bc 491c 333e 20fd ab3c 9efe f33d
00000040: 5ca0 793d a3e6 f73a 0411 833e d344 aa3d
00000050: c3cc 923e 99be 863e e1d4 b73e 184b 443e
00000060: ec9d 87be bc6c 09be 411f 7bbb 0afb b53e
00000070: e75b d3bd c184 a43e 7d52 afbe 0bbc 83be
00000080: 1c76 9e3c 5d99 60be c114 903c b85c 95bd
00000090: 7c49 a03d 174f 7abe fffe 16be 1609 0ebe
000000a0: 8be5 2abc 20d3 a3be f5cc 79bd e252 563e
000000b0: ab13 b03d 0515 f5bd 31b9 6cbe f8d3 9f3e
000000c0: 0dd2 6e3c c692 943c addf 6fbe 25e4 ae3d
000000d0: c6c2 8fbe ea27 67be 972c 97be 5927 a53e
000000e0: f9ae b8be 7141 e5bd 9ed8 173e 2b37 353e
000000f0: 848a 6fbe 2cfc 9f3e 5c10 0abd d907 b03d
00000100: 5fd2 683e c0a6 163e f0f1 5b3e de07 2ebc
00000110: 82a4 f9bd 6aeb e53d cb34 f63d 2eab 8c3d
00000120: 7dd5 063d 58de c03e a76a 9b3e b123 873d
00000130: fb6b 88be 92d8 75be 3329 673e 202f 96bc
00000140: 28fa c53d 16c4 b73e f6c2 a5bc 6cc0 6e3e
00000150: 96ef 16bc e524 3b3e 0d89 1ebe 958c 8c3e
00000160: 6581 6a3e eef1 173d 56a0 183e 070e 90bd
00000170: be66 b9be 3b2c 5e3e f435 4f3e 1e27 353e
00000180: e69a bd3e d858 a73e 695f 48be bbfe 9a39
00000190: fc62 34be 400e 8c3e c664 ba3e f4a1 44be
000001a0: 3da4 953e 890f 99be 2e42 b3be e964 f93d
000001b0: 9530 8b3e f3ae 72be d9fe 2cbe 2868 c53d
000001c0: a220 303e e94e 913d 72a8 b8bd 5b99 253e
000001d0: 8125 95be 3cee 4bbe e035 8cbc 09a3 a0be
000001e0: b31e 9dbe 6744 f93d 3c28 b9be 2b0f 7abe
000001f0: 1072 403e f9ba 823d e336 a93e 56a1 45be
00000200: f812 4ebe 29ee 793e 5067 03be 984d 9bbe
00000210: 294e 8bbe d62e 8d3e 134e 553e 8f22 92be
00000220: 939f 1bbc 5032 803e c24b 823e 1064 cc3d
00000230: 8b7e 9b3e 1fb1 653e 15c9 b33e 3f14 50bd
00000240: 15fb ac3e cc49 bcbe 7d6a 69be 1fd7 47be
00000250: 98f0 bb3e b864 b5be aaf4 2b3e 3144 5d3d
00000260: 5665 90be 4495 2d3e 2e02 bbbe f5ed c43e
00000270: 21a2 7cbe 71c0 ad3c 4030 8bbe f115 773d
00000280: 1385 b9be 95f6 343d f3ee ab3e 4a76 3c3d
00000290: 9911 0a3e ff6a 59be e35d 9b3e 4158 30bd
000002a0: b685 afbe ec23 973e 4e07 51be f373 973e
000002b0: 4b4d 4dbc 2e0a 42be c43a 7d3e a5d4 943e
000002c0: dedf 6d3e 7805 8e3e 6329 b8be da01 adbe
000002d0: 4d9d abbe 1e50 97be c992 c1bc 7367 93be
000002e0: fa4f 3fbe 52ed 923e 50af 99be 5967 76bd
000002f0: 3ebc c4be 373c 86be be36 9e3e 1365 043e
00000300: b3b6 583e b43f 8f3e 2701 433e afe3 2e3e
00000310: f910 9c3e cff0 c83d 267d 5c3e f0e5 9abc
00000320: 8c1e 20be aa6b 58be cc5f b8be fa7f b2be
00000330: 4a72 f03d 79ad 11be f7d3 1dbe e31e c1be
00000340: 688c 9cbe 214b 6abe e198 d93d dd0d 0f3e
00000350: 6577 9a3c 7465 053e 57fd b43e 2184 c23d
00000360: 9918 90be 2238 90bc a11c 3c3d 9bec f13d
00000370: 317d 103e e20a 173e 2cf4 60be 0767 ab3e
00000380: 683f 3a3e cff0 7e3e 174b 7ebe fc29 a8be
00000390: 2311 bcbb ad2b 4ebd adc6 473e 2a68 b83d
000003a0: 315a aa3e 578b 8cbd 0674 51be 27a0 15bc
000003b0: e9df 1bbe 7b3a 4fbd 834d 963e 045c 92be
000003c0: 4c14 363c fd9f ec3d 333d e13d b3fd 8dbe
000003d0: 7c8f 9f3e 9067 913d 015b babe 5717 15bd
000003e0: d5d4 40be 27ae a5bc 7552 ff3a 98a4 9abe
000003f0: 8a72 3e3e f31f e4bb 4859 3c3c fe57 ae3e

linear_relu_stack.2.weight f4 [36, 1024]
0.053149756 0.032853667 -0.045349643 -0.013196365 -0.030658841 -0.059100747 0.016882993 -0.0069989967
0.033474978 -0.023961889 0.025611123 -0.025866745 0.03250611 -0.01967844 -0.011736746 -0.022192098
-0.025519995 -0.038529627 -0.021273125 -0.0054760124 0.028962988 0.027398994 -0.009419958 -0.004761336
0.035337836 -0.008800937 0.10480664 0.0017460603 0.0010795281 -0.003867924 0.024756018 0.02612963
0.020218037 0.017086625 0.009236953 0.06263362 -0.021364572 -0.025352784 -0.06273738 -0.1380958
0.1541799 0.01483015 0.011495531 0.0022457975 0.059765734 -0.15555264 -0.06365137 0.02278601
-0.0032601925 -0.046733633 0.009326223 -0.024889058 0.0057161306 -0.037438832 0.01953293 -0.016405711
-0.024752017 -0.04892846 0.032489445 -0.020168036 0.028395545 0.010863574 0.074959576 0.0041858354
-0.051960118 -0.00452961 0.028105266 0.02499717 0.027532188 -0.026036587 -0.0077427444 -0.038149785
0.04468407 -0.0258492 -0.024175536 -0.031417776 -0.02400624 -0.027868237 0.008680816 -0.006664342
0.008175078 0.020370401 -0.08220441 -0.030054832 -0.06868849 -0.0064740945 -0.003276655 -0.0042473464
-0.009248208 -0.08512213 0.0036141046 -0.024553653 -0.0017438742 -0.014122633 0.015972765 -0.018044993
-0.034374785 0.023200907 -0.01914086 -0.036893133 -0.026977142 -0.028916491 0.022134138 0.04541956
0.009637429 -0.0068537965 -0.046461638 0.028655387 -0.026201582 0.016964896 0.02996544 -0.02697853
0.021746228 -0.012055506 0.058417216 0.008065592 -0.025168825 0.0037774346 0.15429442 0.18850121
0.026392376 0.08297932 -0.016322333 -0.077531114 0.052851927 -0.029369136 -0.032194443 0.083839916
-0.01334874 -0.0029279015 -0.0084715625 -0.09143018 0.058283057 0.008020479 0.019718023 0.023834525
-0.02951841 -0.0003687122 -0.001358549 0.10227815 0.0020244638 0.01768226 0.04903502 0.056206424
-0.024703197 0.0018188097 0.043167092 0.013578277 -0.005130268 -0.023382075 -0.026447525 0.1261431
0.010141464 0.027997127 -0.0005406253 -0.01973206 0.18272199 0.016331727 0.025816431 0.09392805
0.14677581 -0.004523937 0.024114965 0.05205465 -0.028152777 -0.0679655 0.015686821 -0.034831315
-0.029552408 -0.022817427 0.025028871 0.0041731596 -0.12113532 0.025107525 -0.0020107646 0.025740385
0.033327974 -0.017342508 0.028823797 -0.031493925 -0.06536084 -0.028560307 0.009322032 0.040516865
0.116575874 0.015161952 0.13808878 -0.11693401 -0.045344193 -0.089007944 -0.008361325 0.008562576
-0.022436015 -0.02619655 0.015406657 0.023763467 -0.025227977 -0.059396595 0.034351017 -0.0044802795
-0.022276342 -0.0030617744 -0.014062893 0.14127946 -0.0037660878 0.021350572 0.031614736 0.0054373443
-0.030059148 -0.05849366 -0.12190571 -0.022446254 -0.04966511 0.005400139 0.005897349 0.018229956
-0.09927619 0.059400566 0.02728616 0.00490382 -0.015099404 0.00032078847 0.1822906 0.02080591
0.02815755 0.0035256413 0.019249432 -0.0094401855 -0.047869798 -0.019153519 -0.03725438 0.020407906
0.02977916 0.04551607 0.08017796 -0.03555068 -0.03017911 0.0812318 0.0022879534 0.03988841
0.021741418 0.004622564 -0.057668246 0.14664727 0.009066452 0.007711719 -0.011851478 -0.0079678865
-0.07812753 -0.029572073 -0.00163726 0.020737467 0.029449537 -0.104865335 0.013976048 0.024065347
00000000: 8fb3 593d 9191 063d 8cc0 39bd 9135 58bc
00000010: 4028 fbbc a013 72bd 344e 8a3c d757 e5bb
00000020: 0f1d 093d b94b c4bc 6bce d13c 7fe6 d3bc
00000030: 2025 053d ae34 a1bc 7b4b 40bc 34cc b5bc
00000040: 4f0f d1bc 3ed1 1dbd fa44 aebc 1f70 b3bb
00000050: ca43 ed3c db73 e03c 2b56 1abc fb04 9cbb
00000060: 68be 103d ce31 10bc dda4 d63d 10dc e43a
00000070: f47e 8d3a ff7c 7dbb 22cd ca3c ce0d d63c
00000080: 4ca0 a53c 40f9 8b3c 9756 173c 0e46 803d
00000090: c104 afbc a4b0 cfbc 757c 80bd fc68 0dbe
000000a0: 56e1 1d3e 28fa 723c c057 3c3c 3b2e 133b
000000b0: eacc 743d 3149 1fbe a65b 82bd baa9 ba3c
000000c0: f4a8 55bb c46b 3fbd 04cd 183c 23e4 cbbc
000000d0: 614e bb3b 7659 19bd 8603 a03c 4565 86bc
000000e0: bec4 cabc 3569 48bd a713 053d 7037 a5bc
000000f0: c69d e83c 22fd 313c 6884 993d 5529 893b
00000100: 22d4 54bd 1f6d 94bb 043d e63c ddc6 cc3c
00000110: 2f8b e13c ae4a d5bc d9b6 fdbb f342 1cbd
00000120: a506 373d b4c1 d3bc c60b c6bc edaf 00bd
00000130: bca8 c4bc ee4b e4bc fb39 0e3c 8d60 dabb
00000140: c3f0 053c d4df a63c c95a a8bd 8d35 f6bc
00000150: 8dac 8cbd a424 d4bb 26bd 56bb 532d 8bbb
00000160: cc85 17bc 8354 aebd 9dda 6c3b be24 c9bc
00000170: b592 e4ba 9e62 67bc 51d9 823c 18d3 93bc
00000180: 93cc 0cbd d40f be3c 4bcd 9cbc 411d 17bd
00000190: 2bff dcbc 47e2 ecbc a752 b53c dc09 3a3d
000001a0: 4fe6 1d3c d095 e0bb 8f4e 3ebd b4be ea3c
000001b0: b3a4 d6bc f7f9 8a3c 157a f53c 1402 ddbc
000001c0: 2525 b23c 7584 45bc e446 6f3d 8b25 043c
000001d0: da2e cebc d68e 773b 5bff 1d3e 7606 413e
000001e0: d334 d83c 10f1 a93d 6ab6 85bc a2c8 9ebd
000001f0: 437b 583d 8b97 f0bc 52de 03bd 43b4 ab3d
00000200: acb4 5abc 09e2 3fbb 4fcc 0abc bf3f bbbd
00000210: 37ba 6e3d 5468 033c b187 a13c 9f40 c33c
00000220: 98d0 f1bc b74f c1b9 5711 b2ba 3577 d13d
00000230: deac 043b 63da 903c f2d8 483d b538 663d
00000240: 5c5e cabc 2065 ee3a facf 303d 6c77 5e3c
00000250: cf1b a8bb c48b bfbc 7ba8 d8bc a82b 013e
00000260: 6228 263c 3b5a e53c c0b8 0dba 21a5 a1bc
00000270: 791b 3b3e 1dca 853c fb7c d33c 595d c03d
00000280: 664c 163e 893d 94bb bf8c c53c 4237 553d
00000290: a7a0 e6bc 7f31 8bbd a681 803c 48ab 0ebd
000002a0: e417 f2bc 9deb babc 5909 cd3c 00bf 883b
000002b0: cb15 f8bd 4cae cd3c 08c7 03bb 80dd d23c
000002c0: ea82 083d e011 8ebc e21f ec3c c6ff 00bd
000002d0: e7db 85bd 4ef7 e9bc 70bb 183c 03f5 253d
000002e0: 55bf ee3d d669 783c 2567 0d3e 197b efbd
000002f0: d5ba 39bd cc49 b6bd f0fd 08bc 0c4a 0c3c
00000300: bccb b7bc 269a d6bc 346c 7c3c 9aab c23c
00000310: e7aa cebc d849 73bd a7b3 0c3d 4fcf 92bb
00000320: e07c b6bc 0da8 48bb 0c68 66bc 90ab 103e
00000330: 78d0 76bb 65e7 ae3c 747e 013d c02b b23b
00000340: 9a3e f6bc 0c97 6fbd b3a9 f9bd 35e1 b7bc
00000350: a46d 4bbd a6f3 b03b 8d3e c13b fd56 953c
00000360: 5151 cbbd 024e 733d 3a87 df3c 39b0 a03b
00000370: 7e63 77bc 802f a839 63aa 3a3e 2871 aa3c
00000380: aaaa e63c 720e 673b fcb0 9d3c 02ab 1abc
00000390: 1f13 44bd d7e7 9cbc 0c98 18bd 7b2e a73c
000003a0: 6df3 f33c 0f6f 3a3d 5834 a43d 979d 11bd
000003b0: 2e3a f7bc dc5c a63d 7df1 153b 0862 233d
000003c0: 0f1b b23c e178 973b 8a35 6cbd b42a 163e
000003d0: 758b 143c 96b2 fc3b b42c 42bc bd8b 02bc
000003e0: 5401 a0bd 2241 f2bc 5499 d6ba 9fe1 a93c
000003f0: 2840 f13c a3c3 d6bd cbfb 643c b124 c53c

linear_relu_stack.2.bias f4 [36]
0.018889958 0.02862604 -0.0193883 0.01990523 0.031603847 0.0313502 0.001997394 0.0011321885
-0.017202914 -0.021602599 0.006209406 -0.002484871 0.011349643 -0.009075539 -0.009582244 -0.020229936
-0.022488918 0.0366392 -0.0045776423 -0.012072985 0.027861876 0.0190234 0.023251105 0.025731716
0.022045497 -0.014108965 0.0319025 0.01664256 -0.029194515 -0.002063499 -0.0025734373 -0.014983386
0.016665008 0.03407174 0.021500183 0.005273332
00000000: 1dbf 9a3c 2881 ea3c 36d4 9ebc 4b10 a33c
00000010: 0973 013d 1169 003d b6e6 023b f165 943a
00000020: 20ed 8cbc eff7 b0bc 4678 cb3b 38d9 22bb
00000030: daf3 393c 92b1 14bc d8fe 1cbc 40b9 a5bc
00000040: ae3a b8bc fc12 163d 0c00 96bb c5cd 45bc
00000050: 973e e43c f6d6 9b3c 1a79 be3c 52cb d23c
00000060: c298 b43c 4a29 67bc 32ac 023d fa55 883c
00000070: 5629 efbc c53b 07bb 1da7 28bb e07c 75bc
00000080: 0e85 883c cf8e 0b3d 2721 b03c eacb ac3b
