models/model_added_mass_0_wave_frequency_n11.pth (torch, 248168 bytes, 4 tensors)

linear_relu_stack.0.weight f4 [1024, 23]
-0.04503291 -0.18345478 0.12601304 -0.15777929 -0.16007213 -0.10864217 -0.16266252 0.19707628
-0.08209161 -0.025871674 0.11619123 0.08723696 -0.07145293 0.094898 0.07280076 0.14046171
-0.051438637 -0.07410783 -0.17534116 0.12360526 0.13498798 0.17759651 -0.09888305 0.1462021
0.07692595 0.1696786 0.09566484 0.11589306 0.01266591 -0.05901789 -0.2077027 -0.10829943
0.043752715 0.12681304 0.01700118 -0.02993847 0.20149544 -0.21629421 -0.14294568 -0.16155483
0.0340179 0.05883966 0.076175004 0.04297132 0.06867411 0.15016758 0.11182651 0.067131214
0.11745583 0.119470894 0.12835544 -0.07808983 0.20229279 -0.031494103 -0.051786963 -0.0901544
0.055651017 0.17191188 0.094608076 0.083013184 -0.20195577 -0.002485162 -0.10803225 -0.20040582
0.17471297 -0.22296675 -0.1691667 0.03359218 -0.031077618 -0.07161082 -0.041682452 0.028640835
0.12659469 0.109830156 0.19430417 0.2083392 -0.10724904 -0.09284358 0.13772824 0.023753613
0.17558287 -0.21614185 -0.10907283 -0.10520518 0.025445828 0.134374 0.11069119 -0.15314879
0.024518596 0.06613114 0.061163235 0.0051659713 0.015138011 -0.028976068 0.11073037 -0.092154674
-0.2757525 0.12799723 0.12967376 -0.07715683 0.104793705 -0.113306865 0.016418107 -0.13978992
-0.049496524 -0.03406903 -0.22458766 0.10825948 0.05005563 0.16781883 -0.003982769 -0.070415325
0.14268576 -0.18749517 0.07571139 -0.030882284 -0.10514402 0.21738467 0.10556453 0.0022818472
-0.16900045 0.18338822 0.17140412 0.17175908 0.10997035 0.05122183 0.11606606 0.22021952
0.09155139 0.12243589 0.08627762 0.12503815 -0.10507018 0.118139975 -0.07182928 0.21197556
0.063530974 0.10990457 -0.16342697 0.0492449 0.18938257 0.1545303 0.18323053 0.17212746
-0.052215844 0.078802705 0.0019335059 0.1938117 -0.13814531 -0.08371382 0.061410364 -0.025825266
0.11497154 0.16186155 -0.11914914 0.11274509 0.13627386 -0.18716428 -0.067955814 0.08882541
0.1717243 0.16403574 -0.2288701 0.16376047 0.112305745 0.111632004 -0.05447328 -0.09335807
-0.13191184 0.03410677 -0.14326315 0.12653305 -0.16860598 0.1368608 -0.15805829 -0.06287299
-0.004856729 -0.21896571 -0.11310016 0.061076026 0.0957992 -0.048002094 0.0078406045 -0.040417098
0.15659317 0.16755259 0.027051613 0.17421916 -0.00091501046 0.0760865 -0.117177874 -0.13757885
-0.18141332 -0.045759734 -0.10055832 0.08642035 -0.06435171 0.109635584 -0.009143641 -0.07304485
-0.013982191 0.13688931 -0.10135788 0.029071758 0.073402435 -0.014994755 0.1603779 -0.14231186
0.1482908 0.18771878 0.19167845 -0.09408645 -0.054010484 -0.08400631 0.034691293 0.035480466
0.12160788 -0.07565225 -0.18085687 -0.16985786 0.04841372 -0.019086858 -0.11551655 -0.03703029
0.14732683 -0.14375283 -0.14425586 -0.11371043 -0.10022589 0.19173586 -0.1034769 0.040088437
0.16694224 0.0035174415 -0.11745504 0.15123591 0.001491901 0.06346497 -0.018162426 0.005194243
0.096049845 -0.11974032 0.095757455 0.12188852 0.12192651 -0.0011410032 -0.12875117 0.16352968
0.049374785 0.17867628 -0.04690756 0.15155034 0.08469694 -0.11786125 0.045695476 0.09042813
00000000: 6e74 38bd 92db 3bbe 9009 013e e590 21be
00000010: f3e9 23be c97f debd 0191 26be 5dce 493e
00000020: a51f a8bd d5f0 d3bc abf5 ed3d 4ba9 b23d
00000030: ea55 92bd e259 c23d 9118 953d 32d5 0f3e
00000040: 52b1 52bd d9c5 97bd a28c 33be c124 fd3d
00000050: 4a3a 0a3e dcdb 353e 3283 cabd 01b6 153e
00000060: 5a8b 9d3d 3ac0 2d3e edeb c33d 5759 ed3d
00000070: ad84 4f3c bebc 71bd 04b0 54be 17cc ddbd
00000080: 0c36 333d 47db 013e 0f46 8b3c 8641 f5bc
00000090: d254 4e3e 3b7c 5dbe 5a60 12be a16e 25be
000000a0: 5a56 0b3d db01 713d a401 9c3d b202 303d
000000b0: 03a5 8c3d 88c5 193e 4c05 e53d 177c 893d
000000c0: af8c f03d 28ad f43d 9c6f 033e 90ed 9fbd
000000d0: d725 4f3e f6ff 00bd 911e 54bd dfa2 b8bd
000000e0: 52f2 633d ab09 303e e1c1 c13d d102 aa3d
000000f0: 7ecd 4ebe 1ade 22bb 0340 ddbd 2f37 4dbe
00000100: f5e7 323e 6551 64be 093a 2dbe f497 093d
00000110: 7d96 febc b2a8 92bd 38bb 2abd 2fa0 ea3c
00000120: 0aa2 013e a2ee e03d acf7 463e df56 553e
00000130: 62a5 dbbd c624 bebd a208 0d3e f096 c23c
00000140: ffcb 333e 4a54 5dbe 9361 dfbd d075 d7bd
00000150: c573 d03c 5699 093e 10b2 e23d 09d3 1cbe
00000160: 39db c83c c36f 873d 4d86 7a3d 4f47 a93b
00000170: 6c05 783c 385f edbc 9bc6 e23d 97bb bcbd
00000180: 6f2f 8dbe b511 033e 33c9 043e 6604 9ebd
00000190: 159e d63d 6e0d e8bd 447f 863c 1725 0fbe
000001a0: debc 4abd f88b 0bbd 4ffa 65be 25b7 dd3d
000001b0: 2207 4d3d b3d8 2b3e e381 82bb e935 90bd
000001c0: 371c 123e bcfe 3fbe 930e 9b3d d8fc fcbc
000001d0: bf55 d7bd 169a 5e3e 3732 d83d 0b8b 153b
000001e0: 740e 2dbe 1fca 3b3e 9084 2f3e 9de1 2f3e
000001f0: 2338 e13d fbcd 513d 0bb4 ed3d 3a81 613e
00000200: 4c7f bb3d abbf fa3d 52b2 b03d 000a 003e
00000210: 092f d7bd 5ff3 f13d 3b1b 93bd 1f10 593e
00000220: 871c 823d a615 e13d 6659 27be 05b5 493d
00000230: 81ed 413e 313d 1e3e c9a0 3b3e 2e42 303e
00000240: 48e0 55bd 5063 a13d b16d fd3a 9376 463e
00000250: f775 0dbe 2772 abbd 6f89 7b3d 828f d3bc
00000260: 3376 eb3d 09bf 253e 7704 f4bd e6e6 e63d
00000270: 608b 0b3e fea7 3fbe 6b2c 8bbd 19ea b53d
00000280: 7fd8 2f3e fcf8 273e ec5c 6abe d3b0 273e
00000290: 8e00 e63d 529f e43d 601f 5fbd 8432 bfbd
000002a0: e613 07be 8ab3 0b3d 93b3 12be e191 013e
000002b0: 0ca7 2cbe 3d25 0c3e 08da 21be 8ec3 80bd
000002c0: 3225 9fbb 8c38 60be 0fa1 e7bd db2a 7a3d
000002d0: 5f32 c43d d89d 44bd e175 003c 668c 25bd
000002e0: f659 203e e892 2b3e 589b dd3c 8266 323e
000002f0: 50dd 6fba 3dd3 9b3d f4fa efbd 78e1 0cbe
00000300: 6ac4 39be 8f6e 3bbd 85f1 cdbd 27fd b03d
00000310: d4ca 83bd 9f88 e03d 36cf 15bc 8a98 95bd
00000320: 8f15 65bc b62c 0c3e b894 cfbd e527 ee3c
00000330: 0454 963d 90ac 75bc 1b3a 243e 33ba 11be
00000340: 8bd9 173e 5a39 403e 5b47 443e 66b0 c0bd
00000350: 193a 5dbd 800b acbd 7518 0e3d f753 113d
00000360: 8d0d f93d 91ef 9abd 8b32 39be 38ef 2dbe
00000370: 774d 463d 0b5c 9cbc f193 ecbd 13ad 17bd
00000380: d8dc 163e f133 13be cfb7 13be 04e1 e8bd
00000390: 3b43 cdbd 6856 443e b2eb d3bd c633 243d
000003a0: e8f2 2a3e e084 663b 458c f0bd 96dd 1a3e
000003b0: e48b c33a ecf9 813d 5ec9 94bc 7834 aa3b
000003c0: c8b5 c43d 6a3a f5bd 7c1c c43d b0a0 f93d
000003d0: 9bb4 f93d b78d 95ba 59d7 03be 5374 273e
000003e0: 373d 4a3d eaf6 363e 2422 40bd 0330 1b3e
000003f0: 9775 ad3d 3d61 f1bd 2e2b 3b3d 6232 b93d

linear_relu_stack.0.bias f4 [1024]
0.13313939 0.06410175 -0.038052876 -0.001745609 -0.07622117 -0.11899486 0.019232282 0.11807219
-0.19914477 0.13722444 -0.17026816 0.068632916 -0.15339826 -0.19358921 -0.06353095 -0.05838878
0.121837266 -0.07758348 -0.03994219 0.024521144 -0.090213254 -0.20386958 -0.15286545 -0.047495335
-0.038423676 0.20491381 -0.19231613 0.027473262 0.13732716 -0.20691784 0.043525174 0.064375296
0.09127801 0.15481059 0.1480649 0.19528532 -0.046056915 0.16706426 0.1086702 -0.17328858
-0.011523388 0.03517198 0.1535342 0.12413296 -0.08780281 -0.11129137 0.15837526 -0.029527498
-0.058772065 -0.17804326 -0.24919347 0.036427584 -0.14056136 0.14212133 -0.20389475 0.07509612
-0.006100307 0.107631914 0.0009878924 0.15463467 0.06291007 0.0630309 0.0162154 -0.15834434
0.011883108 -0.16391024 0.113188215 -0.22451483 -0.09299202 -0.052653998 0.05597727 0.14708126
-0.13702041 -0.0108503625 0.22404063 -0.1979054 0.071180694 0.21302292 0.15758224 -0.16537301
0.04039247 -0.09396222 0.039444618 -0.16376138 -0.16435795 -0.0012610938 0.0963691 0.1859434
-0.16541922 -0.15727295 -0.25195548 0.1877166 -0.064248666 -0.14652358 0.18123442 0.18302631
0.12513334 0.069335684 -0.1591985 -0.05425182 -0.17833003 -0.05430876 -0.21460856 0.14403448
-0.16104114 0.0860114 0.034681644 0.11657178 0.16408172 0.15552312 0.20903455 -0.13747773
-0.18722647 0.010569834 -0.22347908 0.16510889 -0.16114892 0.15806744 -0.051479038 -0.21671504
0.18515229 -0.10588173 -0.10874547 0.1366732 -0.07611435 -0.028985359 0.05123806 -0.097044915
0.12315078 0.20842747 0.18192714 0.18636613 -0.011361655 -0.018177504 0.22084789 0.045788597
0.1815348 0.028507402 -0.19854474 -0.12794037 0.11665944 0.16445926 0.14128846 0.07028215
-0.175573 0.16035162 0.022267692 0.12428715 0.21907991 0.019154154 -0.16035742 0.19981231
0.051511724 0.016523438 -0.07526337 0.14092521 0.00052616256 -0.17612095 -0.19565946 -0.09033371
-0.1572603 -0.12152943 0.13192962 -0.03900744 -0.09392512 0.08658244 0.013094478 0.15739003
-0.1123467 0.14855415 -0.069008626 -0.24865535 -0.16478795 -0.090271965 0.16713476 0.0679373
0.15298672 -0.13098231 0.004834299 0.22378181 -0.14957699 0.056716572 0.10905311 -0.13559628
0.13412549 -0.23161279 0.023258328 0.006207882 0.00075327395 0.080905624 -0.07700132 0.049387332
-0.07836517 0.0022847364 0.22270356 -0.09323569 -0.16898346 0.037651405 -0.15896969 0.16549826
0.06103569 0.12700939 0.13253587 0.10051993 0.13804847 -0.11594615 0.22351858 -0.18828882
0.15763661 0.012075061 -0.067613 0.027721554 0.1543904 0.059702773 0.19423167 0.15744738
-0.1810717 0.14292642 0.10155959 -0.09030682 -0.07031057 0.20993663 0.01788772 -0.12471577
0.17096177 0.1735234 -0.09746316 -0.033644076 0.03497345 0.00788755 -0.20137827 -0.03827848
0.21773417 -0.11957171 -0.17073545 -0.1837453 0.03464535 -0.1355056 -0.1937248 -0.17590776
-0.12116762 -0.17388642 -0.19268534 -0.19853592 0.026139153 -0.03481616 0.212633 -0.029554648
-0.07395649 0.14944702 0.18526682 0.15061954 -0.19684204 -0.11913872 -0.019463625 0.20263213
00000000: b155 083e c747 833d 55dd 1bbd ebcc e4ba
00000010: d819 9cbd 94b3 f3bd 058d 9d3c d5cf f13d
00000020: 9bec 4bbe 9084 0c3e c75a 2ebe 6a8f 8c3d
00000030: 6f14 1dbe 403c 46be 841c 82bd 1329 6fbd
00000040: d185 f93d 16e4 9ebd 6c9a 23bd 91e0 c83c
00000050: bac1 b8bd 30c3 50be c388 1cbe 788a 42bd
00000060: 2562 1dbd edd4 513e 85ee 44be 9b0f e13c
00000070: 7e9f 0c3e 45e2 53be 7447 323d 32d7 833d
00000080: f7ef ba3d ab86 1e3e 539e 173e e0f8 473e
00000090: 2da6 3cbd e512 2b3e 7b8e de3d 9072 31be
000000a0: 98cc 3cbc 7e10 103d 1238 1d3e 6c39 fe3d
000000b0: f6d1 b3bd bbec e3bd 202d 223e a7e3 f1bc
000000c0: faba 70bd f950 36be 932c 7fbe 1735 153d
000000d0: 51ef 0fbe 4188 113e c9c9 50be ffcb 993d
000000e0: 16e5 c7bb 1f6e dc3d 2b7c 813a 8d58 1e3e
000000f0: ffd6 803d 5816 813d 29d6 843c 0525 22be
00000100: 5eb1 423c 16d8 27be 39cf e73d 37e7 65be
00000110: 9a72 bebd b8ab 57bd 6c48 653d 789c 163e
00000120: 144f 0cbe b8c5 31bc e86a 653e b7a7 4abe
00000130: 2fc7 913d ae22 5a3e 3d5d 213e 8b57 29be
00000140: 9372 253d 446f c0bd ae90 213d 10b1 27be
00000150: 734d 28be 494b a5ba 2a5d c53d f267 3e3e
00000160: a863 29be 290c 21be 4f00 81be c838 403e
00000170: ce94 83bd 470a 16be 8495 393e 406b 3b3e
00000180: f422 003e deff 8d3d ee04 23be 2837 5ebd
00000190: 269c 36be dd72 5ebd 59c2 5bbe c67d 133e
000001a0: f8e7 24be bf26 b03d 570e 0e3d 2fbd ee3d
000001b0: 0a05 283e 7441 1f3e 270d 563e f6c6 0cbe
000001c0: 4cb8 3fbe 192d 2d3c b3d7 64be 4e12 293e
000001d0: 3904 25be 6edc 213e afdb 52bd 8cea 5dbe
000001e0: 9098 3d3e 85d8 d8bd f2b5 debd 0ff4 0b3e
000001f0: d7e1 9bbd b472 edbc 00df 513d 7cbf c6bd
00000200: 7a36 fc3d 036e 553e 1c4b 3a3e c3d6 3e3e
00000210: 3c26 3abc fde8 94bc f325 623e d38c 3b3d
00000220: 42e4 393e 5b88 e93c 504f 4bbe cd02 03be
00000230: 25eb ee3d 0268 283e ecad 103e 16f0 8f3d
00000240: 69c9 33be 3733 243e bc6a b63c 438a fe3d
00000250: 7c56 603e 2ce9 9c3c bc34 24be 999b 4c3e
00000260: f5fd 523d 295c 873c af23 9abd b34e 103e
00000270: 2cee 093a 0d59 34be f45a 48be e100 b9bd
00000280: d808 21be 6ce4 f8bd 8f18 073e 44c6 1fbd
00000290: d05b c0bd 2252 b13d 398a 563c da2a 213e
000002a0: 0716 e6bd 941e 183e 6554 8dbd 829f 7ebe
000002b0: 2cbe 28be 82e0 b8bd 6025 2b3e b622 8b3d
000002c0: 8da8 1c3e 3a20 06be 0a69 9e3b 0f27 653e
000002d0: b62a 19be a34f 683d 3d57 df3d c0d9 0abe
000002e0: 3158 093e e72b 6dbe 4088 be3c 7d6b cb3b
000002f0: 5c77 453a d9b1 a53d deb2 9dbd 5f4a 4a3d
00000300: eb7d a0bd 84bb 153b 670c 643e 5af2 bebd
00000310: 000a 2dbe 5c38 1a3d f3c8 22be 6078 293e
00000320: 8f00 7a3d c00e 023e 7cb7 073e 65dd cd3d
00000330: 945c 0d3e 2d75 edbd 0ee2 643e c9ce 40be
00000340: 7e6b 213e 7ad6 453c af78 8abd 5018 e33c
00000350: 8418 1e3e e58a 743d abe4 463e e339 213e
00000360: dc6a 39be 4e5b 123e 79fe cf3d c8f2 b8bd
00000370: fdfe 8fbd a1f9 563e 4589 923c fb6a ffbd
00000380: 9a10 2f3e 1eb0 313e c49a c7bd 5fce 09bd
00000390: 5240 0f3d c83a 013c 1b36 4ebe e5c9 1cbd
000003a0: b5f5 5e3e 03e2 f4bd 46d5 2ebe ba27 3cbe
000003b0: 48e8 0d3d fbc1 0abe cb5f 46be 2a21 34be
000003c0: bb26 f8bd 480f 32be 4e4f 45be 004d 4bbe
000003d0: c721 d63c 649b 0ebd 77bc 593e 971c f2bc
000003e0: 8076 97bd a408 193e 96b6 3d3e 023c 1a3e
000003f0: f690 49be 00ff f3bd 2e72 9fbc cc7e 4f3e

linear_relu_stack.2.weight f4 [36, 1024]
0.044235308 -0.018419556 0.027387962 -0.013603559 0.05868462 0.062276732 0.030805936 -0.009627185
0.028244814 0.0027435275 0.02637819 0.013492314 -0.016549401 0.015092024 -0.02019539 0.052554425
0.0072205355 0.0048871124 -0.040615775 0.037869297 0.062490173 0.009985091 0.02573664 -0.04556584
0.06070084 0.018703936 -0.01969856 -0.001072655 0.015211232 0.04549732 0.00881261 -0.029499212
0.005894134 0.013545704 0.015804464 -0.013867429 -0.04122214 0.017161855 0.030680904 0.0004245387
-0.055922486 -0.01669467 -0.02380105 0.020176984 5.890085e-05 0.038965117 0.0052785575 -0.04889739
-0.05271097 -0.015548147 0.082463466 -0.02823194 -0.022251807 0.026767896 0.020075759 0.015175211
0.004556057 -9.071661e-05 -0.064592525 -0.016092388 -0.021312183 0.051907703 0.026181102 -0.03786114
-0.064934075 0.022366935 0.03285759 0.049102023 -0.026862357 0.023352612 -0.008943421 0.016108003
0.04314794 -0.06315794 0.012414353 -0.008125324 -0.028494954 -0.023788236 -0.016021607 -0.01439886
0.005973043 -0.10991939 0.03149176 0.04140576 -0.028832281 0.04316068 -0.01775343 -0.026656967
0.01614782 0.10491136 -0.0367401 -0.009477046 -0.012867747 -0.03777477 -0.008231832 0.02623581
-0.014989564 0.008966436 0.15359232 -0.02948222 0.033129293 -0.02189624 0.10527461 -0.014220973
-0.054200113 0.011180298 0.026509324 -0.025512455 -0.004264819 0.008047529 0.0080929855 0.008369154
0.0655807 0.008125852 0.14718007 -0.013752045 0.036279365 -0.018303143 -0.07412899 0.22447418
0.017460594 -0.03185417 -0.04810476 -0.0023800815 0.006177669 0.007209986 0.018429557 -0.10422553
-0.01621131 -0.023205172 0.014708189 -0.0020335747 0.055265553 0.006262769 0.017781388 -0.06134903
0.012760734 -0.043836035 0.016149022 -0.03269659 -0.018608706 0.015738796 -0.034821253 0.03619724
0.008623421 0.02594206 -0.026440855 0.021742582 -0.014808041 -0.0019320461 -0.09542533 -0.025300503
0.03259105 0.030480277 0.0036403867 0.021043625 0.028256217 -0.058051296 -0.025544342 -0.056445614
0.02548473 -0.04864599 0.046748653 -0.0036222273 0.0126425885 -0.062068626 -0.026099453 -0.017391002
0.060231995 -0.026937071 -0.008451076 0.15072963 -0.12951076 -0.07079363 -0.022851745 -0.008166287
0.009022746 0.031746216 -0.010872018 0.024686059 -0.11779105 -0.038977046 0.027139852 0.08031134
-0.03200774 0.1547278 0.027352782 -0.001756954 -0.0011163033 -0.06756504 0.021882825 -0.029705686
-0.04953297 0.047191627 -0.0073602246 -0.0056033637 -0.01283817 0.03450551 0.008901601 0.07252861
-0.032624133 0.009036675 0.10454739 -0.031297334 0.01898266 0.039748877 0.015931899 -0.018458739
0.018484797 -0.051314164 0.071076885 -0.03494133 -0.0058900407 0.00030454452 -0.03177992 -0.018905424
-0.13919342 0.042723205 -0.018362902 0.06334304 0.06414477 -0.030894501 0.07647863 0.093138985
0.011511657 0.034648728 0.088202074 -0.05042225 0.013160599 -0.0006712824 0.10000525 0.13341922
0.028333586 -0.021064632 0.009749484 -0.0013302788 -0.005472984 -0.08116166 0.15133084 0.07004894
0.022810115 0.016706724 0.05283216 -0.1451561 0.014430791 0.0073017976 0.017020352 -0.052661955
0.0747167 -0.006718207 0.009859013 0.08962299 0.08618192 -0.12562972 0.04539778 0.008255721
00000000: 1530 353d 9ce4 96bc b85c e03c 76e1 5ebc
00000010: 495f 703d e315 7f3d bb5c fc3c 57bb 1dbc
00000020: ab61 e73c c1cc 333b 1317 d83c de0e 5d3c
00000030: 9c92 87bc 8944 773c cd70 a5bc 4f43 573d
00000040: 3e9a ec3b 1224 a03b ba5c 26bd d61c 1b3d
00000050: b2f5 7f3d 8298 233c a5d5 d23c 3fa3 3abd
00000060: 72a1 783d ff38 993c e05e a1bc 5498 8cba
00000070: 8838 793c 665b 3a3d c462 103c 55a8 f1bc
00000080: 9423 c13b cdee 5d3c 5d78 813c 3734 63bc
00000090: 8cd8 28bd 0597 8c3c 8556 fb3c 9f94 de39
000000a0: fa0e 65bd 43c3 88bc 6bfa c2bc 344a a53c
000000b0: 4e0c 7738 e399 1f3d c0f7 ac3b a148 48bd
000000c0: 75e7 57bd a8bd 7ebc 9be2 a83d ab46 e7bc
000000d0: 6c49 b6bc 5948 db3c eb75 a43c 73a1 783c
000000e0: fa4a 953b 1c3f beb8 1649 84bd 2fd4 83bc
000000f0: e396 aebc 2c9d 543d c079 d63c 4814 1bbd
00000100: 28fc 84bd dd3a b73c ae95 063d 341f 493d
00000110: 720e dcbc fa4d bf3c 6d87 12bc eef4 833c
00000120: e5bb 303d f358 81bd 9265 4b3c 1420 05bc
00000130: 406e e9bc 8cdf c2bc bf3f 83bc 32e9 6bbc
00000140: 84b9 c33b 6b1d e1bd 81fd 003d 1699 293d
00000150: ad31 ecbc 41c9 303d a46f 91bc b65f dabc
00000160: 6f48 843c c4db d63d c97c 16bd 9d45 1bbc
00000170: 3ed3 52bc b8b9 1abd cede 06bc 7bec d63c
00000180: ca96 75bc f5e7 123c 4e47 1d3e b284 f1bc
00000190: 95b2 073d be5f b3bc 379a d73d 15ff 68bc
000001a0: f000 5ebd 922d 373c 152a d93c 7fff d0bc
000001b0: e5bf 8bbb c8d9 033c 7198 043c c71e 093c
000001c0: 2d4f 863d 4b22 053c 5fb6 163e 4250 61bc
000001d0: ac99 143d 79f0 95bc f1d0 97bd 8fdc 653e
000001e0: 8509 8f3c 8579 02bd 7f09 45bd 24fb 1bbb
000001f0: 0b6e ca3b bf41 ec3b 95f9 963c 3274 d5bd
00000200: 95cd 84bc c618 bebc 9efa 703c b945 05bb
00000210: 225e 623d ea37 cd3b 46aa 913c 1f49 7bbd
00000220: 6612 513c 6a8d 33bd f44a 843c dcec 05bd
00000230: 4971 98bc a6ee 803c bba0 0ebd 8f43 143d
00000240: 4049 0d3c 7184 d43c 7e9a d8bc 801d b23c
00000250: 6d9d 72bc b63c fdba 5b6e c3bd 0043 cfbc
00000260: 317e 053d c6b1 f93c 8e93 6e3b ae63 ac3c
00000270: 9579 e73c 32c7 6dbd 5e42 d1bc 8433 67bd
00000280: 5ac5 d03c 0541 47bd 847b 3f3d e462 6dbb
00000290: dc22 4f3c ac3b 7ebd 85ce d5bc 9377 8ebc
000002a0: d3b5 763d 22ab dcbc 6276 0abc de58 1a3e
000002b0: 789e 04be 40fc 90bd 9533 bbbc e4cb 05bc
000002c0: 24d4 133c 5208 023d 8c20 32bc 6b3a ca3c
000002d0: 6f3c f1bd 65a6 1fbd 6554 de3c 467a a43d
000002e0: 8c1a 03bd f770 1e3e f112 e03c 9849 e6ba
000002f0: ec50 92ba 8a5f 8abd 9c43 b33c 5759 f3bc
00000300: 15e3 4abd 024c 413d 0a2e f1bb 6c9c b7bb
00000310: 3057 52bc a655 0d3d 05d8 113c e189 943d
00000320: e2a0 05bd 900e 143c f11c d63d a231 00bd
00000330: 8681 9b3c b8cf 223d 9d83 823c c836 97bc
00000340: 6e6d 973c cd2e 52bd c290 913d a41e 0fbd
00000350: 3e01 c1bb 46ab 9f39 a92b 02bd 8cdf 9abc
00000360: b888 0ebe 87fe 2e3d cc6d 96bc ffb9 813d
00000370: 555e 833d 7716 fdbc d4a0 9c3d a7bf be3d
00000380: 649b 3c3c d3eb 0d3d 4aa3 b43d 9087 4ebd
00000390: 8e9f 573c 00f9 2fba 8dcf cc3d 0c9f 083e
000003a0: d61b e83c bc8f acbc 4dbc 1f3c c05c aeba
000003b0: b856 b3bb 1638 a6bd 79f6 1a3e d275 8f3d
000003c0: 47dc ba3c 8adc 883c 8966 583d cda3 14be
000003d0: 206f 6c3c eb43 ef3b 446e 8b3c 10b4 57bd
000003e0: 1205 993d 6824 dcbb b387 213c 428c b73d
000003f0: 2580 b03d 14a5 00be 06f3 393d 0143 073c

linear_relu_stack.2.bias f4 [36]
-0.021536436 -0.010153703 -0.018857583 0.0118170725 -0.008245393 0.019728255 0.0148704685 -0.0044030426
-0.015947612 -0.008930714 -0.004136072 -0.0038314764 0.017697286 0.027565012 -0.015078079 0.036093287
0.03255542 0.03229385 -0.005886873 0.018424759 -0.010291521 -0.0036556588 0.0083876485 0.009006826
-0.010811445 0.0034798305 0.0106513295 0.02737423 -0.015348503 -0.008800439 -0.0036912563 -0.0026964673
0.023302194 -0.012133931 -0.018099645 -0.018947676
00000000: 2e6d b0bc b85b 26bc 387b 9abc 659c 413c
00000010: af17 07bc 269d a13c 44a3 733c 6647 90bb
00000020: 91a4 82bc 2152 12bc e387 87bb 8219 7bbb
00000030: e6f9 903c 05d0 e13c 0c0a 77bc 8ed6 133d
00000040: d558 053d 8e46 043d ace6 c0bb 85ef 963c
00000050: c59d 28bc c793 6fbb 596c 093c 5e91 133c
00000060: 7d22 31bc de0d 643b ea82 2e3c ec3f e03c
00000070: 4a78 7bbc b72f 10bc 01e9 71bb 37b7 30bb
00000080: 3ee4 be3c 65cd 46bc b545 94bc 2838 9bbc
