models/model_potential_damping_n3.pth (torch, 47464 bytes, 4 tensors)

linear_relu_stack.0.weight f4 [256, 7]
0	0x3de903ad	0.11377654
1	0xbde4cbd9	-0.11171693
2	0x3e44a10e	0.19202062
3	0x3dee3058	0.116303146
4	0x3d71607e	0.058929913
5	0x3e2e0b56	0.16996512
6	0xbd7bef51	-0.061507527
7	0xbd36fe49	-0.0446761
8	0x3e2e78d6	0.17038283
9	0xbd983c8a	-0.07433422
10	0xbdf0beab	-0.11755117
11	0x3e6c19c4	0.23056704
12	0xbde3ab32	-0.11116637
13	0xbdb3ee0c	-0.08785638
14	0xbe0d7a48	-0.13816178
15	0xbe7addd2	-0.2449868
16	0xbcdf1d7c	-0.027235739
17	0x3dfd1fd5	0.12359587
18	0xbca780a6	-0.020447087
19	0x3e68d588	0.22737706
20	0xbe92d9c9	-0.28681782
21	0x3da5646e	0.08075796
22	0x3e4a1a29	0.19736542
23	0x3e880c10	0.26571703
24	0x3ea1b7b1	0.31585458
25	0xbe88859b	-0.26664433
26	0xbd4553f8	-0.048175782
27	0xbe397b14	-0.18113357
28	0xbe930e83	-0.2872201
29	0x3cc5b0a6	0.024132084
30	0x3e6c6102	0.2308388
31	0xbe2ad9d9	-0.16684665
32	0x3ec07a09	0.37593105
33	0xbdc0f473	-0.09421625
34	0x3e29401f	0.16528367
35	0x3e453583	0.19258694
36	0xbe840bf5	-0.25790372
37	0xbea750b3	-0.32678756
38	0xbe1bdae6	-0.15220222
39	0x3cb5ffbe	0.022216674
40	0xbe4b7780	-0.19869804
41	0x3e0b37cf	0.13595508
42	0x3d18abdd	0.037273277
43	0xbe573e58	-0.21019876
44	0x3eb0cefb	0.34532914
45	0xbdb0ece8	-0.08638936
46	0x3dd69b66	0.10478859
47	0x3e8e592e	0.27802414
48	0x3ea27ea4	0.31737244
49	0x3d2ae690	0.041723788
50	0xbea0b21d	-0.3138589
51	0x3da3c199	0.0799591
52	0x3dc64399	0.09680862
53	0xbe18eed0	-0.1493485
54	0x3d29fcb7	0.041500773
55	0xbc029c7d	-0.00797188
56	0xbdeab679	-0.11460585
57	0x3e40da83	0.18833356
58	0x3c246d57	0.010035834
59	0x3d99691c	0.07490751
60	0xbea0059e	-0.31254286
61	0xbd9a11b7	-0.0752291
62	0x3e28cb8b	0.16483895
63	0xbe12602c	-0.14294499
64	0x3c02bf89	0.007980236
65	0x3ce14ce8	0.027502492
66	0x3e74e804	0.23916632
67	0xbd80a0c9	-0.06280667
68	0x3d855cc6	0.06511836
69	0x3dc7ab1d	0.09749434
70	0xbe851879	-0.25995234
71	0x3e82eb90	0.25570345
72	0xbe0bed36	-0.13664708
73	0x3e9dbf93	0.30810222
74	0x3d73f686	0.059561275
75	0xbe2b4d6c	-0.16728753
76	0x3e4b66d2	0.19863442
77	0xbddb5996	-0.107104465
78	0xbd8580de	-0.0651872
79	0xba3f9f52	-0.00073098124
80	0x3d952bb4	0.07283726
81	0x3e0d4ac1	0.13798048
82	0x3d804664	0.06263426
83	0x3e173d2d	0.1476943
84	0xbe154625	-0.1457754
85	0xbd51bc68	-0.05120507
86	0x3e3fef8a	0.1874372
87	0xbd135f00	-0.03597927
88	0x3dabb8a4	0.08384827
89	0x3dc73438	0.09726757
90	0xbe3fa05a	-0.18713513
91	0xbd61f75e	-0.05516755
92	0xbe602a38	-0.21891105
93	0xbe4806dd	-0.19533868
94	0xbd4e72d5	-0.05040248
95	0x3ea9ea93	0.33186778
96	0xbe9dffc2	-0.3085919
97	0xbd8a88ee	-0.067643985
98	0x3dea307d	0.1143503
99	0xbce95fae	-0.028488006
100	0x3d8b3783	0.067976974
101	0x3e8e3a55	0.2777888
102	0xbea877a2	-0.32903773
103	0x3e895b9c	0.26827705
104	0x3dfe1a60	0.124073744
105	0xbeb9fd52	-0.3632608
106	0xbeadb688	-0.33928323
107	0x3e922d91	0.2855039
108	0xbe68505e	-0.22686908
109	0xbebc7f4f	-0.3681588
110	0x3d120c61	0.035656337
111	0x3e1f51d3	0.15558557
112	0xbb67df07	-0.0035380737
113	0x3e43b1b1	0.19110753
114	0xbe898d86	-0.26865786
115	0x3d9e7577	0.077372484
116	0xbdddb840	-0.108261585
117	0xbea2a9c9	-0.3177016
118	0x3e9dc30b	0.30812868
119	0x3ea6e789	0.32598522
120	0xbe14a914	-0.14517623
121	0xbdb94ce8	-0.09047872
122	0x3db10704	0.08643916
123	0x3e666210	0.22498345
124	0xbe135b09	-0.14390196
125	0xbe642de5	-0.22283132
126	0xbcae8dfc	-0.021307938
127	0x3ea2a54c	0.31766737
128	0xbe1658f7	-0.14682375
129	0x3ebb5d24	0.36594498
130	0x3e21d8e9	0.15805401
131	0xbdaa19e5	-0.0830572
132	0x3cc146b4	0.023593284
133	0xbe994672	-0.29936558
134	0x3dfd20be	0.12359761
135	0x3e1230ec	0.14276475
136	0xbc54118d	-0.012943638
137	0x3e27230d	0.16321965
138	0xbe1dc074	-0.15405446
139	0x3e9bf9fb	0.30464157
140	0xbeab65d9	-0.3347614
141	0xbead04c6	-0.33792704
142	0x3dba39e9	0.09093077
143	0xbd8e90e2	-0.06961228
144	0x3e3fb4a6	0.18721256
145	0xbcbf237c	-0.02333235
146	0xbe759f7e	-0.23986623
147	0x3eaaa7a1	0.33331016
148	0xbe39ff4d	-0.18163796
149	0x3e5a486c	0.21316689
150	0x3ea38af9	0.31941965
151	0xbe693c46	-0.22776899
152	0x3eba5f46	0.36400813
153	0x3d44dee3	0.048064124
154	0xbe6ab030	-0.22918773
155	0x3e108827	0.14114438
156	0x3e549408	0.20759594
157	0xbda97560	-0.08274341
158	0x3e892215	0.26783815
159	0x3e6fb533	0.23408966
160	0xbd9b2a6b	-0.0757645
161	0xbebebcc0	-0.3725338
162	0x3e08aa50	0.13346219
163	0x3ce70cae	0.028204288
164	0x3e13f054	0.14447147
165	0x3e679e22	0.22618917
166	0x3e973331	0.29531243
167	0x3e62c138	0.2214402
168	0xbeaba073	-0.3352085
169	0x3e2afc1c	0.16697735
170	0xbdafdad9	-0.08586664
171	0x3e74bdc6	0.23900518
172	0xbe4e8870	-0.20169234
173	0x3e623c71	0.22093369
174	0xbe6b772b	-0.22994678
175	0x3e163fea	0.14672819
176	0xbbe23400	-0.0069031715
177	0x3e6bdb36	0.23032841
178	0xbdd7cb84	-0.105368644
179	0x3ebaef53	0.36510715
180	0xbc181040	-0.009281218
181	0xbe9adb12	-0.30245262
182	0xbeac0d0a	-0.33603698
183	0x3e534b24	0.20634133
184	0x3e136ae8	0.1439625
185	0x3e862027	0.26196405
186	0xbd4136db	-0.047171455
187	0x3e76cb28	0.24100935
188	0xbe72b1d6	-0.23700652
189	0x3dca5c8d	0.09880934
190	0xbe96258a	-0.29325515
191	0x3ece8cb6	0.4034173
192	0x3cafdc5d	0.021467382
193	0x3d253380	0.040332317
194	0xbdec0daa	-0.11526044
195	0x3ec35fd8	0.3815906
196	0xbe1946e6	-0.14968452
197	0x3e931cf2	0.2873302
198	0x3d9aece0	0.075647116
199	0xbe0e2b5e	-0.13883731
200	0x3eae6738	0.34063125
201	0xbcbade6c	-0.022811137
202	0x3dda0280	0.10645008
203	0xbc02b0a0	-0.007976681
204	0x3e81aa87	0.25325415
205	0x3de81454	0.11332002
206	0x3e9ff881	0.3124428
207	0x3da3f248	0.08005196
208	0xbe38eeeb	-0.1805989
209	0xbebe3878	-0.37152457
210	0x3e112f16	0.14178118
211	0xbdd35811	-0.10319532
212	0x3e1046a4	0.14089447
213	0xbde98d82	-0.114039436
214	0x3ea2c774	0.31792796
215	0x3de738ef	0.11290156
216	0xbb8f62d9	-0.004375797
217	0xbe795ee9	-0.24352612
218	0xbea1786f	-0.31537196
219	0x3e611a04	0.2198258
220	0xbdce260b	-0.1006585
221	0xbe86a3e1	-0.26296905
222	0xbd3ff477	-0.046864
223	0x3c1456bf	0.009053885
224	0x3e38aba4	0.18034226
225	0xbe77d675	-0.24202903
226	0xbe81e094	-0.25366652
227	0xbec863e4	-0.3913871
228	0x3eb57744	0.35442555
229	0x3e17dc2a	0.1483008
230	0xbea49715	-0.32146516
231	0xbe698554	-0.22804767
232	0xbe56a67c	-0.20961946
233	0xbe55a4e6	-0.20863685
234	0xbe393f28	-0.18090498
235	0xbea7477e	-0.32671732
236	0x3cea2d7e	0.028586145
237	0x3df8dcd7	0.12151497
238	0x3e960d75	0.29307142
239	0xbda2aea9	-0.0794347
240	0xbda3457e	-0.07972239
241	0x3e5a6331	0.21326901
242	0xbe1cbb81	-0.15305902
243	0xbe93e6ec	-0.28887117
244	0x3d07e33a	0.033175685
245	0x3e09dd8b	0.13463418
246	0x3c09e77d	0.0084170075
247	0xbd8f0da4	-0.069850236
248	0x3e2cecc8	0.168872
249	0x3d567549	0.052357946
250	0x3dc31a70	0.09526527
251	0xbe513e17	-0.20433842
252	0xbde385ed	-0.11109529
253	0x3da60f39	0.08108372
254	0x3cff4ced	0.03116461
255	0x3e4eb603	0.2018662

linear_relu_stack.0.bias f4 [256]
0	0x3e9b9b2c	0.30391824
1	0xbcd92e3c	-0.026511304
2	0x3c14a6f1	0.009073005
3	0xbc55b00e	-0.013042463
4	0xbeb657c7	-0.35613844
5	0xbe398d6e	-0.18120357
6	0xbde6c2be	-0.11267613
7	0x3daf3857	0.08555668
8	0x3d68d4ba	0.056843497
9	0x3e8baabf	0.27278706
10	0xbe2e5be3	-0.1702724
11	0x3e0a84f9	0.13527288
12	0xbe47c6e4	-0.19509465
13	0x3da2c5a8	0.07947856
14	0xbe59e2ca	-0.2127792
15	0x3d46e27a	0.04855583
16	0x3e489059	0.19586314
17	0x3ea4a3de	0.3215627
18	0x3ea39139	0.31946734
19	0x3d875d0b	0.066095434
20	0x3e3a210c	0.18176669
21	0xbec012ec	-0.37514436
22	0x3e05b45d	0.13057084
23	0xbeadde08	-0.3395846
24	0x3e7a9de9	0.244743
25	0xbea7364d	-0.32658616
26	0x3eb9353a	0.3617342
27	0xbcf005a5	-0.029299567
28	0xbdbcb34d	-0.092138864
29	0xbe5d1a9a	-0.21592179
30	0x3eb8d9b3	0.3610359
31	0x3e9b770d	0.30364266
32	0xbd880447	-0.06641441
33	0x3e36f924	0.17868477
34	0x3e667765	0.22506483
35	0x3c915fd5	0.017745892
36	0x3e98f367	0.298732
37	0x3d99f386	0.075171515
38	0x3e151e36	0.14562306
39	0x3e4471f1	0.1918409
40	0xbd5bdb4a	-0.053675927
41	0x3ea636e1	0.32463744
42	0xbe9035cc	-0.28166044
43	0x3ec85bf1	0.39132646
44	0xbd134f3f	-0.035964247
45	0xbe534947	-0.20633422
46	0xbe887709	-0.26653317
47	0xbdbadf1c	-0.09124586
48	0x3ebca3aa	0.36843616
49	0xbe8d8d80	-0.27647018
50	0x3d9fb893	0.077988766
51	0x3df9e793	0.122023724
52	0xbd929983	-0.07158186
53	0xbe930ca2	-0.28720576
54	0x3e6251ec	0.22101563
55	0x3ea8f44f	0.32998893
56	0x3eaa05cb	0.33207545
57	0x3c05c303	0.00816417
58	0x3e97b931	0.29633477
59	0xbe285151	-0.1643727
60	0xbd70d459	-0.05879626
61	0x3e9fc558	0.3120525
62	0x3df72bfb	0.120689355
63	0xbdd99171	-0.10623444
64	0x3d489bee	0.04897683
65	0x3eae0188	0.33985543
66	0x39d3be35	0.0004038677
67	0xbeaeca37	-0.34138653
68	0xbc0bfcf3	-0.0085441945
69	0x3e603fd5	0.2189935
70	0x3d20729e	0.039171807
71	0xbe7ebfdb	-0.24877875
72	0xbd66f52a	-0.05638615
73	0x3d8611e6	0.065463826
74	0xbe9d49ec	-0.3072046
75	0xbe2435ee	-0.16036198
76	0x3ea26cab	0.31723532
77	0x3e54def9	0.20788182
78	0xbe800574	-0.2500416
79	0xbe92921c	-0.28627098
80	0x3e478fca	0.19488445
81	0xbe02e7e1	-0.12783767
82	0xbe0ce726	-0.13760051
83	0x3eac0037	0.33593914
84	0xbeb557d1	-0.3541856
85	0x3e941a72	0.28926426
86	0xbcb863d3	-0.022508537
87	0xbe92f07a	-0.28699094
88	0x3d706a17	0.058694925
89	0xbdc8d61c	-0.09806463
90	0xbd9607fd	-0.073257424
91	0x3e794ae0	0.24344969
92	0xbd38b314	-0.045092657
93	0x3eb0d636	0.3453843
94	0x3dbf578d	0.09342871
95	0x3e03b4d4	0.12861949
96	0xbcc4539a	-0.023965646
97	0x3e945fc8	0.28979325
98	0xbeb83fff	-0.35986325
99	0x3d70030d	0.05859666
100	0xbdb4d0ef	-0.088289134
101	0xbe4a11cc	-0.19733351
102	0xbe5163ea	-0.2044827
103	0xbe9f0f32	-0.3106628
104	0xbdbde71c	-0.09272596
105	0xbe49b9c6	-0.19699773
106	0xbe9db82b	-0.30804572
107	0xbde49e41	-0.11162997
108	0xbe2c661a	-0.16835824
109	0x3eaef79e	0.34173292
110	0x3e863768	0.26214147
111	0xbdb186d4	-0.086682945
112	0xbe900ac2	-0.28133208
113	0x3eaaca87	0.3335764
114	0x3cf0eeb3	0.029410696
115	0x3ec07712	0.37590843
116	0xbd5b2e87	-0.05351117
117	0x3e7e9ec0	0.24865246
118	0xbe256ad5	-0.16154034
119	0xbe44a41c	-0.19203228
120	0x3e8332e9	0.2562478
121	0xbeab2712	-0.33428246
122	0x3e66e404	0.22547919
123	0x3e6c5743	0.23080163
124	0xbdb2b9bb	-0.087268315
125	0xbe33ac50	-0.17546201
126	0x3ec83895	0.3910567
127	0x3eca9f24	0.3957454
128	0x3df3b648	0.11900002
129	0xbdafbc13	-0.08580794
130	0xbc8a2a24	-0.016865797
131	0x3e33a77b	0.17544357
132	0xbea7df23	-0.32787427
133	0xbddaa248	-0.10675484
134	0x3e2c9634	0.16854173
135	0x3ed3bd6b	0.41355452
136	0xbead61e7	-0.33863756
137	0x3e10823e	0.14112183
138	0x3e98d87f	0.29852673
139	0xbe57e830	-0.21084666
140	0xbe2b6fc1	-0.1674185
141	0xbe2a8e7b	-0.16655914
142	0x3bd1dab0	0.0064042434
143	0xbeb20486	-0.34769076
144	0x3e810b1b	0.25203785
145	0x3caeb441	0.021326186
146	0xbda4a104	-0.08038524
147	0xbd9bf6ed	-0.07615457
148	0x3e8b2d04	0.27182782
149	0x3baeba00	0.0053322315
150	0xbea3d71d	-0.32000056
151	0xbdeda834	-0.11604348
152	0x3ea4a29b	0.32155308
153	0x3eb79ff2	0.35864216
154	0x3e3278b1	0.17428853
155	0xbe9849ac	-0.29743707
156	0x3eb5cc6d	0.35507527
157	0x3ecb5e85	0.3972055
158	0xbeb7c50c	-0.35892522
159	0x3d3e635c	0.046481475
160	0x3e056a81	0.1302891
161	0x3e9160e3	0.2839423
162	0x3e667f12	0.22509411
163	0xbe482c6a	-0.19548193
164	0x3ea69bea	0.32540828
165	0xbe558285	-0.2085057
166	0xbe2bb35d	-0.1676764
167	0xbd374056	-0.04473909
168	0x3ec1feca	0.378897
169	0xbd900548	-0.07032257
170	0xbe8a12de	-0.2696752
171	0x3dd27a07	0.10277181
172	0x3e9a82f6	0.3017804
173	0xbdaf0bf1	-0.085471995
174	0xbeb2c3c0	-0.3491497
175	0x3e9005cb	0.2812942
176	0xbe723100	-0.23651505
177	0xbe9104a0	-0.2832384
178	0x3ec6a834	0.38800204
179	0xbe09cc5a	-0.1345686
180	0x3da1f5a3	0.079081796
181	0x3e7d4399	0.24732818
182	0xbe2cb1a7	-0.16864644
183	0xbeae4399	-0.34035948
184	0x3d7e7e32	0.062132068
185	0xbeb0ca43	-0.34529313
186	0x3e6c235e	0.23060367
187	0xbd27f284	-0.041002765
188	0xbe1e5fd9	-0.1546625
189	0xbe794bbb	-0.24345295
190	0x3ec356ea	0.38152248
191	0xbd9e7f2e	-0.07739101
192	0x3dd4a650	0.10383284
193	0x3ecf30a0	0.40466785
194	0x3e462424	0.19349724
195	0x3d4a000a	0.049316444
196	0x3d8de02c	0.06927523
197	0x3e3bba43	0.18332772
198	0xbdc1744f	-0.09446012
199	0xbdd7a98c	-0.105303854
200	0x3eb192cd	0.34682313
201	0xbe5e8b98	-0.21732938
202	0x3e4b52b0	0.19855762
203	0x3e7f8be3	0.24955706
204	0xbdb1f5c6	-0.08689456
205	0xbd7388df	-0.059456702
206	0x3eae564f	0.34050223
207	0x3e92b5d1	0.2865434
208	0x3ec0e2db	0.37673077
209	0xbe7f74f5	-0.2494696
210	0x3e06c8f2	0.13162592
211	0x3e5949f4	0.21219617
212	0xbe89373b	-0.2679995
213	0x3e83a694	0.25713027
214	0xbe19ee86	-0.15032396
215	0xbe987452	-0.29776245
216	0x3e3920e0	0.18078947
217	0x3ebe54bd	0.37174025
218	0x3eac0c94	0.33603346
219	0x3d7d6273	0.061861467
220	0xbe00c764	-0.12576061
221	0xbe60a1ec	-0.21936768
222	0xbe7fe760	-0.24990606
223	0xbd8564c0	-0.06513357
224	0x3eb01aca	0.34395438
225	0x3e7045bd	0.23464103
226	0xbe6d9927	-0.23202954
227	0x3ce683de	0.028139051
228	0xbe727a6a	-0.2367951
229	0x3eb2ef19	0.34948042
230	0x3d80a6c6	0.062818095
231	0xbe2dc7e5	-0.16970785
232	0xbe03188a	-0.1280233
233	0xbe5c50d4	-0.21515208
234	0xbda199f5	-0.07890693
235	0x3d38f43f	0.045154806
236	0x3e551ab1	0.20810963
237	0x3e7eb175	0.24872382
238	0x3d92cbd3	0.07167783
239	0xbdb10b70	-0.0864476
240	0x3d28f1ce	0.041246228
241	0xbe60721f	-0.21918534
242	0xbbad92cc	-0.0052970406
243	0x3d993f90	0.07482827
244	0x3d0eaa2b	0.034830254
245	0x3e78e080	0.2430439
246	0x3d3f7e1e	0.046751134
247	0x3e96de60	0.29466534
248	0xbe43e2cb	-0.19129483
249	0xbea14a0c	-0.31501806
250	0x3df1af88	0.11801058
251	0x3ecac1ad	0.39600888
252	0x3e45f7b8	0.19332778
253	0xbe3f85a0	-0.18703318
254	0x3eacc5ef	0.3374476
255	0x3df1721c	0.11789343

linear_relu_stack.2.weight f4 [36, 256]
0	0x3b99558c	0.0046793874
1	0x3c7a07d6	0.015260657
2	0x3cfc8487	0.030824913
3	0x3d34d6f1	0.044150297
4	0xbcb5ff52	-0.022216473
5	0xbc046c73	-0.008082497
6	0xbb94b905	-0.0045386576
7	0x3b4ea6cc	0.0031532524
8	0x3d6c3800	0.057670593
9	0x3d282a76	0.04105612
10	0x3c02e847	0.00798995
11	0x3ca128a1	0.019672694
12	0x3c0f01b8	0.008728437
13	0x3d970968	0.07374841
14	0xbd0fb809	-0.03508762
15	0x3d58ffd1	0.05297834
16	0xbd00e6eb	-0.03147022
17	0x3d5a393c	0.05327724
18	0x3cc042db	0.02346938
19	0xbc6c6abe	-0.014429746
20	0x3d034ca4	0.032055512
21	0x3d81bb04	0.063344985
22	0x3d792c78	0.060833424
23	0xbd9a711f	-0.075411074
24	0xbc948d72	-0.018133853
25	0x3d03d2c8	0.03218344
26	0xbca3dc9e	-0.02000266
27	0x3c5a89bd	0.013338503
28	0x3d6bf9d1	0.05761129
29	0xbca2103c	-0.019783132
30	0x3cecbc3f	0.028898356
31	0x3c1a0af7	0.009402028
32	0x3c4ed563	0.012624118
33	0x3d313192	0.043260165
34	0xbc9952e3	-0.018716281
35	0xbd798730	-0.06091994
36	0xbb5db7d7	-0.00338315
37	0x3d7d3652	0.061819382
38	0xbc94aeb8	-0.018149719
39	0x3d19930a	0.037493743
40	0xbc056578	-0.008141868
41	0x3c8701c4	0.016480334
42	0x3cf7ee90	0.030265123
43	0x3c4943f7	0.0122842705
44	0x3d8804ff	0.06641578
45	0x3d2bd16c	0.041947767
46	0x3d22b301	0.039721493
47	0x3daf18a2	0.0854962
48	0x3cc94769	0.024570184
49	0xbd6e5ecd	-0.058195878
50	0xbbe32c06	-0.0069327382
51	0xbcbc1fb6	-0.02296434
52	0x3c0b06bb	0.008485491
53	0xba8ad380	-0.0010591596
54	0xbc1da798	-0.009622477
55	0x3d65e9ff	0.05613136
56	0xbc18e1b7	-0.009331158
57	0x3ba6c9a7	0.005089957
58	0x3d6a3c54	0.05718644
59	0xbad801c4	-0.0016480018
60	0x3d93dc63	0.0721977
61	0x3c9266d6	0.017871302
62	0xbcdfa3b3	-0.027299738
63	0x3d1071ad	0.03526466
64	0x3dc19be1	0.0945356
65	0x3d943ed0	0.07238543
66	0xbd90a068	-0.07061845
67	0xbcc47ddc	-0.023985796
68	0xbce60b3e	-0.028081533
69	0x3d42fe08	0.047605544
70	0x3d24a8c1	0.0402
71	0x3d3da33e	0.046298258
72	0x3d0342b9	0.032046054
73	0x3bc8716e	0.0061170375
74	0xbcb491e7	-0.022042228
75	0xbc81ca28	-0.015843466
76	0x3d588cde	0.052868716
77	0x3d503c33	0.05083866
78	0xbd13585b	-0.035972934
79	0xbcca1697	-0.024668975
80	0x3d1da8e5	0.03849115
81	0xbd337767	-0.043815043
82	0x3d337c29	0.04381958
83	0x3d4c49f5	0.04987522
84	0x3d48b004	0.048995987
85	0x3d389637	0.04506513
86	0xbbabf20d	-0.0052473606
87	0x3d4e96d4	0.05043681
88	0x3d38e2e1	0.045138244
89	0x3d457242	0.048204668
90	0xbc66c7a4	-0.014085684
91	0xbc3755cf	-0.011189892
92	0x3ca4f2f3	0.020135378
93	0xbd223ed1	-0.039610688
94	0xbd4fce7d	-0.050734032
95	0x3d3a176e	0.0454325
96	0xbcbe4e7b	-0.023230782
97	0xbcbae338	-0.022813424
98	0xbcfda208	-0.030961052
99	0x3ce2e551	0.027697237
100	0x3d1148c3	0.03546978
101	0x3d0cde39	0.034391616
102	0xbc6c0b30	-0.014406964
103	0xbdcd21f5	-0.100162424
104	0x3d374388	0.044742137
105	0xbd272afb	-0.040812474
106	0xbd5db010	-0.054122984
107	0x3d1dca3e	0.03852295
108	0x3c5d0e56	0.0134921875
109	0x3d800142	0.0625024
110	0x3c62ee4c	0.01385076
111	0x3ba61b2f	0.0050691585
112	0xbd2aaeee	-0.041670732
113	0x3d06d5b1	0.032918636
114	0x3cca7da8	0.02471812
115	0x3cbcb427	0.023035122
116	0x3b3f92b7	0.0029231736
117	0x3d777fc2	0.060424574
118	0xbd1d56ec	-0.038412973
119	0xbca00b96	-0.019536775
120	0xbc84880d	-0.016178155
121	0xbd6340a2	-0.05548156
122	0xbc804a4a	-0.015660424
123	0x3cb5e052	0.02220169
124	0x3bcbc7ed	0.0062189014
125	0xbdb74b9b	-0.089499675
126	0xbd3f7944	-0.046746507
127	0xbcd1b393	-0.025598323
128	0x3cc44f13	0.023963487
129	0x3d353686	0.04424145
130	0xbc7ba15b	-0.015358294
131	0xbcb1775b	-0.021663358
132	0xbd8481ae	-0.06470047
133	0xbd18e706	-0.037329696
134	0xbcf63419	-0.030054139
135	0x3cc466b5	0.023974756
136	0xbd89171e	-0.066938624
137	0x3d42c2c3	0.04754902
138	0x3d833e61	0.06408382
139	0xbd0d7d9e	-0.034543626
140	0x3dd2cff0	0.10293567
141	0x3d26d946	0.04073455
142	0x3c43fb13	0.011961716
143	0x3cf011e5	0.029305408
144	0x3d750a6d	0.059824396
145	0x3d656e0b	0.05601315
146	0xbc9d595f	-0.019207655
147	0x3db47de0	0.08813071
148	0xbbdda41d	-0.0067639486
149	0x3aab7f06	0.0013084121
150	0x3d716996	0.058938585
151	0x3c4b2cf2	0.0124008525
152	0xb5f14250	-1.7975199e-06
153	0xbd3eff8a	-0.04663042
154	0x3d58e929	0.052956734
155	0x3d506612	0.05087859
156	0xbd23055d	-0.039800037
157	0x3ca9a2df	0.020707546
158	0xbc4f7312	-0.012661712
159	0xbd280e3b	-0.041029196
160	0x3cbcbc92	0.023039136
161	0xbb26236a	-0.0025350698
162	0x3d4c5942	0.04988981
163	0xbd64e74f	-0.055884656
164	0x3c0449e4	0.0080742575
165	0xbd38a729	-0.04508129
166	0x3d1beeab	0.03806941
167	0xbc71958b	-0.0147451265
168	0x3d140e4c	0.036146447
169	0xbccb96c3	-0.024852162
170	0x3ba9f730	0.0051869377
171	0xbcf98fc4	-0.03046406
172	0x3c180fed	0.009281141
173	0xbd835f49	-0.064146586
174	0x3d12df22	0.035857327
175	0x3d29ddee	0.041471414
176	0x3af1f07e	0.0018458513
177	0xbc5b6e08	-0.013392933
178	0xbcb26cb2	-0.021780346
179	0xbcc889b9	-0.024479734
180	0xbd096ede	-0.033552997
181	0x3c170587	0.009217626
182	0x3c94ac7c	0.018148653
183	0xbd2c8488	-0.04211858
184	0xbc5dd4d2	-0.01353951
185	0x3d0a256e	0.033727102
186	0x3c34287e	0.010995982
187	0x3c5a3c66	0.013320064
188	0xbd8a904b	-0.06765803
189	0x3bf6727c	0.007520972
190	0x3c57396c	0.013136249
191	0xbd144ab6	-0.036204062
192	0xbcb96451	-0.022630842
193	0xbcf8061c	-0.03027635
194	0x3d8d29af	0.06892716
195	0x3d884a6a	0.06654818
196	0xbc9ece0c	-0.01938536
197	0xbb9bccf7	-0.0047546583
198	0x3d4e36c1	0.050345186
199	0xbcf9fad8	-0.03051512
200	0x3d9550e4	0.07290819
201	0x3d1bf75d	0.0380777
202	0x3d4e444c	0.0503581
203	0x3d8c4b47	0.068502955
204	0xbd18ea7e	-0.037333004
205	0x3c8c70fe	0.017143723
206	0x3d1a4514	0.037663534
207	0xbcf5bd46	-0.02999748
208	0xbd1584a4	-0.03650345
209	0xbd9f7428	-0.07785827
210	0xbcac6767	-0.0210454
211	0x3d30372b	0.043021362
212	0x3d92f36d	0.07175336
213	0x3ce6a57f	0.028155087
214	0x3c38f711	0.011289374
215	0x3be24050	0.0069046393
216	0xbcabe304	-0.020982273
217	0x3c754223	0.0149693815
218	0xbc725af7	-0.0147921955
219	0x3d2133bd	0.039355982
220	0xbd2a5738	-0.041587085
221	0x3d3ae5b2	0.04562921
222	0xbcfa968f	-0.03058937
223	0x3d2ade8d	0.041716147
224	0x3d27219b	0.040803533
225	0xbc98b97e	-0.018643137
226	0xbc5c02e9	-0.013428428
227	0x3cca7c50	0.02471748
228	0xbd99ed4e	-0.075159654
229	0x3d02e14a	0.031953134
230	0xbd1e7559	-0.03868613
231	0x3c5a2db9	0.013316565
232	0xbab15747	-0.0013530039
233	0x3d7e7fa6	0.062133454
234	0xbbd968a9	-0.006634791
235	0xbbb4488f	-0.0055018137
236	0x3c9782e8	0.018495038
237	0x3bbabafa	0.005698559
238	0xbd0ce1aa	-0.034394898
239	0xbcff0567	-0.031130506
240	0xbd52de65	-0.051481623
241	0x3d36cb5e	0.04462754
242	0xbd2e7db1	-0.042600337
243	0x3ce6e16d	0.028183663
244	0xbc2760ed	-0.01021598
245	0xbc8605ea	-0.016360242
246	0x3d6272dd	0.055285323
247	0x3ceb4c8d	0.028723026
248	0xbca15da1	-0.019697966
249	0x3d2a24c0	0.041538954
250	0xbd2a7268	-0.041613013
251	0x3d4cac75	0.049969155
252	0x3d853efd	0.06506155
253	0x3d96af16	0.07357614
254	0x3c8e7d2d	0.017393673
255	0x3cb43156	0.021996181

linear_relu_stack.2.bias f4 [36]
0	0x3c6f5d6c	0.014609676
1	0xbcc32c9e	-0.023824986
2	0x3b0b87c2	0.0021290635
3	0xba8cd014	-0.0010743164
4	0xbb109a33	-0.0022064566
5	0x3c1cc49d	0.009568361
6	0x3d0ff459	0.035145137
7	0xbd36fd3d	-0.0446751
8	0x3ccb6935	0.02483044
9	0x3c25dd24	0.010123525
10	0x3cbea58f	0.023272304
11	0x3cc8012c	0.024414621
12	0xbc22c60b	-0.009934912
13	0x3bcdaf28	0.006276984
14	0x3da8167a	0.08207412
15	0x3d6a00a6	0.057129525
16	0x3c12795c	0.008940067
17	0x3c2e3397	0.010632417
18	0xbc9bbe8b	-0.019011756
19	0x3c94854c	0.018129967
20	0xbc03014f	-0.007995917
21	0xbb9cede2	-0.0047891
22	0x3d5f8cab	0.05457751
23	0xb9edfce1	-0.00045392572
24	0x3cf49235	0.029854873
25	0xbc8fee8c	-0.017569803
26	0x3d837848	0.06419426
27	0xbc3e3114	-0.011608381
28	0x3d631f8e	0.055450015
29	0x3d477419	0.048694704
30	0xbb8fcb84	-0.0043882746
31	0x3ca773a3	0.020440882
32	0xbc6742ab	-0.014115016
33	0xbd1e3311	-0.03862292
34	0xbba63d4d	-0.0050732256
35	0x3cba7602	0.022761349
