models/model_added_mass_0_wave_frequency_n6.pth (torch, 207208 bytes, 4 tensors)

linear_relu_stack.0.weight f4 [1024, 13]
0.39763686 -0.034746736 -0.27403405 0.13053183 0.055372365 -0.033195555 -0.11832853 -0.015069438
-0.11044574 0.0168724 -0.034459464 0.21745391 0.012656793 0.25595593 -0.0031391287 0.16838042
-0.13203235 0.17658061 -0.011828279 0.09808802 0.049768716 0.11691043 0.16709675 -0.27487832
-0.1931499 -0.24781315 0.00025886594 -0.23659638 0.22438602 -0.36504668 0.1972486 0.1607087
-0.1467848 -0.13373668 -0.21219657 0.3180983 0.1598183 0.19842128 -0.15435256 -0.14031455
0.028666776 0.24300821 0.1784518 -0.15823969 -0.055754792 0.12160697 0.11140591 0.021949988
0.06062111 -0.027816134 -0.17915766 -0.017167758 0.29484606 -0.10955373 -0.35529536 0.20953505
0.23789856 -0.058157995 -0.00088543823 -0.2786282 0.07267587 0.10903565 -0.033818208 0.11450394
-0.06783447 0.09486777 0.12408107 0.10165788 -0.20619354 -0.20675328 0.12612721 0.18255396
0.20108971 -0.11122587 0.18147159 -0.09737402 -0.22910003 0.007869461 0.33149287 0.18996279
-0.08316025 0.07308754 0.070531495 -0.2340224 -0.08545296 -0.113744445 -0.15234661 -0.3877563
0.018729553 0.17244668 0.08571286 -0.112878785 0.2639756 -0.17878813 -0.14586386 0.112105116
0.101314306 0.011032464 -0.1583702 -0.0036807766 -0.0593081 0.15278323 0.2246574 0.111150056
-0.10037363 -0.15512468 -0.17714992 0.18918803 -0.30004978 0.14429107 -0.2502417 0.3254227
-0.046640206 -0.0025535924 -0.11574942 -0.17064841 -0.006776293 -0.012974138 -0.083652474 -0.04321106
-0.1782511 -0.16527833 -0.109494954 -0.06076995 0.15113254 -0.2395043 -0.2992725 -0.2139023
-0.06884554 -0.17941816 0.19906938 -0.17411 -0.00081791787 -0.060749058 -0.16383748 0.1759877
0.10232585 0.104265936 -0.14246082 0.16276054 0.10534322 -0.115775295 0.21455255 0.05406439
0.21103819 0.011462592 -0.30093446 -0.049786136 0.22839268 0.2651778 -0.22537494 -0.13327889
-0.20999128 -0.05095754 -0.17543396 0.035896264 0.31580675 0.19609512 -0.017102417 0.10785329
-0.06514093 0.41065624 -0.118193 -0.10411088 0.3741903 0.11502216 -0.064715035 0.141045
-0.0817738 -0.20479734 -0.21022831 -0.043921065 -0.27261692 0.28561345 0.17072776 0.22228162
-0.2516998 0.05226451 -0.1878582 0.07399433 -0.055383503 0.09560551 0.10145469 0.30961165
0.10032626 -0.12835537 0.1206154 0.09571308 -0.14402448 -0.18584241 0.21166109 -0.2886186
0.07675036 -0.341626 0.035973202 -0.1598257 -0.12243088 -0.05704454 -0.20162901 -0.26238874
0.18307558 -0.19059466 0.047423836 -0.04365634 -0.123669006 0.17481747 -0.20797057 -0.20324183
0.022895714 0.015806628 0.17299217 -0.17927146 0.004850145 -0.31438398 0.1509213 -0.020758623
0.19564101 -0.076909184 0.10133358 -0.11248882 0.03105643 -0.050200533 -0.100833155 0.010055948
-0.07023571 -0.3477728 -0.00067466334 -0.065885805 -0.34265587 0.14389002 -0.07540692 0.046316333
0.009648868 0.2261712 -0.09677562 -0.008993605 -0.01566967 0.17507774 0.09104645 0.15050457
-0.04787844 -0.012210269 -0.08491128 0.21947774 -0.14752968 0.10952722 0.05375424 0.005869781
0.14545214 -0.24377617 -0.04255275 0.10339132 0.16232133 0.104697354 -0.022798762 0.17264172
00000000: 0f97 cb3e 9852 0ebd 314e 8cbe 23aa 053e
00000010: 22ce 623d 10f8 07bd 3a56 f2bd cee5 76bc
00000020: 6031 e2bd fd37 8a3c 5e25 0dbd 3dac 5e3e
00000030: 705e 4f3c a80c 833e d7b9 4dbb eb6b 2c3e
00000040: 7d33 07be 8cd1 343e 66cb 41bc 5fe2 c83d
00000050: 48da 4b3d bc6e ef3d 691b 2b3e dabc 8cbe
00000060: 16c9 45be bbc2 7dbe 66b8 8739 5246 72be
00000070: 73c5 653e 66e7 babe 89fb 493e d290 243e
00000080: c14e 16be 45f2 08be 0f4a 59be c8dd a23e
00000090: 69a7 233e f32e 4b3e 990e 1ebe 9eae 0fbe
000000a0: 96d6 ea3c 25d7 783e 12bc 363e 9609 22be
000000b0: 235f 64bd 130d f93d c828 e43d 76d0 b33c
000000c0: d74d 783d a9de e3bc 1b75 37be 66a3 8cbc
000000d0: 10f6 963e b55d e0bd 46e9 b5be 5b90 563e
000000e0: ae9b 733e 1437 6ebd c11c 68ba 5ba8 8ebe
000000f0: 16d7 943d 154e df3d f684 0abd 0b81 ea3d
00000100: ccec 8abd 094a c23d 371e fe3d 0232 d03d
00000110: 6624 53be 22b7 53be 7e27 013e 6def 3a3e
00000120: 76ea 4d3e 64ca e3bd b0d3 393e 086c c7bd
00000130: 3399 6abe e9ee 003c 6fb9 a93e 9b85 423e
00000140: ec4f aabd ecae 953d d172 903d 91a3 6fbe
00000150: f601 afbd d9f2 e8bd c000 1cbe fe87 c6be
00000160: b86e 993c dd95 303e 398a af3d fe2c e7bd
00000170: cf27 873e 3c14 37be 565d 15be 5e97 e53d
00000180: e07d cf3d 82c1 343c cc2b 22be 2f39 71bb
00000190: 0ded 72bd 3573 1c3e 970c 663e a4a2 e33d
000001a0: b190 cdbd 01d9 1ebe ca66 35be 82ba 413e
000001b0: 20a0 99be 0ac1 133e ae1f 80be ce9d a63e
000001c0: cd09 3fbd 2c5a 27bb 080e edbd 75be 2ebe
000001d0: aa0b debb 7b91 54bc fd51 abbd 15fe 30bd
000001e0: 7587 36be b93e 29be e43e e0bd e9e9 78bd
000001f0: 7dc2 1a3e 9d40 75be 3f3a 99be 3409 5bbe
00000200: e4fe 8cbd 65b9 37be d8d8 4b3e e449 32be
00000210: 8a69 56ba 01d4 78bd 03c5 27be 1f36 343e
00000220: 3790 d13d 6189 d53d 40e1 11be b3aa 263e
00000230: 30be d73d 991b edbd aab3 5b3e 9f72 5d3d
00000240: 651a 583e 98cd 3b3c 1514 9abe 8cec 4bbd
00000250: c5df 693e 62c5 873e b0c8 66be 437a 08be
00000260: f407 57be dab8 50bd f6a4 33be f607 133d
00000270: 6cb1 a13e 29cd 483e 5e1a 8cbc 30e2 dc3d
00000280: 9c68 85bd 8941 d23e 2c0f f2bd 1638 d5bd
00000290: df95 bf3e bd90 eb3d 5189 84bd 1a6e 103e
000002a0: 0679 a7bd 65b6 51be 1746 57be 93e6 33bd
000002b0: 7294 8bbe ed3b 923e 42d3 2e3e cb9d 633e
000002c0: ccde 80be 5013 563d e65d 40be 578a 973d
000002d0: d0d9 62bd d2cc c33d 7ac7 cf3d 6b85 9e3e
000002e0: db77 cd3d 976f 03be 3505 f73d 3805 c43d
000002f0: 277b 13be 794d 3ebe afbd 583e d1c5 93be
00000300: 4b2f 9d3d 9ae9 aebe a358 133d 59a9 23be
00000310: 0bbd fabd 89a7 69bd d677 4ebe d157 86be
00000320: 2a78 3b3e 3f2b 43be 7f3f 423d fed0 32bd
00000330: 2d46 fdbd 5a03 333e 3df6 54be a01e 50be
00000340: cb8f bb3c e77c 813c dc24 313e f092 37be
00000350: f7ed 9e3b f0f6 a0be 1d8b 1a3e fd0d aabc
00000360: 1e56 483e 9082 9dbd fb87 cf3d 8a60 e6bd
00000370: 0e6a fe3c 139f 4dbd 9d81 cebd b4c1 243c
00000380: bdd7 8fbd 470f b2be e4db 30ba 23ef 86bd
00000390: 9770 afbe e857 133e f16e 9abd 32b6 3d3d
000003a0: 4916 1e3c 6c99 673e 4c32 c6bd ea59 13bc
000003b0: ae5d 80bc 9447 333e 9076 ba3d df1d 1a3e
000003c0: 2f1c 44bd 950d 48bc f7e5 adbd c6be 603e
000003d0: 0512 17be cf4f e03d 682d 5c3d 4b57 c03b
000003e0: 68f1 143e 76a0 79be cb4b 2ebd d4be d33d
000003f0: 9037 263e 916b d63d 78c4 babc fec8 303e

linear_relu_stack.0.bias f4 [1024]
-0.07326783 -0.13710205 -0.09188008 0.08631064 -0.12198281 0.061877523 -0.07226748 -0.12881446
0.001161237 0.24893911 0.14927714 0.037771605 -0.15669341 0.18482181 -0.020619977 0.19236742
-0.024806224 -0.29222882 0.17846254 0.24369188 -0.20532966 0.15708524 0.011004521 0.04313284
0.25132805 -0.14401652 -0.21938108 0.08127347 -0.11157751 0.014470571 -0.15956897 0.15354058
0.22998141 -0.17268296 -0.16379602 0.056489415 0.27241668 0.09862658 0.10421877 -0.03576439
-0.07127442 -0.042140577 0.04553375 0.074374296 0.21426341 0.23179916 0.07121868 0.23519082
-0.21668054 0.0042547593 0.09620803 0.22828352 0.09966112 -0.11244462 0.27799243 -0.22295235
0.14845951 -0.18505804 0.1358678 0.23039289 0.08105377 0.22516848 0.051820096 0.07296236
0.15649542 0.26177618 0.07645002 0.1934518 0.14354151 0.08091666 -0.20929231 0.09830626
0.062328752 0.03238854 0.120881744 0.08511631 0.0061418554 0.18129872 0.067196436 -0.1083627
0.15028383 0.16609864 0.2511297 -0.055915248 -0.12801294 -0.21744317 0.18174352 0.059225507
-0.11827137 0.18783702 -0.036760435 0.18566245 0.2704107 -0.19852953 0.2755538 0.27224147
-0.038600545 0.013262661 0.119615205 -0.19495463 0.07316742 -0.16591273 -0.1025649 -0.27341974
-0.23294188 0.01873279 -0.14595741 -0.23607706 -0.018862579 -0.26117465 -0.17500412 0.046192117
-0.14289157 -0.10286282 -0.17341694 0.16261008 0.105878524 0.17608093 -0.10057245 0.2579876
-0.3023426 0.15916963 0.14497207 0.25093988 -0.2933559 0.011219543 -0.23432821 -0.01907337
0.099948645 0.23389225 -0.171959 -0.0010580698 -0.017554037 -0.06144237 0.17785832 -0.13170509
0.25135025 -0.22464801 -0.008142687 0.021779256 -0.19083804 -0.20134558 -0.13290438 -0.082928196
-0.23649804 0.15526871 -0.2722416 -0.008994048 0.03896639 0.019503174 -0.24088517 0.2021511
0.26084873 0.27238753 0.15434352 0.20758882 0.1663739 0.06256062 0.07057092 -0.068940334
-0.14270389 0.11373725 -0.25097516 0.2630349 -0.29121315 -0.064347036 -0.09061117 0.21176189
0.08438671 0.08382229 0.08236916 -0.16710502 0.12248895 -0.18259007 0.1716274 -0.08492687
0.28483474 -0.05911374 0.12388263 -0.15357704 0.07894253 0.2566431 -0.11586587 0.04904655
-0.06862538 0.12121625 -0.11172307 -0.22905716 0.08906411 0.15163808 0.0038968548 0.24078308
0.14547719 0.2129133 -0.09158221 -0.30755308 0.26316044 -0.22371669 0.24452774 0.07277023
-0.18727736 0.09456951 0.17288262 0.107160084 0.16722707 -0.19281003 -0.20731032 0.25680265
0.08248488 0.2694304 -0.07997482 -0.118567884 0.0708569 -0.13049202 0.057840202 0.22788793
-0.2137748 -0.2580199 -0.25379354 0.18609561 0.039990827 0.1488409 0.094443075 0.11413338
-0.20165052 -0.18654746 0.23909414 -0.11766117 0.045179214 0.123596095 -0.08419548 0.15038045
0.06568658 -0.1402006 0.18883051 -0.20414722 -0.1507505 -0.0054657147 -0.11445637 -0.1760115
-0.25613526 0.27804154 0.098270684 0.23715465 0.21056704 -0.034278367 -0.22267644 -0.25257432
0.009729082 -0.20626344 0.15145084 0.036864314 -0.24424125 0.07275652 -0.00039094072 -0.073647976
00000000: 720d 96bd 7b64 0cbe a02b bcbd a2c3 b03d
00000010: 20d2 f9bd 4973 7d3d f900 94bd f0e7 03be
00000020: a634 983a e5e9 7e3e 1bdc 183e 66b6 1a3d
00000030: 3d74 20be ee41 3d3e 3aeb a8bc f7fb 443e
00000040: 6c36 cbbc 049f 95be e2be 363e 5d8a 793e
00000050: f041 52be f4da 203e 4e4c 343c 10ac 303d
00000060: 12ae 803e 1179 13be 6fa5 60be b472 a63d
00000070: c082 e4bd f915 6d3c 0c66 23be be39 1d3e
00000080: 3f80 6b3e cdd3 30be 25ba 27be 7261 673d
00000090: 337a 8b3e bbfc c93d a770 d53d ae7d 12bd
000000a0: 53f8 91bd 999b 2cbd 9981 3a3d 8d51 983d
000000b0: de67 5b3e c25c 6d3e 19db 913d ddd5 703e
000000c0: 81e1 5dbe 826b 8b3b b708 c53d 28c3 693e
000000d0: 211b cc3d 5d49 e6bd 0655 8e3e 9f4d 64be
000000e0: c505 183e db7f 3dbe ee20 0b3e 1dec 6b3e
000000f0: 85ff a53d 9192 663e 4f41 543d 4a6d 953d
00000100: 5640 203e 8707 863e d491 9c3d 3b18 463e
00000110: 8cfc 123e a2b7 a53d b950 56be cb54 c93d
00000120: 6f4c 7f3d d9a9 043d d990 f73d 7651 ae3d
00000130: 9e41 c93b 5fa6 393e 499e 893d 43ed ddbd
00000140: 01e4 193e c315 2a3e 1294 803e 6307 65bd
00000150: d315 03be 6ca9 5ebe f91a 3a3e 7296 723d
00000160: 4338 f2bd 5958 403e 1c92 16bd 4c1e 3e3e
00000170: 4573 8a3e 534b 4bbe 6315 8d3e 3c63 8b3e
00000180: 9b1b 1ebd a24b 593c d1f8 f43d 30a2 47be
00000190: cdd8 953d 07e5 29be 8c0d d2bd acfd 8bbe
000001a0: 5188 6ebe 8275 993c dc75 15be 2fbe 71be
000001b0: b285 9abc afb8 85be 4834 33be f233 3d3d
000001c0: 2b52 12be bea9 d2bd 3694 31be 4283 263e
000001d0: d7d6 d83d 8f4e 343e eef8 cdbd f316 843e
000001e0: a6cc 9abe 5dfd 223e 8f73 143e 317b 803e
000001f0: bf32 96be 2dd2 373c bcf3 6fbe c23f 9cbc
00000200: e0b1 cc3d 7381 6f3e 0516 30be eeae 8aba
00000210: 7ccd 8fbc ffaa 7bbd 7e20 363e b3dd 06be
00000220: fbb0 803e 210a 66be e868 05bc 696a b23c
00000230: 0c6b 43be 892d 4ebe 1618 08be 42d6 a9bd
00000240: 8b2c 72be c3fe 1e3e 4063 8bbe c65b 13bc
00000250: 399b 1f3d 1fc5 9f3c 9aaa 76be b300 4f3e
00000260: f78d 853e 6176 8b3e 3a0c 1e3e 2a92 543e
00000270: eb5d 2a3e c81f 803d 7d87 903d 9730 8dbd
00000280: f820 12be 13ef e83d d17f 80be 83ac 863e
00000290: e419 95be 61c8 83bd 5992 b9bd 1cd8 583e
000002a0: f0d2 ac3d 05ab ab3d 2ab1 a83d 941d 2bbe
000002b0: 7ddb fa3d e4f8 3abe 18bf 2f3e 24ee adbd
000002c0: dcd5 913e 4021 72bd 2db6 fd3d 4d43 1dbe
000002d0: 9fac a13d b966 833e 164b edbd 09e5 483d
000002e0: 778b 8cbd 3a40 f83d 11cf e4bd f68d 6abe
000002f0: 3e67 b63d 0347 1b3e 6062 7f3b d78f 763e
00000300: f9f7 143e f205 5a3e 748f bbbd 9977 9dbe
00000310: f7bc 863e fd15 65be 7b65 7a3e 8f08 953d
00000320: a3c5 3fbe a9ad c13d 2408 313e bf76 db3d
00000330: 933d 2b3e fe6f 45be 2849 54be a37b 833e
00000340: d5ed a83d c8f2 893e d7c9 a3bd b8d3 f2bd
00000350: 6c1d 913d b39f 05be d9e9 6c3d 745b 693e
00000360: c8e7 5abe 2f1b 84be 3af1 81be d98f 3e3e
00000370: 6ccd 233d c069 183e 5f6b c13d c3be e93d
00000380: 797d 4ebe 4c06 3fbe 18d5 743e 57f8 f0bd
00000390: d70d 393d f31f fd3d ae6e acbd 55fd 193e
000003a0: b086 863d bf90 0fbe c95c 413e f80b 51be
000003b0: 575e 1abe bd19 b3bb 1a68 eabd 5c3c 34be
000003c0: 2924 83be 765b 8e3e 2442 c93d abd8 723e
000003d0: e39e 573e 7967 0cbd 4b05 64be 6c51 81be
000003e0: ba66 1f3c b936 53be ee15 1b3e 09ff 163d
000003f0: 611a 7abe 5f01 953d 2df7 ccb9 c0d4 96bd

linear_relu_stack.2.weight f4 [36, 1024]
-0.036808982 -0.069470786 -0.08179928 0.040257517 -0.039921172 -0.018760785 0.014033234 0.09218959
0.11419777 -0.023424719 -0.026490374 0.003733446 0.07868013 0.0036387253 0.09758839 0.021065006
0.027371434 0.005713413 0.0042288355 -0.0064222068 -0.09202702 0.029127954 0.045210905 -0.022812258
-0.029698342 0.01787433 0.0033927374 0.013957552 0.017141866 -0.053469833 -0.00492895 -0.0043968926
-0.02183291 -0.021089267 -0.013124015 -0.015773308 -0.007524133 -0.010731375 -0.026112132 -0.02561
0.033340555 0.049652565 -0.008702649 -0.008837482 -0.024904761 0.014493662 -0.09226785 -0.023667123
0.08517286 0.024861129 -0.020953897 0.021232834 -0.002042531 0.1289073 0.022155654 0.023925122
0.040161442 0.04412213 -0.011321746 -0.03113007 -0.055188686 0.010003008 0.013215191 -0.028044725
-0.009337344 0.04722804 0.0895662 -0.089429006 -0.019255087 -0.0416032 0.14134257 0.0011377988
-0.0012879997 -0.007740409 -0.023746904 -0.041875504 0.03128317 -0.0069282143 -0.021216441 -0.084989235
0.01585374 0.012923784 -0.013128916 0.05530832 -0.094862275 0.012625976 0.009643591 0.010695296
0.057403475 -0.013467319 0.037549403 0.010842713 0.01859478 0.15664719 0.02939839 -0.0015177197
-0.025819449 -0.028579984 0.012016283 -0.24928059 0.03885283 -0.0254413 0.06369608 0.016660323
-0.12441533 0.07302251 0.074504666 -0.028268658 0.08831397 0.19215845 0.04587982 -0.018918794
0.012048517 0.07196201 -0.020997697 0.0030381598 -0.0023561954 -0.03364612 0.016406411 0.011047921
0.18787889 -0.01937454 -0.025033277 -0.006431289 0.054518756 -0.014869875 0.008100867 -0.06349793
0.045701668 0.058206964 0.11683693 -0.04167852 0.009017643 -0.085319534 -0.026315635 -0.056289896
0.051788226 0.057049565 0.018519925 -0.07449883 -0.051226858 0.12249895 0.061781034 0.15138365
-0.018329568 0.041923933 0.1863617 -0.026489167 0.048387393 0.08411519 0.024600301 -0.01297075
0.015942536 0.0056270463 0.074613705 -0.018847803 -0.018577259 0.0036555857 0.0074100476 -0.010110091
-0.13779722 -0.02253418 0.030848455 0.022799604 0.06660007 -0.06404623 -0.09416247 0.016420435
0.10949204 0.0068736686 0.03974412 -0.12421912 0.005668351 0.07765869 -0.024792865 0.06583595
0.01479857 -0.18682365 -0.0035848215 0.010533135 0.004306986 0.029896455 0.17509644 -0.025612237
0.08654669 -0.0072578317 -0.014679119 0.18738341 -0.01122736 0.00427371 0.039066225 0.0032281037
-0.02536169 -0.004415951 0.038715918 -0.03873664 -0.0052910442 0.0074430294 0.020780748 0.0017979447
-0.016279757 -0.009744622 0.0194434 -0.009314921 -0.003177402 -0.057097618 -0.017992638 0.0089966655
0.01311009 0.025696468 -0.04192787 0.09649995 0.08637953 0.01618299 -0.021110998 -0.025305815
0.006344636 -0.10261693 0.0364152 0.018656455 0.0036617478 -0.018313833 0.034049347 -0.022268873
0.016789123 0.05006199 -0.0070401332 -0.11716578 -0.0037271727 0.00074481923 -0.05830204 -0.011223207
-0.024091871 0.04643581 0.013265221 -0.04648496 -0.07668195 0.05443991 0.0025610572 -0.038079098
-0.019315872 0.039872803 -0.045449227 -0.007247006 0.009697232 -0.019453866 -0.017735213 0.021963114
-0.004309454 0.055348344 0.030135758 -0.0497852 0.010192739 0.022648422 -0.00598315 -0.104356624
00000000: 04c5 16bd b346 8ebd 6286 a7bd 11e5 243d
00000010: 6284 23bd 38b0 99bc a6eb 653c e5cd bc3d
00000020: 85e0 e93d 32e5 bfbc 5702 d9bc d4ac 743b
00000030: 0c23 a13d ae77 6e3b 6cdc c73d 8590 ac3c
00000040: 0f3a e03c 9537 bb3b 0b92 8a3b 6071 d2bb
00000050: aa78 bcbd bf9d ee3c 122f 393d c6e0 babc
00000060: f049 f3bc 306d 923c b058 5e3b 37ae 643c
00000070: 196d 8c3c 2f03 5bbd 0883 a1bb cf13 90bb
00000080: eeda b2bc 66c3 acbc 1c06 57bc 0637 81bc
00000090: 018d f6bb a6d2 2fbc 1ce9 d5bc 10cc d1bc
000000a0: 1b90 083d 7d60 4b3d 8e95 0ebc 16cb 10bc
000000b0: 1205 ccbc d376 6d3c edf6 bcbd 8ee1 c1bc
000000c0: 1c6f ae3d 91a9 cb3c 82a7 abbc 7bf0 ad3c
000000d0: fcdb 05bb 4600 043e c67f b53c 9efe c33c
000000e0: 5380 243d 68b9 343d d87e 39bc 7d04 ffbc
000000f0: 880d 62bd a8e3 233c 8784 583c 0dbe e5bc
00000100: a9fb 18bc 3072 413d 7c6e b73d 8e26 b7bd
00000110: d8bc 9dbc 1e68 2abd 1bbc 103e 3122 953a
00000120: 19d2 a8ba 42a3 fdbb de88 c2bc a685 2bbd
00000130: c822 003d 1306 e3bb 1ace adbc d60e aebd
00000140: b4df 813c 47be 533c aa1a 57bc fa8a 623d
00000150: 2747 c2bd 2fdd 4e3c 2700 1e3c 533b 2f3c
00000160: e81f 6b3d 08a6 5cbc 67cd 193d a2a5 313c
00000170: 1454 983c 1f68 203e e4d4 f03c 39ee c6ba
00000180: 4f83 d3bc 9220 eabc f2df 443c 6943 7fbe
00000190: 2524 1f3d 466a d0bc 1773 823d 3b7b 883c
000001a0: 77cd febd d38c 953d e795 983d ac93 e7bc
000001b0: f4dd b43d 2fc5 443e 7aec 3b3d 96fb 9abc
000001c0: 2567 453c d160 933d 5d03 acbc dd1b 473b
000001d0: 666a 1abb 84d0 09bd bd66 863c 5702 353c
000001e0: 5363 403e 5bb7 9ebc 9612 cdbc 90bd d2bb
000001f0: 0f4f 5f3d c7a0 73bc 80b9 043c 340b 82bd
00000200: ac31 3b3d 6d6a 6e3d 3348 ef3d 19b7 2abd
00000210: bcbe 133c 02bc aebd e393 d7bc 3c90 66bd
00000220: e41f 543d ceac 693d 19b7 973c d892 98bd
00000230: 41d3 51bd bbe0 fa3d 1c0e 7d3d 5104 1b3e
00000240: e427 96bc 6eb8 2b3d 9ad5 3e3e cfff d8bc
00000250: dc31 463d 9644 ac3d 9286 c93c 4583 54bc
00000260: ec99 823c 1663 b83b 12cf 983d b566 9abc
00000270: 562f 98bc 8d92 6f3b fccf f23b cca4 25bc
00000280: b71a 0dbe 9a99 b8bc e6b5 fc3c 3cc6 ba3c
00000290: 9e65 883d ab2a 83bd 41d8 c0bd 2684 863c
000002a0: 5d3d e03d 833c e13b bbca 223d 9866 febd
000002b0: 93bd b93b 850b 9f3d 681a cbbc 00d5 863d
000002c0: b475 723c b34e 3fbe 53ef 6abb 2c93 2c3c
000002d0: 9e21 8d3b 69e9 f43c 7b4c 333e c1d0 d1bc
000002e0: 643f b13d 1bd3 edbb b080 70bc 70e1 3f3e
000002f0: f6f2 37bc 7a0a 8c3b e803 203d 988e 533b
00000300: 52c3 cfbc afb3 90bb 9594 1e3d 50aa 1ebd
00000310: 7f60 adbb a8e4 f33b 633c aa3c 03a9 eb3a
00000320: 205d 85bc e8a7 1fbc c447 9f3c 9c9d 18bc
00000330: f63b 50bb 31df 69bd 4c65 93bc c066 133c
00000340: b4cb 563c 6681 d23c 8fbc 2bbd c4a1 c53d
00000350: c0e7 b03d 3192 843c f9f0 acbc 244e cfbc
00000360: aae6 cf3b d328 d2bd 1b28 153d 6cd5 983c
00000370: eff9 6f3b e406 96bc 5477 0b3d 366d b6bc
00000380: 5889 893c cd0d 4d3d ebb0 e6bb 9df4 efbd
00000390: 9543 74bb f93f 433a 1fce 6ebd 8be1 37bc
000003a0: 515c c5bc 7a33 3e3d 5f56 593c 0367 3ebd
000003b0: 6d0b 9dbd 62fc 5e3d 69d7 273b d4f8 1bbd
000003c0: 523c 9ebc aa51 233d f828 3abd 4b78 edbb
000003d0: 24e1 1e3c b75d 9fbc 7049 91bc fdeb b33c
000003e0: 5236 8dbb f2b4 623d 44df f63c 91eb 4bbd
000003f0: 72ff 263c 2f89 b93c 4d0e c4bb edb8 d5bd

linear_relu_stack.2.bias f4 [36]
0.009464695 -0.01744401 -0.021181487 0.017519146 -0.015020237 0.019644752 -0.02324952 0.019530298
0.034869432 0.027861437 0.0054132594 0.018642897 -0.0027982483 -0.0015394292 -0.02731073 0.03445873
-0.01944298 -0.008293168 0.008600018 0.026257826 0.01732606 0.0024765602 -0.0057165804 0.017087149
0.033476193 0.040769085 -0.018376688 -0.019669663 -0.001224587 0.021415472 0.017329428 0.014859717
-0.0009035504 -0.007766653 -0.0008705923 -0.008150124
00000000: cf11 1b3c bee6 8ebc cc84 adbc 5084 8f3c
00000010: 7117 76bc 08ee a03c c775 bebc 01fe 9f3c
00000020: 40d3 0e3d ab3d e43c b661 b13b fdb8 983c
00000030: d162 37bb acc6 c9ba c1ba dfbc 9924 0d3d
00000040: e246 9fbc 11e0 07bc 17e7 0c3c a71a d73c
00000050: 62ef 8d3c c94d 223b 2752 bbbb 59fa 8b3c
00000060: 551e 093d 7cfd 263d b58a 96bc 4622 a1bc
00000070: 5282 a0ba 806f af3c 72f6 8d3c 2c76 733c
00000080: 3edc 6cba 687f febb 7638 64ba 1988 05bc
