models/model_potential_damping_n11.pth (torch, 63848 bytes, 4 tensors)

linear_relu_stack.0.weight f4 [256, 23]
000000 83 2b 0a 3e 54 d1 2a 3e 1e 09 2b 3e 8a 55 14 be
       0.13493161 0.16681415 0.16702697 -0.14485756
000010 8a fa a3 3c 23 7f c1 bd e1 23 a5 3d 67 a0 84 bd
       0.020016927 -0.094480775 0.08063484 -0.06475907
000020 c6 d8 19 3e 5d 89 57 3d f8 7f e0 bd 9c af e9 bd
       0.15024099 0.052621234 -0.10961908 -0.11410448
000030 9b 52 0e be 18 09 1e 3e 21 be 95 bd 3f 8a 7c 3d
       -0.13898699 0.15433156 -0.07311655 0.06165528
000040 42 40 06 be 93 29 3f be e0 52 1c be d5 2b 01 be
       -0.1311045 -0.18668203 -0.1526599 -0.12614377
000050 b2 8a e5 bd a1 1c 9d bc 89 ae b5 be 46 fc 04 be
       -0.11208095 -0.01917869 -0.35484722 -0.1298686
000060 f0 d1 15 be 9a 5b 56 bd 96 af f5 bd 15 55 71 bc
       -0.14630866 -0.05233345 -0.11996381 -0.014729758
000070 50 4e 1b be 52 69 ea bd 77 49 9e bb 13 60 d0 bc
       -0.15166593 -0.114458695 -0.004830535 -0.025436437
000080 0f c9 25 3e 9e 06 43 3e 8b b2 5b 3e 0f 2d 16 be
       0.16189979 0.19045493 0.21454827 -0.14665626
000090 46 80 dc 3d 21 64 8f 3c 72 c7 bc bd dd 47 d9 3c
       0.10766654 0.0175038 -0.09217729 0.026523525
0000a0 47 32 59 3e ea 79 e5 3d fa ef f3 3d 0e 0c 2d 3e
       0.21210586 0.11204894 0.11911006 0.1689913
0000b0 a4 a4 99 bd 47 c6 53 3e 68 c0 ca bd 33 3e 22 be
       -0.07502106 0.20681106 -0.0989998 -0.1584404
0000c0 a7 2a 3c 3d f6 17 b7 bb 09 08 70 bc 6e e0 65 bd
       0.045939114 -0.005587573 -0.014650353 -0.056122236
0000d0 93 be 28 3e 01 b8 fe bd 87 3f 2d 3d 75 49 1e bc
       0.16478948 -0.1243744 0.042296913 -0.009661068
0000e0 35 31 0c 3e 77 e3 92 3d dc 30 30 3d 7f bb d6 3d
       0.13690646 0.07172292 0.043015346 0.10484981
0000f0 ef 45 ab 3b 1f 6e f8 3c 1b 52 91 3c 21 9c e6 3d
       0.0052268426 0.030325947 0.017739346 0.11260248
000100 fe 05 16 be 12 d7 06 3e 22 b7 f8 bd eb 2b ca 3d
       -0.14650723 0.1316798 -0.12144305 0.09871658
000110 4a ec a0 be 28 0c 34 3c 2c 36 95 3c 15 fe 1a 3e
       -0.31430274 0.010989226 0.018214308 0.15135987
000120 5c a4 8c bc c3 9c 29 be 9b 2d 20 3e 84 80 15 3d
       -0.017168216 -0.16563706 0.15642397 0.036499515
000130 53 5a 59 be b3 e4 92 bd fc 2f 07 3e 74 e4 15 be
       -0.21225862 -0.07172527 0.13201898 -0.14637929
000140 07 76 31 be 3e 83 4e be 4a a8 0d be 49 ac 1c be
       -0.1733018 -0.20167252 -0.13833728 -0.15300097
000150 93 82 e0 bb 05 93 14 3e fe 96 11 3c 79 b0 71 bd
       -0.006851503 0.14509209 0.008886097 -0.059006188
000160 1c 39 25 be 62 3e 56 bd 28 5c 4a 3e c9 36 19 be
       -0.16135067 -0.052305587 0.19761717 -0.14962305
000170 c2 b8 8b bd 4d 5b 52 3e e3 aa 86 bd 19 7c 0a be
       -0.06822349 0.20542641 -0.06575563 -0.13523902
000180 c7 c2 48 3e b1 a9 09 be b3 16 f3 bd aa 9f ce 3d
       0.19605552 -0.13443638 -0.11869564 0.10089047
000190 80 05 06 be 2f bc 2b 3e 5e d1 2c bd cd 08 be 3d
       -0.13088036 0.16771005 -0.042191856 0.09279022
0001a0 14 a7 d6 bd 98 e1 b8 bc 4d 68 45 be 8c 7a 1c be
       -0.104810864 -0.022568509 -0.19278069 -0.15281123
0001b0 ee db 16 3e 3f ab 72 bd 5b f3 a7 bd 94 61 7c 3d
       0.14732334 -0.059245344 -0.08200713 0.061616495
0001c0 e3 13 1a bc 6a 5f 01 3e 45 ba b6 bd c1 af 17 be
       -0.009404155 0.12634054 -0.08922247 -0.14813139
0001d0 2f 7c ba bc fb ff 80 3d 78 35 9a bb 80 f5 e0 bd
       -0.022764293 0.062988244 -0.004706081 -0.109843254
0001e0 20 38 83 3d dd b7 4b 3e 03 26 88 bd b3 46 66 3d
       0.06407189 0.19894357 -0.06647875 0.056219768
0001f0 b6 91 fc 3c a6 87 30 bc 2b 60 2f be 09 96 3f be
       0.0308312 -0.010774529 -0.17126529 -0.18709578
000200 e1 3a 35 be 7e 04 b3 bd 52 55 ba 3d c0 58 3f 3e
       -0.17698242 -0.08741091 0.09098305 0.18686199
000210 89 bc 1a be e0 7f 0c 3e 0a 3d 2e 3d 41 61 18 3e
       -0.15110983 0.13720655 0.04253868 0.1488085
000220 0d 64 22 bd 24 e3 88 bc cb 6f 63 bc 7d f0 59 bc
       -0.039646197 -0.016709872 -0.013881634 -0.013301966
000230 3d 91 fe bd fd 41 f4 3d b2 06 27 be af 77 b6 3d
       -0.12430046 0.11926649 -0.16311148 0.089095466
000240 50 30 78 bd 65 f9 77 3e ac 97 1b bd 28 3a 32 be
       -0.06059295 0.2421623 -0.037986442 -0.17404997
000250 61 bc a5 3d 79 6f f5 3d f5 4a 94 3d 52 b5 fd bb
       0.08092571 0.11984152 0.072408594 -0.0077425623
000260 09 c8 8b 3a 05 b3 cf 3c fe 0b 59 3e 70 33 ff 3d
       0.0010664474 0.025353918 0.21195981 0.12460983
000270 d8 22 12 be 5c 6d 53 3e af 10 af 3d c7 bb f7 3c
       -0.14271104 0.20647186 0.08548104 0.030240906
000280 0d b5 71 be f2 a8 55 3d a4 5f 92 bb 99 60 33 3d
       -0.23604222 0.052163072 -0.0044669677 0.043793295
000290 54 b6 35 3e fd 17 f2 3d 8a 3a bd bd 77 11 0e 3e
       0.17745334 0.11820982 -0.09239681 0.1387385
0002a0 27 3b e6 3d 7e 06 09 3e 4d 73 51 bd 23 1b e8 bd
       0.11241751 0.13381383 -0.05113535 -0.11333301
0002b0 ae f8 c5 3d 24 f0 44 be 74 6e 12 3d ad 08 a4 3d
       0.096665725 -0.19232231 0.035749868 0.08009467
0002c0 5f 3d 5d bd f3 46 f3 3c 17 9f 14 bd 90 1e 4c bd
       -0.054013606 0.029696917 -0.036284532 -0.049833834
0002d0 38 74 38 bc 06 e4 43 3e f2 f9 88 3d 3c 69 37 bc
       -0.011258177 0.19129953 0.06688298 -0.011194523
0002e0 c1 c6 05 3d 77 3b db bc 9d e1 b6 3c e5 19 f2 bd
       0.03266025 -0.026761753 0.022324378 -0.11821345
0002f0 f4 e2 1a 3d 4c a8 21 3e e1 37 16 3e e3 6d d8 bc
       0.037814096 0.15786856 0.14669754 -0.026419586
000300 80 cb 57 bc 50 8d 17 bd 0e be e9 bd 1f b9 1f 3e
       -0.013171077 -0.037 -0.11413203 0.15597962
000310 00 ef 6f bd a0 c7 36 bd 0e d7 d9 3c d5 67 04 3e
       -0.058577538 -0.04462397 0.026591804 0.12930234
000320 8c 57 13 3e 85 55 a2 3d 1e 46 30 bb 37 1e b9 bc
       0.14388865 0.07926468 -0.0026897262 -0.022597415
000330 4b 6c 1f be 1f f1 e8 bd 9a 1a 6d 3c 7b 35 2c 3e
       -0.15568654 -0.11374115 0.014471674 0.16817276
000340 2b 39 19 3e 5b 91 b5 bd 48 ad d2 bc c9 b6 4f 3e
       0.14963214 -0.08865615 -0.025717393 0.20284571
000350 7e 2e 8d 3d 95 d7 18 3e 34 0a 73 3d ef 3f c8 bd
       0.06893633 0.14925988 0.059335902 -0.09777819
000360 80 e2 84 bd 42 39 e1 bd 45 f9 36 3e 16 ec 48 be
       -0.06488514 -0.10997249 0.17868526 -0.1962131
000370 8f fa 04 3e 6a a4 cd bd 10 b2 35 bc b5 31 3a 3e
       0.12986206 -0.10041125 -0.011089817 0.18183024
000380 67 01 55 3e cc 52 37 3d c5 f6 36 3e 2e 29 05 be
       0.20801316 0.044756696 0.17867573 -0.1300399
000390 f8 80 81 bd ed 7f 55 be b6 7d 09 3e f1 07 91 3c
       -0.06323427 -0.20849581 0.13426861 0.017703982
0003a0 e2 ec 20 3e 5a 8e 77 3c e0 7a bd 3d 5c 76 50 be
       0.15715364 0.015109623 0.09251952 -0.2035765
0003b0 78 bc b7 bc 91 8a 1d bc ed 96 ee bd 4a c6 30 3e
       -0.022428736 -0.009615556 -0.116498806 0.17263141
0003c0 aa 9c 20 be 46 6d 44 be 3f 35 64 3d f4 33 c8 bb
       -0.15684763 -0.1918231 0.055714842 -0.006109709
0003d0 8c 56 be 3d fb cb a4 3b 24 42 43 be 5c f2 ac bd
       0.09293851 0.005029199 -0.190682 -0.08444664
0003e0 16 bb 3c be 00 7c 88 bd b6 ba 0c bd 9a ef 72 3c
       -0.18430743 -0.06664276 -0.03435775 0.014827633
0003f0 ba f3 55 3e 5e d6 19 be 4a 22 be 3d 83 97 f9 bd
       0.20893756 -0.15023181 0.09283884 -0.12187102

linear_relu_stack.0.bias f4 [256]
000000 dc 98 d9 bb 50 59 4e 3e 95 84 b5 bd fc 1a ae bd
       -0.0066405367 0.20151258 -0.08863179 -0.085012406
000010 f4 af 29 be a1 00 83 3e de 95 22 be 55 ea 4b be
       -0.16571027 0.25586417 -0.15877482 -0.1991361
000020 b8 4b 61 3e 90 1a 4f be 33 dd 40 3e ec 81 a2 3d
       0.2200154 -0.20224977 0.18834381 0.07934937
000030 f5 ea 38 3e 89 d5 d0 bd 81 5a 2b 3e fc 05 3f 3e
       0.18058379 -0.101969786 0.16733743 0.18654627
000040 1a b6 79 3d 97 f9 4a be f5 da 08 be 42 d7 3a 3e
       0.06096468 -0.19821773 -0.13364775 0.18246177
000050 68 c4 bd 3d 2d 14 41 be 60 ed c0 3d 44 12 9d bd
       0.09265977 -0.18855353 0.09420276 -0.076694995
000060 7a 05 5e bd eb a3 d2 3d 75 c4 05 3e c4 3c 5e be
       -0.05420444 0.10285171 0.13063224 -0.21702868
000070 91 ed 51 3e c0 a4 cc bd 34 06 23 3e 2e de 41 be
       0.2050078 -0.09992361 0.15920335 -0.18932411
000080 bd a7 2a be 6f af 3e 3e b0 71 34 be e0 c2 20 3e
       -0.1666555 0.1862161 -0.17621493 0.15699339
000090 3f c8 c8 bb bf c6 a5 bd 37 7a 4b be 31 17 c4 bc
       -0.006127387 -0.080945484 -0.1987084 -0.02393684
0000a0 12 22 34 3d f4 6b 2e 3e c3 df bb 3d 73 da 2a 3e
       0.043977804 0.17033368 0.091735385 0.16684894
0000b0 b9 03 46 3e 5f dc 92 bb 4f 6d 38 3e 55 ce 19 3e
       0.19337358 -0.0044818367 0.18010448 0.15020116
0000c0 a0 4d bb bc 02 ce 0a be 2a 54 a8 3d ec 66 17 3e
       -0.022864163 -0.13555148 0.08219178 0.14785355
0000d0 b3 92 9b 3d 50 9f c5 bd 44 69 40 3e 5c 7c 10 be
       0.0759634 -0.09649527 0.18790156 -0.1410994
0000e0 8f 65 c7 3d 26 70 d2 3d ce e2 a5 bd 2a 03 04 3d
       0.09736168 0.10275297 -0.080999 0.03222958
0000f0 19 e6 f8 3d 31 be c7 3c 5c ad 03 3e a4 2b 2f 3d
       0.12153263 0.024382683 0.128591 0.04276623
000100 44 c1 a8 3d e8 d0 dd bd cf 07 29 3e 7a c8 30 bd
       0.082399875 -0.10830861 0.16506885 -0.04315994
000110 f9 23 34 be 8e 8e f3 3d 46 e6 5a be 2a 80 1b 3d
       -0.17591847 0.118924245 -0.21376905 0.037964024
000120 03 2c d3 3d 75 46 c9 bd 81 7c cb 3d 04 da 9a bd
       0.10311129 -0.09827892 0.099358566 -0.075611144
000130 5e 17 a6 bd 25 5f ed 3d 00 52 17 3e 3d 79 4b 3e
       -0.08109926 0.11590413 0.14777374 0.19870467
000140 24 d7 f4 39 04 ab bc 3d 5c 37 09 bb f2 2a 6a 3e
       0.000466996 0.09212306 -0.0020937538 0.22867945
000150 95 f4 36 3e d7 00 50 3e 28 92 bc 3d f6 8c a3 3d
       0.17866738 0.2031282 0.092075646 0.079858705
000160 5a 20 16 3e 7e 9d 54 3e 12 4e f3 3d 2d e2 85 3e
       0.14660779 0.20763204 0.11880125 0.2614912
000170 45 0b 46 3d 48 b1 38 3e c8 63 3d 3e e5 31 5a 3e
       0.04835059 0.18036377 0.18495095 0.21308096
000180 8b b5 f0 3c a7 9e 4f 3d ca 27 12 be 1e a5 07 3d
       0.029383441 0.050688412 -0.14272991 0.033116452
000190 81 3e 1b 3e fb b4 71 3e 71 dc 46 be 0c 5e 36 be
       0.15160562 0.23604195 -0.19420029 -0.17809314
0001a0 00 b8 23 3e 96 8a 9c 3d 1f 99 7e 3e 73 b9 d4 3d
       0.15988159 0.07643621 0.24863099 0.10386934
0001b0 0d 96 27 3e d8 d0 83 3d 19 54 09 3e 3a 0b 1b be
       0.16365834 0.06436318 0.13410987 -0.15141001
0001c0 08 a7 f7 3d f8 ac 13 3e 10 38 50 be b9 0e 45 be
       0.120924056 0.14421451 -0.20333886 -0.19243897
0001d0 00 83 80 3e f0 80 02 3e 5e f9 d8 bd b1 22 56 be
       0.25099945 0.12744498 -0.10594438 -0.20911671
0001e0 33 39 9e 3d 5d 21 60 3e 6c b1 0c 3e 63 97 16 3e
       0.07725754 0.21887727 0.13739556 0.14706187
0001f0 8d b5 80 3e a1 8d 09 be 6e 24 5b 3e 6f a8 31 be
       0.25138512 -0.13432933 0.21400616 -0.17349409
000200 77 a6 7d 3e 47 d2 03 3e cb ff 83 3e da 90 7b 3e
       0.24770533 0.12873183 0.25781092 0.24566975
000210 7c b1 dc 3d ab ab 19 be 6d d7 61 be b6 44 67 3e
       0.1077604 -0.15006892 -0.22054835 0.22584805
000220 5c 26 5c 3e 57 94 37 be da cf ca bc 08 6d 8e bd
       0.21499008 -0.17927681 -0.024757314 -0.0695439
000230 f0 fd 67 bd f3 e5 7a 3e 07 10 b5 3d f6 6d 39 3e
       -0.056638658 0.24501781 0.088409476 0.18108353
000240 f6 b5 5b 3e cb 7e cf bd bf fd 81 bd ce d8 29 bd
       0.21456131 -0.10131606 -0.06347226 -0.041466527
000250 c4 6c 47 be 76 84 0e 3e fa cf 54 3e cc cb 9e bd
       -0.19475085 0.13917717 0.20782462 -0.07753715
000260 29 9e 1b 3e 36 54 da 3d 2b 2e 01 3e a1 0f 11 3e
       0.15197052 0.10660593 0.12615268 0.14166118
000270 24 03 65 3e b8 79 7a ba 8a da 8c bd ce 5d 34 be
       0.2236448 -0.00095548807 -0.068776205 -0.17613909
000280 26 60 7e 3e f3 65 25 3e 3c 35 18 3e b1 16 cb 3c
       0.24841365 0.16152172 0.14864057 0.024791094
000290 f2 79 3f be c0 71 a6 3d e6 58 0c be 3a c5 33 3d
       -0.18698862 0.08127165 -0.13705787 0.04388926
0002a0 36 5e 05 be a9 e2 12 3e 1a c8 72 be 76 ae 9c bd
       -0.1302422 0.14344276 -0.23709145 -0.07650463
0002b0 29 92 6d 3c 2e 71 17 be 8a d6 d5 bd 97 da 46 be
       0.014500179 -0.14789268 -0.10441311 -0.19419323
0002c0 d3 ef 31 3e 67 e9 15 be 27 ed 42 be 14 91 53 be
       0.17376642 -0.14639817 -0.19035779 -0.20660812
0002d0 ef 30 55 3e c7 1e 10 be 50 27 49 3e eb e6 25 3e
       0.20819448 -0.1407424 0.19643903 0.1620137
0002e0 47 c5 26 3e 91 ea 0b be 00 fd 39 3e c4 26 e3 3d
       0.16286193 -0.13663699 0.18162918 0.11091378
0002f0 c6 4c e4 3d 62 a7 38 3e 6d 57 53 3e 74 1c 75 3e
       0.11147456 0.18032601 0.20638819 0.23936635
000300 75 55 27 be 9e a9 3a 3e 52 2a 12 3e 3a 54 08 be
       -0.16341193 0.18228766 0.14273956 -0.1331338
000310 85 a6 78 3d bb 80 30 be 8f 54 1a be 85 74 6e 3c
       0.06070568 -0.17236607 -0.15071319 0.014554148
000320 68 7e 92 3d ad d4 64 be 75 22 d2 3c 34 50 19 3e
       0.07153016 -0.22346754 0.025651196 0.14972001
000330 b3 34 d5 bd 57 7b 51 be a1 7c 34 3e ee 75 13 3e
       -0.10410442 -0.20457207 0.17625667 0.14400455
000340 20 ee f9 3d 60 87 16 3e 94 b6 1d 3e f0 51 d5 bd
       0.12203622 0.14700079 0.1540168 -0.10416019
000350 a9 ab 0f be 54 57 0d 3e eb 14 8a bc a6 fd a8 3d
       -0.14030327 0.13802844 -0.016855678 0.082515046
000360 58 72 7b 3d 25 19 45 be bb a9 e5 3c 5e fe 13 3e
       0.061388344 -0.19247873 0.028035035 0.14452502
000370 8e 84 1c be 66 0c 01 be 72 f6 26 3e 8b 89 96 bd
       -0.1528494 -0.12602386 0.16304949 -0.07350453
000380 b5 de 23 be 92 c1 ec bd 04 22 e6 3d 9b 18 ad 3d
       -0.16002925 -0.11560358 0.11236957 0.08451959
000390 ac ba 61 bd f6 6b 47 be 2a 1c 3e be 12 49 0f bd
       -0.055109665 -0.19474778 -0.18565431 -0.034981795
0003a0 78 ea 34 be 3a 55 ff 3d fe e6 05 be de b7 49 3e
       -0.17667568 0.124674276 -0.13076398 0.19699046
0003b0 60 c6 e8 3d ab 06 53 3e ad 83 12 be 79 5c 13 3e
       0.11365962 0.20608012 -0.14308043 0.14390744
0003c0 f2 5b be 3d 1c 09 1f 3e 30 8f e7 bd 60 05 05 3e
       0.09294881 0.15530819 -0.11306608 0.12990332
0003d0 cb 84 09 3e b1 80 0f 3e 4c 53 91 bd 09 d5 7e 3c
       0.13429563 0.14013936 -0.07095966 0.015553721
0003e0 5d fd 7b 3e 89 94 16 be c8 a3 09 3e 73 37 19 3e
       0.24608369 -0.14705099 0.13441384 0.14962558
0003f0 78 f6 5a 3e fc 7f c9 3d 93 14 b9 3d 1e 8d 60 3e
       0.21383083 0.09838864 0.09037127 0.21928832

linear_relu_stack.2.weight f4 [36, 256]
000000 9d 59 95 3c 3e 12 29 bd f6 d7 68 bc ac 5c b7 3c
       0.018231208 -0.041277163 -0.014211645 0.022383057
000010 31 74 42 bd dc 48 77 3d b3 47 5c bd 0c 1e 05 bd
       -0.04747409 0.06037222 -0.053779315 -0.032499358
000020 27 cc 0f 3d 14 e0 fe 3c bc a2 9a 3d 87 ce 36 bc
       0.035106804 0.031112708 0.0755057 -0.011157638
000030 89 ee f3 bb b6 e9 bf 3c 4f 55 95 bc 20 11 e7 bc
       -0.007444207 0.023426872 -0.018229155 -0.028206408
000040 53 b9 fa 3c f4 4d 85 3d 1c a1 86 bb e6 d9 7a 3d
       0.030605948 0.06509009 -0.004108561 0.06124296
000050 12 e5 56 3d 12 f5 28 bd f5 43 51 3d 80 1f ac 3a
       0.052464552 -0.041249342 0.0510902 0.0013131946
000060 c1 6b 6a 3d b1 af 89 3d 62 0e 59 3d c6 47 06 bc
       0.05723167 0.067229636 0.052992232 -0.008195823
000070 51 64 da bc 1f 34 3e 3d 6c 60 24 3c ce 05 04 3e
       -0.026659163 0.046436425 0.010032754 0.1289284
000080 01 4d 8e b9 47 b7 31 3c a7 81 99 bc 80 5c 9e bc
       -0.00027141723 0.010846919 -0.01873858 -0.019331217
000090 4a 43 bf bc 41 fd d7 bc 84 d2 8f bc e6 da 87 bd
       -0.023347516 -0.026365878 -0.017556436 -0.066335484
0000a0 ec 84 0d 3d 06 4b 3b 3d 0c f0 cd 3c cf 83 64 3b
       0.034550592 0.045725845 0.025138877 0.0034868603
0000b0 62 f2 dd 3c 97 54 ac bb 4f ed 00 3c 50 8a 75 3d
       0.027093116 -0.0052591073 0.007869079 0.05994636
0000c0 ec 3b b6 3c 42 04 06 3b 0c 14 98 3c 6f dd 17 bd
       0.02224537 0.0020449315 0.018564247 -0.03707641
0000d0 35 5a 8d bc c4 9a 0a 3d a9 c0 f0 3b 02 f8 7b 3b
       -0.017254928 0.033839002 0.0073471856 0.0038447385
0000e0 74 98 58 3d 61 37 6d 3d 5e 3b f1 3b 19 a0 e8 3b
       0.052879766 0.05791414 0.0073618134 0.0070991633
0000f0 b2 d3 e1 bb 23 68 b9 3c 7a ae 98 bc b2 cd 77 bd
       -0.006891691 0.022632664 -0.018637884 -0.0604989
000100 eb cf 51 bc 7a a4 2b 3d 9e b1 a2 3c a1 f5 df 3c
       -0.012805919 0.041904904 0.019860085 0.027338805
000110 08 1e dc bd 7f a5 24 bc ba fb 01 bd c3 b5 19 bc
       -0.107479155 -0.010049223 -0.031734206 -0.009381714
000120 bf 01 20 3d 3d 59 73 3c 98 69 ad bc 03 50 cd bc
       0.039064165 0.014852819 -0.021168515 -0.025062567
000130 e7 f0 07 3d e2 b2 0a 3c 14 a3 86 3d 83 4b 49 3c
       0.033188727 0.008465501 0.065740734 0.01228607
000140 40 7a c0 bb b0 ac 8a 3c fe d6 37 3c 28 fd 24 3c
       -0.0058739483 0.016928047 0.011220692 0.010070123
000150 3f 77 ca 3c 6e 35 4c 3d ad 04 76 3c 59 c7 3d 3c
       0.024715064 0.049855642 0.015015763 0.011583173
000160 f3 22 97 3a f9 f7 0d bd 9c a2 8f 3d 14 eb d1 3c
       0.0011530801 -0.034660313 0.07013437 0.02562479
000170 df c5 24 3d 90 dc 74 3d 17 17 9b 3a cb ee 8b 3c
       0.040227767 0.059780657 0.0011832443 0.017081639
000180 71 e3 bc 3c 1b 73 e4 3b bc cc b6 3b 0d 7a f1 bb
       0.023057671 0.0069717295 0.0055786055 -0.007369286
000190 1d ef 60 3c 89 96 18 bc ba ca 48 3d ea b9 ac 3d
       0.013728884 -0.009313234 0.04902146 0.08433898
0001a0 c5 97 0c 3d 50 d1 c2 3c c5 da 1c bc 89 b8 2f bd
       0.034324426 0.023781449 -0.009573643 -0.042900596
0001b0 26 69 bf 3c c1 e2 e4 bc 93 ad a3 3b 74 ca 7d bd
       0.023365568 -0.027940156 0.004995057 -0.061960652
0001c0 54 4e 81 bb 9c 73 6d 3c 46 7e 60 3d 69 b0 6c bd
       -0.003946105 0.014492895 0.054807924 -0.057785425
0001d0 48 23 60 3c fe 1d df 3c 0e e6 ca 3c c4 df 59 bd
       0.013680287 0.027235981 0.024767902 -0.053191915
0001e0 5e 7a e8 3a 5f d7 d7 3c c0 8a d4 3c 95 57 20 3d
       0.0017736664 0.026347814 0.025945067 0.039146025
0001f0 24 d4 9a bc fa 4d 5a 3c 1e 8d 69 3d 4c 2a 54 3d
       -0.018899985 0.013324255 0.057019345 0.05179815
000200 71 7c dc 3c e7 ce 99 3d e3 22 2e 3d 42 b6 32 3d
       0.026914807 0.075101666 0.04251374 0.043630846
000210 4e fd 56 bb c8 bd 93 3d 20 92 c1 ba 7a 14 90 3d
       -0.003280479 0.07213932 -0.001476828 0.070351556
000220 50 9a 18 3d bf d5 3d 3d 44 62 7b bd ae aa 10 3d
       0.03725654 0.046346422 -0.06137301 0.035319023
000230 86 15 7c bd 9b 3a 34 bc 38 ee 1b 3d bf b2 6b 3d
       -0.061543964 -0.011000301 0.03806898 0.057543512
000240 2a 14 07 3d 21 f0 99 3c 44 ae 63 3c 71 0f 25 3c
       0.032978214 0.01879126 0.013896529 0.010074482
000250 e8 c6 9b 3b b0 88 41 3d 5f 5f 66 bc 9a f5 67 3c
       0.004753936 0.047249496 -0.014060824 0.014157677
000260 7e 50 a5 3c c3 22 2f 3d e6 6f 12 3d 94 45 a0 3c
       0.020179983 0.04275776 0.035751246 0.019564427
000270 df 5d 21 bd 4e ec b9 3b 1c cc c4 3c 56 cd 1a bd
       -0.039396163 0.0056739217 0.024023108 -0.03779348
000280 5c ab af 3c df ac 9f 3c d3 7d 09 3d 60 6c 7c 3d
       0.021444015 0.019491611 0.03356726 0.061626792
000290 90 f3 3c bd 64 2f b8 bb 99 7d 2f bd ad 21 94 bb
       -0.046130717 -0.005620884 -0.04284439 -0.004520616
0002a0 60 a7 04 3d 1a 52 b5 3c 1c ed 17 bb 29 f5 7a bd
       0.032386184 0.022133876 -0.00231821 -0.06126896
0002b0 91 0f 88 bd 46 52 37 bc 96 1a 68 3c 1a b7 87 bc
       -0.06643594 -0.011189049 0.014166495 -0.016566802
0002c0 e0 f2 9b 3d 9d ae b5 3c f0 52 fe 3c 60 04 7c bc
       0.07614684 0.022177989 0.031045407 -0.015381902
0002d0 66 65 22 3b 06 c9 04 bd dc 9e 84 3d 86 d6 a1 bc
       0.0024779676 -0.032418273 0.064756125 -0.019755613
0002e0 15 92 21 bd 36 d8 44 3c 09 2e 89 3d 82 92 30 bd
       -0.039445955 0.012014439 0.06698234 -0.04310847
0002f0 db 99 66 3d ea 8b 3d 3d a9 9c 04 bd 01 af 7d bc
       0.05629907 0.04627601 -0.032375965 -0.015483619
000300 c9 24 06 bd ee 35 d7 3c c9 eb ae 3c 21 ab 24 bd
       -0.032749925 0.026270833 0.021352665 -0.040202264
000310 a5 63 e3 bc 8f a3 4e bd 6f a3 a7 bd 35 aa 83 bd
       -0.027757475 -0.05044895 -0.08185469 -0.06428949
000320 30 42 2c 3d 0c 5d fb 3c 0d dd a6 bc 02 ed 1b bd
       0.04205531 0.030684017 -0.020369077 -0.038067825
000330 88 ad 9b bd be 4b 2b bd be 09 2d 3d 84 ed 3a bd
       -0.07601458 -0.04182028 0.04224562 -0.04563667
000340 23 e5 07 3b 1c 1b 3a 3d 36 b6 90 bc 10 d3 21 3b
       0.0020735941 0.04543601 -0.01766501 0.0024692453
000350 44 a2 39 bd 2f 23 ea 39 77 51 76 3d 8e 37 7a 3c
       -0.045320764 0.00044658172 0.060136285 0.015272034
000360 63 4c 1b bc 3d 2c d9 bc ed 3b ab 3c f6 0b 25 3c
       -0.009478661 -0.026510352 0.020902598 0.0100736525
000370 2e 14 0b 3d 31 98 41 bc 7b 4b 97 3c 8f cb e1 3c
       0.03395479 -0.01181607 0.01846861 0.027562885
000380 29 7b 09 bd 68 a9 31 3d a9 34 79 3c bf 56 cc bc
       -0.03356472 0.04337445 0.015210309 -0.024943708
000390 7d 71 30 3d 34 e4 f8 bb f2 ee d6 bc 9c 3b db ba
       0.04307698 -0.0075955633 -0.026236985 -0.0016726139
0003a0 3c 31 b6 bc db 9b 26 bd 2f c4 c7 3c 8b ae eb 3c
       -0.022240274 -0.04067598 0.02438554 0.028769752
0003b0 b2 63 de 3c a0 e2 28 bd 05 ad 9c bd ce 44 6f 3c
       0.027147148 -0.04123175 -0.07650188 0.014603807
0003c0 68 0c de 3b d8 3d 93 3d db 9a fc 3c 65 e1 80 3c
       0.0067763813 0.0718953 0.03083556 0.015732476
0003d0 7b 65 29 3d ef 5c 26 bd 80 e9 71 3d ad b6 16 3d
       0.041356545 -0.040615972 0.059060574 0.036795307
0003e0 c1 cf 94 3d 62 ef 35 3d 67 c9 af 3c d0 a7 08 3d
       0.072661884 0.044417746 0.02145834 0.033363163
0003f0 d0 fc 40 3d 9d ce 00 bd c8 e9 85 3d 87 7f 3f bd
       0.0471161 -0.03144704 0.06538731 -0.04675248

linear_relu_stack.2.bias f4 [36]
000000 99 bb 97 3d 7b 6e db 3c bc db 74 3d 4b 31 ef bb
       0.07408828 0.02678608 0.059779868 -0.0072995774
000010 21 a7 33 3d e0 6a 03 bd 62 2d 69 3d 8a db 1e 3d
       0.04386056 -0.032084346 0.056928046 0.038783588
000020 d5 54 95 3c d8 31 37 3c 83 df 81 3b e1 ed 9e bc
       0.018228928 0.011181317 0.0039634123 -0.019400539
000030 36 f8 bb 3c 7e 9c cd 3d 4a cb 85 3d eb 39 3c 3d
       0.022945505 0.10039614 0.06532915 0.045953672
000040 65 cf 6a 3d c9 ba b4 3c a8 88 6e 3d 7f c3 20 3c
       0.057326693 0.022061722 0.058235794 0.009812235
000050 98 e7 b2 3c 79 e6 9b bc 9c bf fd 3c 78 6a 88 3d
       0.021838948 -0.019030796 0.030975156 0.06660932
000060 59 e5 6b 3b 3b 2e 88 bc 1d 66 90 3d 9d ad 39 3d
       0.0035994856 -0.016623607 0.070507266 0.045331586
000070 c6 68 ce 3d 69 88 01 3c 49 d1 55 bc fa 26 9e 3d
       0.10078578 0.007906058 -0.013050386 0.07722278
000080 7f 5c 83 bc 9d 9c 95 3c 34 55 5c 3d 24 64 d7 bc
       -0.016035317 0.018263156 0.053792194 -0.026292868
