models/model_potential_damping_n10.pth (torch, 61800 bytes, 4 tensors)

linear_relu_stack.0.weight f4 [256, 21]
00000000: 7046 f13d a2ec 143d c72b 43bd 5538 19be
00000010: f861 853d 0abb 19be 9c1a fbbd 6875 b2bc
00000020: 687d 47bc 5f76 5dbd 198d 2ebe 3af8 d23d
00000030: 34ef d8bc a2a9 223e 3140 5d3d ef4f 09bd
00000040: 7f77 ecbd 8768 3a39 4b83 343d 4dd6 b53c
00000050: 1cc9 073e 28ed c0bd 24d6 1f3d 1756 513e
00000060: dcea 42bd f2ac 08be c12c 113d 4d30 55be
00000070: 8fe2 06be f098 d93d f4fa 5abe 2ca4 ad3d
00000080: 92e4 e7bc 1bfd 3e3e 71ab 07be 15a8 3dbe
00000090: 0abe 11be 70c4 05bd 3b88 04bd c487 f73d
000000a0: 4b3a 5ebe ac71 63be e6f7 cbbc 393a 43bd
000000b0: 19cb 003c 96e8 923d b8c5 943d 7bf3 c4bc
000000c0: ded2 103e 7007 e7bd 4870 833c 3c30 1fbe
000000d0: 0e1a 263e 860a 323d 58da c9bc f72f 373e
000000e0: 48ce 45be 7a0b 28be 5b8c 5d3e d4c4 0d3e
000000f0: 9050 c4bc 9e35 4ebe 87df f6bd 7699 04be
00000100: c28b 8b3d bae9 c7bd 2604 e3bd 2054 2ebe
00000110: f4a4 aa3a 5123 a8bd 5e2a 5a3d 1666 383e
00000120: 5445 873c 74c3 193e c117 68be b6ec f63d
00000130: 6f1e ca3d d2ef 413e f995 96bd be8f 123d
00000140: f201 4dbe a514 163e 5497 65bd 4d0b fc3d
00000150: b510 67be e742 3cbd 8a3f b2bb 70e4 9cbc
00000160: 28c3 78bc 4aba 2d3d 5783 8c3d fcbb 19be
00000170: 947a 53be aed3 d43d 2b8b 523d a274 e83d
00000180: 605b 4d3d 5ff3 c3bd ad80 92bc 2c7d 40be
00000190: f57a b6bc d398 733e 7e15 e3bd 446c 5a3e
000001a0: b13f aabd 1f0a d6bd e533 42be d907 1f3e
000001b0: 13e4 d5bd 9314 8d3d 6102 283b 4532 abb9
000001c0: 0419 0f3e b190 46bd d41f b4bd c0a0 29be
000001d0: 28d5 1bbe 809b 0c3e b5ad f2bd 4343 02be
000001e0: a477 2abe 362e d1bc f8a2 5f3e 2311 49bd
000001f0: 9bc6 173e 26a2 cf3c 3250 47be c6ed 8d3c
00000200: 802e 2ebc 5ad0 eb3d 059b c3bc c16a 52be
00000210: 21c3 263e 85af bd3d 42e5 c8bd d72b aabd
00000220: 3e1e c6bc a95b f5bd 7f84 89bd c47b 4a3e
00000230: 022b 00bd f5b8 3f3d aff5 573e 5409 86bd
00000240: 4287 c53d 9535 3abe 067a af3d 310b 103e
00000250: 6c95 b0bd 3329 093e 3f7d 233d 8a78 fd3c
00000260: f5a5 babd e3bd 2ebe a097 d4bc 727d 21be
00000270: ca2e 47be 3fad 46be 9986 373e ab05 26be
00000280: b5a3 eabd d24e 0bbd d6e5 6e3c 6b92 ce3d
00000290: a345 423e bb8e 6a3d cb0e f7bd ae2b 0bbe
000002a0: 50ce 00be 97a0 373e d410 253c f3ff 32be
000002b0: 844b 173e b293 7e3e 9a4c 43bd 94f3 9abd
000002c0: 0db4 223e e03e 5e3e c4e1 263e 5c51 bb3d
000002d0: b8a7 57be f430 fe3c d8fe 3ebe 09fc a3bd
000002e0: 9969 063e afd4 58be 2f51 323e b81e ca3d
000002f0: c66b 1a3e e712 54be 6e10 c3bc 8304 713d
00000300: d9da 0e3d 60ff 003e 4844 853d c13f a2bd
00000310: f857 39be ad86 ff3d cd9d b13d 69b7 593d
00000320: d92c 623d 2f47 d5bd 02ab 3fbe 305f e33c
00000330: bf08 eebd 8210 c9bb 8a7a 413e 78ef bb3d
00000340: 2199 24bd 6177 b23d a2e2 05be 646d ba3c
00000350: 4efc 353e 6fc4 c33d b483 1b3e a92f 15be
00000360: 599e 223e c223 13be f1ed 22be 1d38 01be
00000370: f202 333e e6db c73d af0a 12be 29de be3d
00000380: e72c 4e3e a391 19be fce5 173d 1e0d 9a3d
00000390: 8c20 fbbc 1e85 f0bd 9f74 4cbd f6db 60be
000003a0: ff82 01be 0f23 b7bc 6063 34bd 0166 2a3e
000003b0: 8de4 86bd 6397 923d 675b 34be 844b 2c3e
000003c0: 872e c93d d4f8 b5bd 2b29 a83d 091a 93bd
000003d0: 20a0 e53c 642d 22be 96ae 6c3d 7143 843d
000003e0: 8d59 8abd 9764 f43d ec56 32bd fef8 24be
000003f0: cf15 3ebe a5e8 e83d 5d50 c53c 465a 9cbd
0.11781013 0.036358483 -0.04764917 -0.14962895 0.06512827 -0.15012756 -0.12260935 -0.0217845
-0.012175895 -0.054067966 -0.17046012 0.10301252 -0.026481248 0.15885022 0.054016296 -0.033523496
-0.115462296 0.00017777282 0.044070523 0.022196913 0.13260311 -0.09420234 0.03902258 0.20442997
-0.04758726 -0.13347223 0.03544307 -0.20819207 -0.13172363 0.10624874 -0.21384794 0.08478579
-0.028307233 0.1865124 -0.13248993 -0.1852115 -0.1423265 -0.03265804 -0.032356482 0.12086442
-0.21701925 -0.22211331 -0.02489848 -0.047662947 0.007860922 0.071732685 0.07264274 -0.024041882
0.1414294 -0.112807155 0.01604475 -0.15545744 0.16220877 0.043467067 -0.024640247 0.17889391
-0.19316971 -0.16410628 0.21635573 0.13844615 -0.023964196 -0.20137641 -0.12054353 -0.12949166
0.06813766 -0.09761377 -0.110847756 -0.17024279 0.001301913 -0.08209861 0.05326306 0.18007693
0.01651255 0.15015966 -0.22665311 0.12056868 0.09869086 0.1893914 -0.07352824 0.035781614
-0.20020273 0.14656313 -0.05605252 0.12306843 -0.22564967 -0.04596224 -0.0054397034 -0.019151896
-0.015183248 0.042413987 0.068609886 -0.15013117 -0.20652229 0.10391937 0.051402252 0.11350371
0.05013597 -0.09567904 -0.017883623 -0.1879775 -0.022275427 0.23788767 -0.11088084 0.21330363
-0.083129294 -0.10451149 -0.18965109 0.15530337 -0.10443892 0.0688869 0.0025636184 -0.00032653115
0.13974386 -0.048477832 -0.08795133 -0.16565228 -0.15218031 0.13731194 -0.11849538 -0.12720971
-0.16647202 -0.02553473 0.21839511 -0.04908861 0.14821856 0.025345873 -0.19464186 0.017325293
-0.010631204 0.11514349 -0.02387763 -0.20548536 0.16285373 0.09261993 -0.098093525 -0.08309143
-0.024184342 -0.119803734 -0.06714725 0.19773775 -0.031291015 0.04680725 0.21089815 -0.06544748
0.09644939 -0.18184502 0.08568196 0.14066769 -0.0862225 0.13394623 0.039914366 0.030941267
-0.09113685 -0.17064624 -0.025951207 -0.1577051 -0.19451442 -0.19402026 0.17922439 -0.162131
-0.11457006 -0.034010716 0.014581164 0.10086521 0.18971877 0.057265025 -0.120633684 -0.13590881
-0.12578702 0.17932354 0.010074813 -0.1748045 0.147749 0.24861029 -0.047680475 -0.0756599
0.15888996 0.21703672 0.1629706 0.091463774 -0.21060073 0.031029202 -0.18651903 -0.08007056
0.1312622 -0.21174882 0.17413782 0.098691404 0.15080175 -0.20710336 -0.023811545 0.058842193
0.03487668 0.12597418 0.06507164 -0.07922316 -0.18099964 0.12476859 0.08672676 0.05315343
0.05521855 -0.10413968 -0.18717578 0.02775535 -0.11622762 -0.006136001 0.18894401 0.091765344
-0.040185098 0.08714176 -0.13074735 0.02275724 0.17772028 0.09558951 0.1518696 -0.14568962
0.15880717 -0.1436911 -0.1591108 -0.12619062 0.17481592 0.09758739 -0.14261888 0.093197174
0.20134316 -0.14996962 0.037084565 0.07522033 -0.030655168 -0.1174414 -0.049915906 -0.21958908
-0.12647627 -0.022355584 -0.044040084 0.16640474 -0.06586561 0.07157781 -0.17612992 0.16825682
0.098233275 -0.08885351 0.08210977 -0.071827 0.028030455 -0.15837628 0.057783686 0.06458176
-0.06755362 0.119332485 -0.043539926 -0.16110608 -0.18563007 0.113724984 0.024086172 -0.07634406

linear_relu_stack.0.bias f4 [256]
00000000: 9766 193e 2fca adbc ae64 623e 1bfa 78be
00000010: 5b32 efbd ce57 e13d cfbc 653e 8fc7 e4bd
00000020: 3c47 903d aed3 813e f790 3c3e 2957 55bd
00000030: 2c48 893e 7f02 08be f708 313e 67fa a23d
00000040: c997 d53d 28d0 9abd d910 7d3e af27 7b3e
00000050: b1d9 3cbe 4406 ab3d a94b 07be 5454 9f3d
00000060: 575a d23d c3d2 3f3e 81ca 883d d703 023d
00000070: 9e09 783e aa71 35be 26f7 df3d 46e7 393e
00000080: efc2 cd3d 1150 5b3d 7508 e43d bec1 3bbe
00000090: 76d1 153e e8c4 6ebd 5316 a8bd 20de efbd
000000a0: fd26 09be 1c09 833e 49c0 f1bd 159d 4abd
000000b0: 0a2c 2b3e 28a0 80bd e20f 7a3e 1a05 503e
000000c0: 0fd5 1f3e 17c4 49be e51d 22bd 7294 d53d
000000d0: cbcc 9f3d 08a4 693e 56f0 1d3e e773 5c3e
000000e0: 2484 41be 76c2 c53b f8f3 0dbe 572b 393d
000000f0: 93c6 373e 2779 393e f936 343e 7d24 403e
00000100: 4eb7 743e 1f13 313d 4e00 babd fe3c 463e
00000110: 4a62 af3d 193b 823d f8f5 05be 3e79 663e
00000120: 9f81 b23d 3fad fabd 1b91 0f3e 8b0d 393e
00000130: 2236 3dbd 5c7f 953d 718c 583e 6f45 753e
00000140: 0799 29be c844 bfbd 442f 863e ffa6 7e3c
00000150: 7caa 473d cb97 db3c 1d25 533e 1e19 d63d
00000160: 4a7e 4c3e 9b62 763e 1ee8 813e a1c0 493e
00000170: b9a8 763d 498a 833c 62bd 243d fa8b 7f3e
00000180: 3a1a e9bd cd35 303d 584c cd3d ef70 073d
00000190: 34c8 2dbe 66b2 a03d 59c1 a2bc a2b9 53be
000001a0: 6e4f cabd a739 7abe 8b28 cb3d 0421 4d3d
000001b0: 7dca c83d c725 a3bb 4985 4c3e 02df 43be
000001c0: 05bf b6bd ef3b 5e3e 3396 163e 44ad 623e
000001d0: 66a0 fb3d 15a6 d2bd 0b52 8b3d 96af 143e
000001e0: 5d3f ef3b daf0 5b3e f8ca 36be 7774 813e
000001f0: 141d 30bd 9f06 4c3e 3161 003e 3056 7d3e
00000200: 9293 58be 2446 1dbe d77c 50be f60a 323e
00000210: fc5a e5bd ec70 053e b492 3bbe 16de 4cbe
00000220: 5e1d 3e3e 3057 823e 71bc fc3d 3fd4 16be
00000230: 88eb ed3d 6874 603e f25a de3d c260 84bc
00000240: 6a7f 6e3c 94d6 e23d 508e 56be 67da 49be
00000250: 827f 143e 6a81 153e 0f82 55be 0fca 0c3e
00000260: e9da 763d 0514 05be 03ac 71be 1535 0abe
00000270: 18cf 703e 768b 44be 0ef1 9cbd 7db8 18be
00000280: 451e 0bbe 4f86 f5bd 61df d23d 2470 e43d
00000290: a518 46bd 39e5 b1bd 5c7b 6b3e 337e 603d
000002a0: 0288 933d a6a1 913e b9a3 1d3c c717 693e
000002b0: f0eb 50be 66d1 08be 886a 2d3e 0fda d5bc
000002c0: 136b 3a3d 64d5 26be dd1e 12be 107c c6bd
000002d0: 439c 523e 2588 adbd a299 25be 3e02 533e
000002e0: 0ab1 fe3d f4ca 16be a8a1 95bb 3b2f 0fbe
000002f0: bf22 063e 435d 35be ecac 243e cc01 b73d
00000300: af8b fe3d 2341 67be 9eee 083e ffbe 69be
00000310: fca9 933c ed11 273d c4a8 813e 94ab d6bb
00000320: c22f 753e e119 773e f9a2 473d acfe bebd
00000330: 63dc 48be b979 223e 4dfa 40be 6e5a c7bd
00000340: b6ea 5f3e 43d8 e63d 5344 ab3d 4ffe a83d
00000350: 8690 e33c 91af 6abd cbfc ff3c e63d 213e
00000360: dcdc 053e 8e42 1fbd ec85 293e b028 d4bd
00000370: 1cd2 1b3e cfaf 183e 9675 e5bd ba81 48be
00000380: fdf8 aa3d a3e3 93bd ad00 42be dab7 e9bd
00000390: a146 983d f78b b03d 9787 9c3c fd54 413e
000003a0: d6d2 9039 3ac3 fdbd 3bbe 6b3e 1b14 b5bd
000003b0: 2577 febd f0f8 513e db63 013d fc19 d5bd
000003c0: 07e5 0b3e 6264 0abe e0e2 503e be3e ba3d
000003d0: a2cd 5c3d 45b1 633e 957c 073e 0fc4 4a3e
000003e0: 7572 383e a7e0 623b 9ed8 ffbd bab4 0bbb
000003f0: bd46 64be b51e 953d 36ec 5e3e 5afe 2bbe
0.14980541 -0.021214573 0.22108719 -0.24314158 -0.116795264 0.110030755 0.22435306 -0.11170875
0.07044837 0.2535681 0.18414675 -0.052085076 0.26812875 -0.13282202 0.17288576 0.07957917
0.10429341 -0.07559234 0.24713458 0.24526857 -0.18442418 0.083508044 -0.13212456 0.07779756
0.10271137 0.18732743 0.066792496 0.031741943 0.24222419 -0.1771914 0.10935812 0.1815463
0.10046946 0.053543154 0.111344256 -0.18335626 0.14630684 -0.058293253 -0.08207383 -0.11712289
-0.13393779 0.25592887 -0.118042536 -0.04946621 0.16716018 -0.062805474 0.24420121 0.20314446
0.15608619 -0.19703709 -0.03957929 0.10428704 0.07802733 0.22816479 0.15423712 0.21528588
-0.18898064 0.0060351444 -0.13862598 0.045207348 0.17946844 0.18112622 0.17599095 0.18763919
0.2389805 0.043231126 -0.09082089 0.19359204 0.08563669 0.06358928 -0.13082111 0.22507188
0.087161295 -0.12240075 0.14020197 0.18071572 -0.046194203 0.072996825 0.21147324 0.23952268
-0.16562282 -0.09339291 0.26207936 0.015542745 0.04874657 0.026805779 0.20619626 0.104540095
0.1997005 0.24061053 0.25372404 0.19702388 0.0602195 0.01605715 0.040219672 0.2495574
-0.113819554 0.04302006 0.10024327 0.033066686 -0.16970903 0.07846527 -0.019867586 -0.20676282
-0.09878431 -0.24436055 0.09919842 0.050080314 0.098042466 -0.0049788686 0.19972719 -0.1912804
-0.08923153 0.2170255 0.14705734 0.22136408 0.12286453 -0.10285584 0.06802758 0.14520106
0.0073012547 0.21478596 -0.17850864 0.25284168 -0.04299648 0.19924401 0.12537076 0.24739909
-0.21150044 -0.15358788 -0.20360123 0.17386994 -0.111989945 0.13031358 -0.18317682 -0.20006594
0.1856589 0.25457144 0.1234063 -0.14729403 0.1161719 0.21919405 0.1085719 -0.016159419
0.014556745 0.11076084 -0.20952725 -0.1971222 0.14501765 0.14600149 -0.20850395 0.13748954
0.060267363 -0.12995918 -0.23600774 -0.13496812 0.235165 -0.19193825 -0.07663165 -0.14914127
-0.13585766 -0.11988508 0.102965124 0.111542016 -0.048363347 -0.08686299 0.22996277 0.054807853
0.07203676 0.2844364 0.009621554 0.22762977 -0.20402503 -0.13361129 0.1693517 -0.026104955
0.04551227 -0.1629234 -0.14269586 -0.09691632 0.20567422 -0.08473233 -0.16171888 0.20606324
0.12436111 -0.14725858 -0.00456639 -0.1398286 0.13099192 -0.17711358 0.1608159 0.089358896
0.12428986 -0.22583441 0.13372275 -0.22826765 0.01802539 0.04078858 0.2532407 -0.0065512154
0.23944 0.24130966 0.048739407 -0.093259186 -0.19615321 0.15866746 -0.18845482 -0.09734045
0.21866879 0.112717174 0.08362641 0.082516305 0.027778875 -0.05729634 0.03124847 0.15746269
0.13072532 -0.03888183 0.16554993 -0.10359323 0.15216869 0.14910816 -0.11204068 -0.19580737
0.08348272 -0.07221153 -0.1894557 -0.1141202 0.074353464 0.08620446 0.019107623 0.18880077
0.00027622905 -0.12390752 0.23021786 -0.088417254 -0.12425069 0.20505118 0.03158937 -0.10405347
0.13661586 -0.13514856 0.20399046 0.090939984 0.053907044 0.22235592 0.13231118 0.19801353
0.18012412 0.0034618767 -0.12492488 -0.0021317438 -0.2229261 0.072812475 0.21769795 -0.16796246

linear_relu_stack.2.weight f4 [36, 256]
00000000: 4c78 95bb 2930 4dbd 9a9d bfbc bc61 03bd
00000010: 8ded 52bd 7001 653c 4798 0ebc b212 8cbd
00000020: a163 94bc 7112 a73b 1378 eb3c 5ce8 503b
00000030: fb54 2dbc 1cdd 483d 01e6 983c 3558 f2ba
00000040: 2583 52bc 4d9e 183d ba23 1fbc 3cc1 933d
00000050: ec98 0c3d 22d9 583c bad5 7ebd f592 bd3b
00000060: 9a8a d0bc c4ed 4d3d e33e d03c a2f3 cebc
00000070: d8cd d03c 443b 9a3b 4d7b 6e3d 3e08 303d
00000080: 3310 0d3d 0668 ef3b 08c6 2c3c 466d 44bd
00000090: 5b0b 213d 7fd2 26bb ba3f 8a3a d826 8abc
000000a0: 17b7 3e3d ea5e 933d c02a 393d 6e3a ee3c
000000b0: 1731 1b3d e2cd 8d3c 68d6 983b 39d5 323d
000000c0: 5222 5cbc 206a 003d 5074 6ebb 1770 f63b
000000d0: b931 473d b446 383d 0e90 fd3c 19e8 863d
000000e0: 14b9 c53c a826 733c 7bd1 2ebd c161 2c3d
000000f0: 5e4b 793b ccce 863d e2b4 4ebc 4bca 21bd
00000100: 5846 553b 09af 5c3c fd60 b3bc 7e6e f93c
00000110: 3525 063d 96ba fe3c d135 843d 0a09 883d
00000120: 583a 3cbc 2998 373d 733c 153d 003b 1fbd
00000130: 5098 053d 566a ca3c 33b4 5c3d 8fab 62bc
00000140: ba22 d5bc d810 fbbc b39d e33c 682c b23c
00000150: eb23 08bd 3777 af3c 2711 8b3d f26c e03c
00000160: a61a 3b3d 2113 c9bc f43c 493d cc90 d2bc
00000170: 284a b63b 2867 843c 35ae 78bd 0784 8a3d
00000180: 07b1 893d 0fa9 ddbc e480 1f3d bad9 293d
00000190: b307 b93c 3b16 563d e7d8 84ba 822f 1dbd
000001a0: 3702 71bc 1b3c 49bd 894b 2cbd 35c2 a03c
000001b0: 93c1 db3b ab61 653d 9935 65bc 247c a0bc
000001c0: ad33 1d3d 713f fb3c 533d 8e3d e5a3 6c3d
000001d0: e489 7c3a 84cd 33bd 554a cd3c 1c36 503d
000001e0: ba9d cd3c d2b2 813d e555 2d3d 9865 70bc
000001f0: 1905 b93b fd13 7a3d feda 81bc 3ddc c53c
00000200: 461d 13bc 00aa beba e5a2 473c 0545 3dbd
00000210: e90c 283d a630 c4bc 294e 8e3c 49ae d03b
00000220: 75a8 d93c c49f 293d 6c36 4b3d 2cc3 c83b
00000230: 6db6 543c af63 b0ba c9c2 01bd da92 023d
00000240: 6c07 f13c 1f35 983c ccb2 f9bc 6093 f53c
00000250: 0355 843c 3a36 973d eeb9 aebc c468 c7bb
00000260: 4525 7c3b c969 c43c e225 06be e8dc 13bd
00000270: be42 993d bde4 d13b a215 843c 45c1 1cbb
00000280: 6912 e53c 2403 38bc 4d2e 243d 32f0 c3bc
00000290: 3638 863d f1c0 713d 36ab 5b3d fbbd 1e3d
000002a0: 13fa 95bc aece 2f3d fb59 00bc 4282 4d3c
000002b0: 02a9 a23c 3830 023d dd18 5dbc e75e d33c
000002c0: 01e0 d8bc c1c2 823a 7c1a ce3c 5376 9c3d
000002d0: 5a84 6e3d 394d 393d 2736 aabb 5a6a 3a3d
000002e0: a347 9b3c 51c9 71bd dcd1 84bb b77d 6f3d
000002f0: 0284 373d 026a 3fbd d775 fc39 2783 933c
00000300: 4f34 513c 148e c43c ef82 983c c3ef 3dbd
00000310: 534c 8bbd e687 4ebd 314d 8e3d d5eb c73c
00000320: 6d65 763d 49db 563c 85c8 71bc caea 51bd
00000330: 3cd5 b8bc 5630 503d 9889 9abc a3b8 5a3d
00000340: b09e b6ba 4fb0 a63d 1dc9 6c3d 0db7 803d
00000350: 372f 05bd 60c4 053c eaf1 89bc 6c45 693d
00000360: 428e a93c 74e0 823c 6312 ce3c 6d70 fbbc
00000370: d276 133d 3db3 bbbb 580b d6bc 2bd4 503a
00000380: c877 a0bc f1af 30bd a888 233d 0676 9e3c
00000390: 99ee 253d daf2 633a 611b b43a 6702 343d
000003a0: f51f 893c edb6 813c f4bf efbc 870e 66bd
000003b0: 58d6 d03b 3030 e73c e6ff 303d 722c 5fbd
000003c0: cd1c 483d 1738 91bd ee1d acbc e507 1a3d
000003d0: 2e80 183c ec2a 32bd 9f2a 11bd 0047 8d3d
000003e0: 33fe 98bc 9801 e2bc f448 77bc 300f 263d
000003f0: 6a34 58bc 76fe 323d 1b3e 863c e042 3cbd
-0.0045614596 -0.050094757 -0.02339058 -0.03207563 -0.051496077 0.0139773935 -0.008703298 -0.06839503
-0.018113913 0.005098634 0.02874378 0.0031876778 -0.010579343 0.04903899 0.018664362 -0.0018489423
-0.01284865 0.037260342 -0.009713108 0.07214591 0.034325525 0.013235362 -0.062215544 0.005785341
-0.025456715 0.05027558 0.025420612 -0.025262658 0.025488779 0.004706772 0.058223058 0.04297661
0.034439277 0.0073061017 0.010545261 -0.047955774 0.03931747 -0.0025455055 0.0010547556 -0.016864225
0.046561327 0.07195838 0.045206785 0.029080596 0.037888613 0.017310087 0.004664231 0.043660376
-0.013435917 0.03135121 -0.0036385246 0.0075206864 0.048631404 0.044989303 0.03095248 0.06587238
0.024136104 0.014840759 -0.042680245 0.042085413 0.0038039307 0.06582412 -0.012616368 -0.039499562
0.003254315 0.013469466 -0.021896834 0.030448195 0.032750327 0.03109483 0.06455577 0.06642349
-0.01148852 0.044822846 0.036434602 -0.038874626 0.03261596 0.024708908 0.05388279 -0.013834848
-0.026017535 -0.03064768 0.027785158 0.02174969 -0.03323738 0.02141915 0.06790381 0.0273957
0.04567971 -0.024545254 0.049130395 -0.02570381 0.0055630393 0.01616247 -0.06071301 0.067634635
0.067232184 -0.027058152 0.03894128 0.041467406 0.02258668 0.052267294 -0.0010135443 -0.038375385
-0.014710001 -0.049129587 -0.042064223 0.019623855 0.0067064255 0.056001347 -0.013989829 -0.019590445
0.03837936 0.0306699 0.069452904 0.05777349 0.00096335844 -0.043897167 0.025059858 0.050832853
0.025099624 0.063329354 0.042318244 -0.014672659 0.0056463596 0.06105422 -0.015851494 0.02415287
-0.008979147 -0.0014546514 0.012184833 -0.0462084 0.041027937 -0.023948979 0.017371254 0.0063684327
0.026569584 0.04141213 0.049612448 0.006126782 0.012982947 -0.0013457442 -0.031679902 0.03187833
0.029422484 0.018580018 -0.030480765 0.0299775 0.016153818 0.0738339 -0.021328893 -0.006085487
0.0038474363 0.023976224 -0.13100389 -0.036099344 0.07483433 0.0064054416 0.016123597 -0.0023918909
0.02796288 -0.0112312175 0.04008322 -0.023918245 0.0655369 0.059021894 0.053630076 0.0387554
-0.018307721 0.042921714 -0.007833953 0.012543263 0.01985598 0.031784266 -0.013494697 0.025802089
-0.026474 0.0009976254 0.025159113 0.07639756 0.05823169 0.04523966 -0.0051944437 0.04551158
0.018955057 -0.05902988 -0.0040533375 0.0584695 0.044803627 -0.046731956 0.00048152983 0.018006874
0.012768819 0.02399353 0.018617122 -0.046371233 -0.06801667 -0.05042257 0.06948317 0.024404446
0.06015532 0.013113805 -0.01475728 -0.051249303 -0.022562616 0.050827347 -0.018864438 0.05339874
-0.0013932791 0.08139097 0.057808984 0.06284914 -0.03251573 0.008164495 -0.016838986 0.05695097
0.020697717 0.015976168 0.025155252 -0.030693257 0.036001988 -0.005728154 -0.026128456 0.0007966186
-0.019588366 -0.04313654 0.039925247 0.019343387 0.040510748 0.00086955505 0.001374107 0.043947604
0.016738871 0.015834296 -0.029266335 -0.056166198 0.006373208 0.02822122 0.043212794 -0.054485746
0.04885559 -0.070907764 -0.021010365 0.037605185 0.009307904 -0.043497965 -0.035441037 0.06898308
-0.0186759 -0.02758865 -0.015093077 0.040541828 -0.01319609 0.043699704 0.016387036 -0.045962214

linear_relu_stack.2.bias f4 [36]
00000000: e2ec 0fbd 3c47 983c fe72 22bc 79b2 3b3b
00000010: f6d6 a13d 874a 2abc d01b 9c3d cb17 d7bc
00000020: 5685 113d ac2d d3bc 6163 533c 1406 a8bc
00000030: 69f5 f63a 499f 123b 2130 b43c dea7 ae3d
00000040: 3ccc e23c d681 b83d 08bc a83d 5620 17bd
00000050: 040f af3c 7310 c33c ea10 18bb 978e 3b3d
00000060: 5a94 a73d 65c9 e23a c8be b0bb 5d83 a83c
00000070: 8324 4d3c 5e39 5bbc 8f7d 90bc 0ca9 973c
00000080: 884f 10bc 0d58 943c d5c4 f6bc b833 423d
-0.03513802 0.018588655 -0.009915112 0.0028640314 0.07902329 -0.010393745 0.07622492 -0.026256463
0.03552755 -0.025778614 0.012902112 -0.02051071 0.0018841448 0.0022372773 0.021995606 0.08528112
0.027685277 0.09009139 0.08238989 -0.036896072 0.021369465 0.023811555 -0.002320344 0.04579028
0.08182593 0.0017302452 -0.0053938366 0.020570451 0.012520912 -0.013380377 -0.017637996 0.018513225
-0.008808024 0.018108392 -0.030123154 0.047412604
