models/model_potential_damping_n7.pth (torch, 55656 bytes, 4 tensors)

linear_relu_stack.0.weight f4 [256, 15]
000000 79 27 99 3c 2c 50 87 3e 69 01 61 3e 8a b1 79 3e
       0.01869558 0.26428354 0.21973194 0.24384132
000010 cd ca 54 be 03 71 a7 bb 41 d2 ec bd b4 61 79 be
       -0.20780487 -0.0051099076 -0.1156354 -0.24353677
000020 dc c2 c8 3c 69 a2 9d 3d 53 a1 d5 39 9a 2b 02 3c
       0.024506979 0.07696993 0.00040746722 0.007944966
000030 93 30 1a be c8 1e ff bd fa da 3d bc ee 2c 71 3d
       -0.15057592 -0.12457043 -0.011587853 0.05888074
000040 cc 55 96 bd ee 64 2b 3e a0 c2 1a 3d a7 17 81 be
       -0.07340583 0.1673772 0.037783265 -0.25213358
000050 e0 12 09 be c8 a4 9b 3d ec 37 ad bc b4 45 4c be
       -0.13386106 0.07599789 -0.02114483 -0.19948465
000060 1f 94 8d 3d 6f 06 37 bd a3 47 44 3e 85 19 12 be
       0.069130175 -0.04468387 0.19167952 -0.14267547
000070 a7 32 68 3e b1 53 3c 3e d4 99 fa 3d a8 02 77 3e
       0.22675572 0.183913 0.12236372 0.24122107
000080 a4 12 9b 3c dc 23 2d be c1 00 e2 3c bf c0 4c be
       0.018929787 -0.1690821 0.02758825 -0.19995402
000090 d6 9a 72 bc 4a d3 8c 3d bd d6 34 3e 49 d5 63 bd
       -0.014807424 0.06876238 0.17660041 -0.055623326
0000a0 db 92 60 bc b7 50 37 be a7 8f 07 3e 7f c3 8a bb
       -0.013706888 -0.17901884 0.13238393 -0.0042347307
0000b0 2c f8 16 be 46 55 47 be ae 69 22 3e bf 7c 47 3e
       -0.14743108 -0.19466123 0.15860626 0.1948118
0000c0 37 c8 21 3e ac a4 b2 bd 1a 94 0a be 8a 20 52 3e
       0.15799032 -0.08722815 -0.13533059 0.20520225
0000d0 aa 4d 18 3d 53 3b 61 3d b7 b0 00 3d f9 04 d6 3d
       0.03718344 0.054988217 0.03141853 0.10450167
0000e0 a9 7c c8 3d 84 a1 23 be 3b 30 21 3d 78 90 8e 3e
       0.09789402 -0.15979582 0.039352637 0.27844596
0000f0 ea cb 75 3d cd 97 7f 3b ae 05 db bd 79 3a 3c be
       0.06000892 0.0039000392 -0.10694443 -0.1838168
000100 c6 07 c5 bd a3 eb 2c 3e a5 8d 13 3e 57 f2 8e be
       -0.09620623 0.16886763 0.14409502 -0.27919266
000110 f6 0b 4b 3e 2b 67 4a 3d 3c 63 65 3d 6d 57 e2 bd
       0.19828781 0.049414795 0.05600284 -0.110518314
000120 39 cf 08 3e 44 27 1b be aa e9 02 3e 9a 37 02 3e
       0.13360299 -0.15151697 0.12784448 0.12716523
000130 f5 19 e6 bd 23 9f 4d bc da 4b 83 3e 60 82 51 be
       -0.1123542 -0.012550148 0.25643808 -0.2045989
000140 f3 79 3d 3e 91 b6 14 3e 5e ec e2 3d d5 b3 26 be
       0.18503551 0.14522769 0.1108024 -0.16279538
000150 e8 70 b4 bd bb 2d d0 3a 39 08 07 3e 4d c0 64 be
       -0.08810598 0.0015882769 0.1318673 -0.22338982
000160 14 08 19 be 63 d9 49 be 66 1d e1 3d d5 d0 ad bd
       -0.14944488 -0.19711833 0.109919354 -0.08487097
000170 78 ff 57 3e 2d 62 1c be 47 3c 26 3e 8d c8 88 bc
       0.21093547 -0.15271826 0.16233931 -0.016697193
000180 22 3b bc bc d8 56 cf 3d 40 d2 15 3e a0 eb 41 be
       -0.022977415 0.10123986 0.14630985 -0.1893754
000190 2a da 72 be f3 72 1a be 56 27 26 3e 10 cb c2 bd
       -0.23716035 -0.15082912 0.16225943 -0.09511387
0001a0 93 55 07 be f6 bc f5 3d bc f7 13 bd 5b 16 74 3e
       -0.13216238 0.11998932 -0.03612493 0.23836653
0001b0 41 5b e5 3c 78 d1 fb bd 43 aa 7a 3c c5 fa 12 3e
       0.027997615 -0.12295812 0.015299383 0.14353473
0001c0 7e 00 7e bc df ae 3b 3e b2 16 ad bb 7c fd 84 3d
       -0.015503047 0.18328427 -0.0052822465 0.06493661
0001d0 b9 8e 49 3c 8f e5 74 3c b1 94 20 3e 92 c6 24 be
       0.012302094 0.014947309 0.15681721 -0.16091374
0001e0 b6 49 7e be 67 8c 67 be 04 8b 6d 3d 7d aa be bc
       -0.24832806 -0.22612153 0.057993904 -0.023274655
0001f0 59 be 17 be 2c b0 03 3e b1 a4 b2 bd 70 1a 53 be
       -0.14818706 0.12860173 -0.08722819 -0.20615554
000200 1c c5 ab bd b5 87 90 3e 27 8b 50 3e d1 3b 4e 3e
       -0.08387205 0.28228536 0.20365582 0.20140006
000210 dc fc 3e 3e c1 6a df 3d b5 1a 5b 3d f0 48 ce bd
       0.18651146 0.109090336 0.053492267 -0.100725055
000220 4e 6c 19 3e b7 50 30 3e 21 7a 04 3e f5 c9 66 3c
       0.14982721 0.1721829 0.12937213 0.014086236
000230 04 8c 2f be 20 34 9f bc 85 b9 ca 3c d8 49 21 bd
       -0.17143255 -0.019434035 0.024746666 -0.039377064
000240 c2 8a 07 bd c7 ec 11 bd 2b a3 56 be 6f cd 44 3e
       -0.033091314 -0.0356262 -0.20960681 0.19218992
000250 9d 12 35 be c5 86 ce 3d 70 4d 38 3e 8d 78 65 bd
       -0.17682882 0.10084299 0.1799829 -0.05602317
000260 af ba df 3d 77 66 65 3e 46 1b f9 bd ed 25 36 3e
       0.10924279 0.22402368 -0.12163405 0.17787905
000270 bd de 74 3d 8e b6 4c 3e c5 cd 4f be 12 c7 67 3e
       0.059782732 0.19991514 -0.20293339 0.22634533
000280 1a 0c 61 3d e9 bd 3e 3e ff f1 20 be 8e 31 73 3e
       0.05494318 0.18627132 -0.15717314 0.23749372
000290 52 0c 0f be 8a 80 9c 3d dc 04 e5 3d 60 fe 3e 3e
       -0.13969544 0.076417044 0.111825675 0.18651724
0002a0 a2 dd a2 3c 34 2d 79 3d b2 35 b0 bd 29 ef a8 bd
       0.019881073 0.060834125 -0.086039916 -0.08248741
0002b0 af 8f 36 be 75 47 71 3e 98 a2 cf bd 6d 86 56 3e
       -0.17828248 0.23562415 -0.10138434 0.20949717
0002c0 01 68 20 3e 0d 52 7a 3e 2a 1d f8 3d 7f d7 34 bc
       0.15664674 0.24445362 0.121149376 -0.011037706
0002d0 a6 9c 39 be 3b da c0 3b c1 69 01 3e e4 49 08 3e
       -0.18126163 0.00588539 0.12637998 0.13309437
0002e0 fd 36 2e 3e 73 56 0c be 7a f1 6a 3c 88 53 cc 3d
       0.17013164 -0.13704853 0.014339799 0.0997687
0002f0 44 aa fe bd 70 ec 55 3e fc 2e 22 be db 30 fc bd
       -0.12434819 0.20890975 -0.15838236 -0.12314006
000300 da 6d 4e bd a1 60 72 3c eb 8e 90 bd 5c ee a3 3d
       -0.05039773 0.014793546 -0.070585094 0.08004448
000310 3e 71 6c bd cb 1e 90 3e 89 e3 e2 bd 66 64 cc 3c
       -0.057725184 0.28148493 -0.11078555 0.024950217
000320 28 d8 80 3e 99 e5 7f be 1e b7 58 be f2 0d eb 3d
       0.25164914 -0.24989928 -0.21163604 0.11477269
000330 32 90 88 3d 6d dd 43 3e b1 8d 34 bc 6d 30 3c 3e
       0.06668128 0.19127436 -0.01102011 0.18377848
000340 0b 83 b8 bc bb 77 af bd bd 98 35 be a1 f3 51 3e
       -0.022523424 -0.08567759 -0.17734046 0.20503093
000350 03 eb c2 bd 63 73 a4 3c ec 84 66 bd a9 e5 8a 3e
       -0.09517481 0.020074552 -0.056279108 0.27128342
000360 3e 34 d1 3d e4 3c 32 be 61 12 d2 bd 5f 94 a1 3d
       0.102150425 -0.1740604 -0.10257412 0.07889628
000370 55 cb 68 be e7 ea 4a bc 25 ff ef bc 8e ae e1 3c
       -0.22733815 -0.012385107 -0.029296467 0.027549054
000380 f8 50 26 be fd 20 ad 3d 94 33 37 be 2f fb 85 bb
       -0.16241825 0.08453558 -0.17890769 -0.0040887813
000390 fd 21 13 bd 25 fa 83 be 35 b6 25 be ea b1 8e be
       -0.035921086 -0.25776783 -0.16182788 -0.27870113
0003a0 96 16 58 be 40 5e 46 bd e7 18 18 3e 39 a3 32 bd
       -0.21102366 -0.048429728 0.1485325 -0.043612693
0003b0 3c 7e 00 3e 2c fd 52 3d 7c d1 20 be 58 0d 86 3e
       0.12548155 0.051510975 -0.15704912 0.26182055
0003c0 c8 29 79 3e 4c 07 20 3e b2 f6 55 3e 8f f0 ea 3d
       0.24332345 0.15627784 0.20894888 0.11471664
0003d0 b5 24 4e be 44 32 7e 3b ae 83 03 be 04 4f 7c 3e
       -0.2013119 0.0038787285 -0.128432 0.24639517
0003e0 84 45 c9 bc e9 72 3a 3e 73 51 38 3e 5b 75 e1 bd
       -0.02456928 0.18207897 0.1799982 -0.11008712
0003f0 69 14 15 3e 61 93 b5 3d 3d 76 06 be e2 25 11 3d
       0.14558567 0.08866001 -0.13131042 0.03543652

linear_relu_stack.0.bias f4 [256]
000000 81 44 ea bd 1f 2b be 3c f4 1e ac bd 44 bc d2 3d
       -0.11438847 0.023213921 -0.08404341 0.10289815
000010 06 d6 32 be 3e c7 8d bd 7f 07 7e 3e 28 e1 83 3e
       -0.17464456 -0.06922768 0.24807547 0.25757718
000020 11 ca 52 be 5d ca 0e 3d 6f 36 7b 3e 51 ac 44 be
       -0.20584895 0.034860957 0.24532484 -0.19206358
000030 22 89 b7 bd 65 7f 54 be fc e5 5d 3e e9 73 8f ba
       -0.08961703 -0.20751722 0.21669763 -0.0010944578
000040 cd 28 58 be f4 ad 5c be 15 b6 6e bd 36 85 0e 3e
       -0.21109314 -0.21550733 -0.058279116 0.13918003
000050 34 2a df 3d 29 ef 00 3e f1 34 05 3e 0f 0c 44 3e
       0.108967215 0.12591232 0.13008477 0.19145225
000060 2f bc 0a 3e 25 fc 1e 3e 60 0c 08 3e 20 a5 5d 3e
       0.13548349 0.15525873 0.1328597 0.21645021
000070 24 13 3f 3e c2 26 48 be 9d 95 56 3e 83 06 80 bc
       0.18659645 -0.19546035 0.2095551 -0.015628105
000080 59 dc 96 3e 28 1e 73 3e 5b a5 f9 bc 3f 93 dc 3d
       0.29464987 0.23741972 -0.030474355 0.107702725
000090 f2 35 f4 3d 86 2d bf bd f5 ba 6c 3e 6c 3c fa 3d
       0.11924352 -0.09334855 0.23118193 0.12218556
0000a0 f8 9d 2d be e0 49 56 3e 2f 8d 48 3e c7 b3 e8 3d
       -0.16954792 0.20926619 0.19585107 0.11362415
0000b0 d8 be 69 3e 1c 0c 37 be 54 49 11 3e 5b f5 4c be
       0.22826707 -0.17875713 0.14188129 -0.2001547
0000c0 a8 0e 6f be 8d cb 39 3e 2a 06 85 be ae e7 0e 3e
       -0.23345435 0.18144055 -0.25981265 0.13955566
0000d0 53 55 fb 3d 44 fb 49 be b1 3a 81 be dd b7 07 be
       0.12272134 -0.19724756 -0.2524009 -0.13253732
0000e0 0c a2 78 be 2f c5 32 3e 5e 43 5c be f1 45 57 be
       -0.24280566 0.17458032 -0.21510074 -0.21022774
0000f0 a5 6a 3d 3e 67 0f 03 3e 26 5f e5 bc 93 ea 4d be
       0.18497713 0.12798844 -0.027999472 -0.20109014
000100 36 11 96 3d d2 a5 e5 3d 53 f5 38 be 8d d9 e0 3d
       0.073275015 0.11213268 -0.18062334 0.109789945
000110 26 65 82 3e 24 64 24 3d 71 a1 0a be ad f6 21 3d
       0.25467795 0.040134564 -0.13538148 0.03954189
000120 27 7f 6b bd 2f a3 46 3a 54 6d 16 be 78 7a 7a 3e
       -0.05749431 0.0007577417 -0.14690143 0.2446078
000130 b9 17 23 be af 84 7c 3e 45 89 01 3e 04 f6 6d 3e
       -0.15927018 0.2465999 0.1265002 0.23238379
000140 19 27 54 bd 77 51 3f be 25 c9 d6 3d e0 45 3b 3e
       -0.0517951 -0.1868342 0.10487584 0.18288374
000150 e9 c7 91 3e d3 79 7a bc 72 0d 4a 3e e2 88 8a 3e
       0.28472832 -0.015287834 0.19731691 0.27057558
000160 48 8b 87 bd 9e bc 83 be 1c 71 4d 3e 6e 7e 5e 3e
       -0.06618363 -0.2572984 0.20062679 0.21727917
000170 be ee 8c 3d b7 98 4d be 35 af 85 3e 9d c9 ed bd
       0.06881474 -0.20077787 0.26110235 -0.1161072
000180 e1 16 96 3d 42 31 92 bd 9f 59 55 3e e9 e1 ff bd
       0.073285826 -0.071383014 0.20834969 -0.12494261
000190 9b 50 7f 3e e6 d1 ec 3d eb 31 8e 3e d5 9b 3e 3e
       0.24933092 0.115634724 0.2777246 0.18614133
0001a0 55 31 65 be 72 15 b9 3d d7 ab 3c bd 2c 69 0a bd
       -0.223821 0.090372935 -0.046062317 -0.033791706
0001b0 90 a9 2d be 63 59 c1 3d 2f 22 86 3e e9 34 0c be
       -0.16959214 0.09440877 0.26197955 -0.13692059
0001c0 8b 57 0e 3e 6f fe dc 3c 09 00 c8 3c ef ca 92 3e
       0.13900582 0.026976792 0.02441408 0.2867045
0001d0 88 b9 2f bd a3 1e 18 bd a0 2e 75 be 67 c2 04 3e
       -0.042901546 -0.037138592 -0.23943567 0.12964784
0001e0 b4 e2 6a be 01 2a 2a 3e 8b e9 26 be df 4e 42 3e
       -0.22938043 0.16617586 -0.16300027 0.189754
0001f0 8c 24 0a 3c e9 72 91 3e 2a 63 90 3e 04 91 65 3e
       0.008431565 0.28407982 0.28200656 0.224186
000200 71 35 4b be 75 55 88 bc c5 43 8d 3c e6 9e 3a be
       -0.19844605 -0.016642312 0.01724423 -0.18224677
000210 fb 8f 46 bd 1c de 86 3e 6b b6 20 3e ba 81 61 be
       -0.048477154 0.2634133 0.15694587 -0.22022143
000220 3a 3e e6 3d 7a f2 6e be bd 13 5e 3e bd 13 3d be
       0.112423375 -0.23334685 0.21687217 -0.18464561
000230 6d ed 4e 3e a5 3c b3 bc e2 7c 03 be 0d 67 99 3e
       0.20207758 -0.021879504 -0.12840608 0.29961434
000240 e7 67 cb 3d de 43 0f 3e 74 65 9d 3e c6 01 46 3d
       0.09931927 0.13990733 0.30741465 0.048341535
000250 a5 a9 86 3e e4 70 e0 3d 43 bc 05 be e8 47 4c be
       0.26301304 0.10959032 -0.13060097 -0.19949305
000260 fc 61 89 3e f0 71 72 bd 9e c1 14 bd ff 75 38 be
       0.2683257 -0.05919069 -0.03631746 -0.18013762
000270 6d fd 51 3e 40 ac 00 3e ef ee a1 3d e9 80 6d 3e
       0.2050683 0.12565708 0.07906901 0.23193707
000280 be 5d 81 3e 2b 42 7b 3e 55 3b b9 bd fe 5b 44 3d
       0.25266832 0.2453696 -0.0904452 0.047939293
000290 de 8a 9b 3e 09 41 d8 3d dc ed 97 3e e9 82 bd 3c
       0.30379385 0.105592795 0.2967366 0.023133712
0002a0 f5 ef 59 3e 5e 15 38 be 8a df 88 be 5b 36 5d 3e
       0.21282943 -0.17976901 -0.26733047 0.21602766
0002b0 bc 54 65 3e f0 53 6f 3d 90 f4 cb 3d 1c f4 19 be
       0.22395605 0.05842966 0.09958756 -0.15034527
0002c0 e3 0c 0f 3e c6 98 55 3e b9 a3 14 be a2 95 c0 bd
       0.1396976 0.2085906 -0.1451558 -0.0940354
0002d0 e6 bb 89 3e c7 c6 f6 bd 0a 30 6e 3e dd 0f e8 3d
       0.26901168 -0.120496325 0.23260513 0.11331151
0002e0 2f 2e 03 3e 7f 83 40 3c d3 93 f7 3d 63 50 d7 3d
       0.12810586 0.011750101 0.12088742 0.105133794
0002f0 ca dc 20 3e 8e be ee 3d ac 34 ed bd ec 7b e6 3d
       0.15709224 0.11657439 -0.11582312 0.11254105
000300 29 c8 3c 3e 3d 30 e3 bc bf dc 6f 3e de 04 63 3e
       0.1843573 -0.027732963 0.23424052 0.22169825
000310 d9 43 17 be 5b c2 84 3e 9d ec 55 3d f3 0e 3c 3d
       -0.14771976 0.2592953 0.052227605 0.045912694
000320 ab bd ef bd d5 2a b0 3c 26 a5 43 3e c9 13 87 3d
       -0.11706098 0.021504799 0.19105968 0.065955706
000330 d8 c8 7d 3e cd bf 01 be 09 fb 88 3e 2a 52 42 be
       0.24783647 -0.12670822 0.26754025 -0.18976656
000340 8c d4 ec 3d 4b 8c f6 3c 13 31 7c be 4d 63 20 bd
       0.115639776 0.030096194 -0.24628095 -0.0391572
000350 6b dd 5b 3e 1f dd c2 bd 02 74 96 3e 7c 38 61 be
       0.21471183 -0.09514832 0.29385382 -0.21994203
000360 16 cb f0 bd 09 d6 4f 3e 3f 99 4f 3d 47 21 42 3e
       -0.117574856 0.20296492 0.050683256 0.18958007
000370 d5 a9 ef 3d 13 7a 7a be 69 ca 58 bd ab 4e 49 3e
       0.11702315 -0.2446063 -0.05292741 0.19658916
000380 f1 b4 af 3d 59 2d 45 be c0 d4 33 3d a8 a2 97 3e
       0.08579434 -0.1925558 0.043904066 0.29616284
000390 6a 89 5a be 5b c4 c7 3d c8 b2 16 be c1 77 30 be
       -0.21341482 0.09754249 -0.14716637 -0.17233182
0003a0 63 29 72 3e 72 7b 45 3e e8 af cf bd 37 2c 85 bc
       0.236486 0.19285372 -0.10140973 -0.016256435
0003b0 02 ae 25 be 6f 02 b4 bb 2b 96 4f be 7b ae 3d 3e
       -0.1617966 -0.005493454 -0.20272128 0.1852359
0003c0 f0 99 e0 3d 7b a2 05 be 4b 38 96 3e db f9 79 3e
       0.10966861 -0.13050263 0.29339823 0.24411719
0003d0 84 50 70 3e 83 10 db 3d 6d 9d 33 be 63 32 67 3e
       0.23468214 0.10696509 -0.17540522 0.22577815
0003e0 14 f6 08 3e 33 6f 9b 3e c2 61 64 3e 68 e0 25 3c
       0.13375121 0.30358276 0.22302917 0.010124303
0003f0 94 16 29 bd 56 f3 fe 3d 78 92 60 3e 5b a7 05 3e
       -0.041281298 0.124487564 0.21930873 0.13052122

linear_relu_stack.2.weight f4 [36, 256]
000000 18 5b ca 3d 1e 48 0e 3d 6e 15 25 3d 05 27 07 3d
       0.09880656 0.034736745 0.04030364 0.032996196
000010 07 55 1a 3c 11 7d 51 bd 78 36 e2 3c 31 55 92 3c
       0.009419686 -0.051144663 0.027613863 0.017862888
000020 82 50 af 3b 39 03 b5 3d 08 b8 43 3d 31 50 5b 3d
       0.0053501735 0.08838505 0.047782928 0.053543273
000030 73 c6 ec bc 50 73 c3 bc de 08 e1 bc d2 64 0d 3b
       -0.028903222 -0.023858696 -0.027470049 0.0021574986
000040 02 b7 df bc 1d 60 90 bd ff a6 64 bd d6 77 7a 3d
       -0.027308945 -0.07049582 -0.055823322 0.06114944
000050 ad d4 64 3c 1a f4 03 bd 02 cb 05 3d 95 a1 5c 3c
       0.0139667215 -0.032215215 0.032664306 0.0134662585
000060 48 a8 9a 3c 03 12 b0 bc 03 94 db 3c 74 90 25 3d
       0.01887907 -0.021492964 0.026803976 0.040420964
000070 a5 25 30 3d ad c4 6c 3b 50 e3 f6 3c 21 1a ab bb
       0.04300465 0.003612797 0.030137688 -0.0052216207
000080 55 9e d1 bc 5a 65 c5 bc f8 5f 3b bd a4 00 88 3d
       -0.025588194 -0.02409618 -0.04574582 0.06640747
000090 1d 78 3c 3d c9 5b 98 3c 5f eb 44 bd 49 4d ea bc
       0.046012986 0.018598454 -0.04807603 -0.028601306
0000a0 90 eb 28 3c 35 ca 79 3d 4a fe cc bb e6 87 b5 3c
       0.010310069 0.060983855 -0.0062558996 0.022159528
0000b0 16 26 ca bc 50 27 3b 3d 47 87 2e bc a0 49 b6 bc
       -0.024676364 0.04569179 -0.01065237 -0.022251904
0000c0 25 04 1a bd 5f 38 32 3d 66 66 c1 3c 5a 60 be bc
       -0.03760161 0.04351079 0.023608398 -0.023239303
0000d0 dc 7e 4f 3d 6c 94 1f 3d c9 9f 48 bc 5b 85 80 3c
       0.050658092 0.038959906 -0.012245127 0.015688589
0000e0 bc 4f 81 3d 52 f6 08 bd 4c 40 29 3d 8e ae f0 bc
       0.06314036 -0.033438034 0.041321084 -0.02938011
0000f0 36 9c 13 bd 2d d6 5a 3d 0e f8 d6 bd 15 68 9b bb
       -0.036037646 0.05342691 -0.104965314 -0.004742632
000100 df 3a 33 3d 1c 41 53 3b 30 1a e5 bc 82 de d9 3b
       0.043757316 0.0032234853 -0.027966589 0.0066488395
000110 11 97 f5 3c 87 99 22 3d cb ee 75 bc 3e b5 9c bc
       0.02997926 0.039697196 -0.015010546 -0.019129392
000120 63 ee ec 3a 1d 64 69 bc 67 d6 e2 3c 4a 93 f3 3c
       0.0018076416 -0.01424506 0.027690126 0.029733319
000130 38 ba d7 3c f6 24 bd 3c 43 df 44 3d a4 c8 9a bc
       0.026333913 0.023088913 0.04806448 -0.018894501
000140 05 83 90 3c 64 78 5e 3c f0 52 5e 3d 78 f9 fc bb
       0.0176406 0.013578508 0.054278314 -0.0077201687
000150 cb eb ec bc 91 59 0e bd ea ae 66 3d f0 73 91 3c
       -0.028921029 -0.034753386 0.056319155 0.017755479
000160 04 82 89 3d 30 5e 5c bd ad b1 01 bd 23 43 a2 bc
       0.06714252 -0.05380076 -0.031663585 -0.019807404
000170 a2 7a a3 bc ee 5a d4 3b 03 9f 08 3d 55 85 1b bd
       -0.019955937 0.006480566 0.03335477 -0.037968952
000180 5d b0 5a bd d4 8f d3 3c 32 1a 49 bb 06 b0 bf 3c
       -0.05339085 0.025825419 -0.003068578 0.023399364
000190 b1 c7 0b 3d c8 41 08 bd 9a 0e 9c 3d 1b 40 5d 3d
       0.034125987 -0.03326586 0.076199725 0.054016214
0001a0 38 bf 27 3d 07 43 8c 3c dd 17 fe 3c c9 08 7c bc
       0.040953845 0.017121805 0.031017238 -0.015382954
0001b0 c2 71 16 bd 3a 7e 69 3d f9 07 9f bb 5d 73 e9 bc
       -0.03672958 0.057005145 -0.0048532453 -0.028497392
0001c0 2d 25 b1 3c c2 77 6d 3c 31 ac c2 3b fe 13 36 bd
       0.021624172 0.0144938845 0.005940937 -0.04445266
0001d0 49 eb ab 3b 47 aa 75 3d 7a a3 33 bc 2e b2 98 bc
       0.005246554 0.059976842 -0.010964269 -0.01863965
0001e0 98 f1 31 3d 5e 6c 18 3d 86 d1 47 bd 76 ed 13 bc
       0.043443292 0.037212722 -0.0487838 -0.009028783
0001f0 da 57 0c 3d 5f 3b 6d 3d 5f aa 8d 3d 58 60 0f 3d
       0.03426347 0.05791795 0.06917261 0.03500399
000200 7a 26 a2 bc 12 80 36 3d a7 6a ba 3c b9 e8 2f bd
       -0.019793738 0.04455573 0.022755934 -0.04294655
000210 e9 11 75 3c f3 d2 94 3d 14 f4 cb bc 61 6a 27 bd
       0.014957883 0.07266798 -0.024896659 -0.040872935
000220 72 cf 1d 3d 27 ad 45 3d dd 58 71 bc ae c9 98 3b
       0.038527913 0.048260834 -0.014730659 0.004662714
000230 ef 42 5b 3d 62 67 3a 3c b1 d3 38 bd c0 9b b1 3d
       0.05353063 0.011377187 -0.04512376 0.08672285
000240 06 5e 93 bb 1a 3f 57 3c cb f7 7f bb dc 61 bc bb
       -0.0044972925 0.013137603 -0.0039057608 -0.0057489704
000250 d5 26 67 3c af 37 04 bd 98 58 64 3c 6a 6c 30 3d
       0.014108379 -0.032279667 0.013937138 0.04307214
000260 97 88 93 3b 3a a8 fe 3b a7 9e 68 3c 4d 6c f8 bc
       0.0045023668 0.007771519 0.014197982 -0.03032508
000270 cc 24 73 bc f1 17 7e 3d 10 97 13 3d ec da 93 bc
       -0.014840316 0.06203455 0.036032736 -0.018048726
000280 05 db 87 3c b3 80 ca 3b de c0 35 3d 6d 7d 44 39
       0.016583929 0.006179893 0.044373386 0.00018738741
000290 4a 63 ea 3c 1b b5 75 3d e4 70 2d 3d 02 ac e7 bb
       0.028611798 0.05998717 0.04234399 -0.0070700655
0002a0 36 a0 7f 3d f1 a1 f4 3c 16 97 9d 3c f2 8a 9c 3d
       0.06240865 0.029862376 0.019237082 0.07643689
0002b0 98 77 bb bc b0 72 1f bd b0 8c 87 3d 48 15 81 bd
       -0.022884175 -0.038927734 0.06618631 -0.06302887
0002c0 22 d9 34 bd c5 5a 43 3c 9d 67 9a bc 5f 08 77 3d
       -0.044152386 0.011923497 -0.018848235 0.060310718
0002d0 ef 4c 08 3d 2b cd 81 bd 69 9b 17 3b 1c e1 c0 3c
       0.033276495 -0.06337961 0.0023133403 0.02354484
0002e0 f4 a0 8d bb 79 c5 1b 3d ff 20 32 3d c8 e5 8f ba
       -0.0043221656 0.03803012 0.0434885 -0.0010978514
0002f0 92 61 0b bd 24 b0 25 3d e2 ed 56 bd 7e a9 1e 3d
       -0.034028597 0.040451184 -0.052472956 0.03873586
000300 63 9f 7f 3c 80 6a 34 bd 4f a1 9f bc d6 43 b5 3c
       0.015601966 -0.04404688 -0.019486098 0.022127073
000310 55 8c 55 bc 38 88 82 bb 0e 7f ec bc a8 c0 fc 3c
       -0.013033946 -0.0039835237 -0.028869178 0.030853584
000320 87 40 df bb b2 9c d3 3b 19 a7 3e 3c 14 eb b8 bb
       -0.006813112 0.0064578885 0.011636519 -0.005643258
000330 37 a2 0c bc 9c 83 68 bc 8e 64 00 bc 91 21 e6 bb
       -0.008583597 -0.014191534 -0.007836474 -0.0070230444
000340 da 5c 8b 3d ea 74 d1 3c ec d3 3b 3c 23 8f 1a 3c
       0.068048194 0.025568444 0.0114641 0.0094335405
000350 39 5d 45 3c 60 ce bf bd ee cf 06 3d 19 a1 05 3c
       0.012046152 -0.09365535 0.03291314 0.008156084
000360 9f 79 a4 3d 5a 1e 64 3d bf 5e 12 3d 8e 6c a0 3b
       0.0803101 0.055693008 0.03573489 0.004895753
000370 88 c4 3a ba 20 cb f1 bc 2a 46 3e bd 94 09 9b 3c
       -0.00071246224 -0.029515803 -0.046453632 0.018925466
000380 8f 76 64 3d 51 66 f9 3c 23 85 01 bd 6a 1b f2 3a
       0.05577713 0.030444296 -0.03162111 0.0018471305
000390 a4 45 12 bd 23 f1 41 3d 58 ac a5 bc 00 a2 b5 3c
       -0.035710946 0.047349107 -0.020223781 0.022171974
0003a0 fb 94 ed bc 26 e9 64 3d a0 67 57 ba 03 63 99 3b
       -0.029001703 0.05588641 -0.00082170404 0.0046809926
0003b0 bb 6e c0 bc 55 39 51 bc 39 09 a4 3c 45 fc 0f ba
       -0.0234903 -0.012770017 0.020023929 -0.0005492608
0003c0 01 31 e1 3b 01 fa 53 3c 65 ce e7 bc 27 50 16 bc
       0.006872297 0.012938024 -0.028296659 -0.009174383
0003d0 62 83 cd 3c b5 f0 32 3d 2f ca 0a 39 58 93 05 3d
       0.025087062 0.043686587 0.00013236025 0.03261122
0003e0 12 0b 73 3d 1e 2e 9a 3d ce c3 a7 3c 94 44 d0 3c
       0.05933673 0.075283274 0.02047911 0.025423326
0003f0 e9 8c e0 3c f0 ec c9 3c 03 94 df bc a6 be 8a 3d
       0.027410941 0.024649113 -0.027292257 0.067746446

linear_relu_stack.2.bias f4 [36]
000000 06 1f f0 3c aa 07 8c bc 96 33 09 bc 33 9b e7 bc
       0.029311668 -0.017093498 -0.008374115 -0.028272247
000010 45 c0 a2 3d e1 55 29 3d 72 f9 19 3d 8d bb f1 bb
       0.07946829 0.041341666 0.037591405 -0.007377094
000020 6a cb 3e 3d 56 ef 4b bc 93 f3 a1 3d 7a 3a b9 3c
       0.04658071 -0.012447199 0.07907786 0.022610892
000030 77 6d 27 3d a9 88 b4 3d 5e 71 a6 3d 14 fc 04 bd
       0.04087588 0.08815128 0.08127092 -0.032466963
000040 0e d4 0e bd 74 e1 85 3d 43 83 81 3d a4 d6 1b 3d
       -0.0348702 0.065371424 0.06323864 0.038046494
000050 c5 bf 7b 3d f3 8b 1c bc bc b7 54 3d ae c9 87 3d
       0.061462183 -0.009554851 0.051933035 0.06630264
000060 56 0b 71 3d a1 de 6e 3d 1b 62 78 3d ac d5 92 3d
       0.0588487 0.058317784 0.060640436 0.07169661
000070 d0 8e 99 3d d1 03 30 3d e1 d6 bc 3c 1a 17 3f 3d
       0.074979424 0.04297239 0.023051681 0.04665289
000080 a8 35 d1 3b 6c 2e 92 bc 45 e5 d3 3b 99 80 e5 3b
       0.00638457 -0.017844401 0.00646654 0.0070038554
