models/model_added_mass_0_wave_frequency_n9.pth (torch, 231784 bytes, 4 tensors)

linear_relu_stack.0.weight f4 [1024, 19]
0.06080179 0.08309014 -0.10962337 -0.07889255 -0.20331661 0.061625116 0.17142333 -0.1778848
-0.20497307 0.21040285 -0.13645154 0.19414526 -0.0031132642 -0.0791341 0.17578633 0.04629545
0.17857344 0.029806651 0.044953786 0.26500958 -0.0810784 0.057107683 -0.21571362 0.24392655
-0.21114366 0.17467405 0.30118766 -0.023771364 0.083014965 -0.027136005 0.18020415 0.017564856
0.1709547 -0.044175126 0.0055098766 0.16377915 -0.14285077 0.1380623 0.18511316 0.039943784
-0.2040899 0.1603872 0.20041768 -0.11324489 -0.10144048 -0.047843814 0.004733611 -0.010028081
0.10799677 0.1936776 0.12644766 -0.049024474 0.06411168 0.17385113 0.0942522 -0.015306888
0.12222854 -0.12873504 -0.20335773 0.15654068 -0.090033695 -0.030965205 0.07277884 -0.1125152
0.1416881 0.18456472 -0.01851828 -0.20625173 -0.14532502 0.077018805 -0.062239915 -0.1685224
0.04344071 -0.20279394 -0.2559151 -0.10846587 0.12349715 0.17333247 -0.13885899 0.054403145
0.18926117 -0.034993406 0.038896255 0.12869309 -0.12390677 0.077174336 0.18759052 -0.08272629
-0.08678565 0.14783807 0.02963061 0.020863352 0.034909893 -0.00897979 0.27201104 0.0785923
0.15604244 -0.11954347 -0.21820886 0.04716762 0.21386464 -0.06726452 0.11829888 -0.2086587
0.11696916 -0.16861053 -0.08769801 0.12023105 0.058879267 -0.21833758 0.08402239 0.1401045
-0.17722501 0.16329408 0.12618364 0.0032487228 -0.12332298 -0.1323451 0.013050353 -0.055332024
-0.15773167 -0.19679165 0.08220759 -0.071896665 -0.030153504 0.13115606 -0.070623726 0.007719149
-0.00043680827 -0.01604884 -0.036990993 0.20236316 0.18845864 -0.01999903 -0.15253015 0.03863585
-0.14091964 -0.15558515 -0.034867004 0.17970996 0.20293705 0.119585104 -0.01908203 0.005979072
-0.03592633 -0.17624326 -0.12866402 0.17756347 0.09782412 0.20620362 -0.19156015 0.012339765
-0.17270899 -0.12874079 0.18019448 -0.16335538 0.1830169 0.29505956 -0.13100404 0.1907063
-0.043221872 0.07577341 -0.1642681 -0.06852917 -0.21094134 -0.25330192 -0.15395778 0.07078211
-0.18959674 0.17129026 -0.13619085 -0.032284666 -0.12148754 -0.107102245 0.079944134 -0.09545766
0.07084586 0.14621077 -0.19757113 0.16083612 -0.1612117 0.19925459 0.003227305 0.109814234
0.1630734 -0.19204587 -0.12787318 0.16022545 -0.18627912 0.124771565 -0.0731399 -0.04944753
-0.30573675 -0.2640406 0.15475096 0.16060148 -0.030883614 0.23647927 0.06898245 -0.1517879
-0.19380377 -0.015549444 -0.055020913 0.07250303 0.0097654695 -0.08533476 0.010991312 -0.1545181
-0.12573445 -0.030767363 0.17461169 0.19292907 0.20626323 0.21878059 0.17134634 0.16531022
-0.19461143 0.10785137 -0.10044162 0.124921836 -0.20548552 -0.087028444 0.08435041 0.074597836
0.099013805 -0.09096613 0.21712188 -0.1404353 -0.111954525 -0.17151128 0.031330947 0.23615752
0.11648587 -0.08680012 -0.18096468 -0.022678921 -0.02792243 0.16180868 -0.21912709 -0.016187303
-0.012439744 -0.1675985 0.1479628 0.1987291 0.02928893 0.18524837 -0.08565789 0.15156284
-0.17339024 -0.04065542 -0.14605126 0.009666909 -0.15742944 -0.02532159 -0.121802144 -0.14299716
00000000: 4c0b 793d 2a2b aa3d 3882 e0bd 6b92 a1bd
00000010: 3b32 50be 9e6a 7c3d 9989 2f3e 6f27 36be
00000020: 76e4 51be d873 573e f4b9 0bbe 04ce 463e
00000030: e807 4cbb 0f11 a2bd 5501 343e 4ca0 3d3d
00000040: f5db 363e 142d f43c 7621 383d 56af 873e
00000050: 6f0c a6bd bfe9 693d 08e4 5cbe e2c7 793e
00000060: 0b36 58be c1dd 323e 4535 9a3e 2abc c2bc
00000070: c003 aa3d 544c debc 7087 383e 2ce4 8f3c
00000080: c00e 2f3e faf0 34bd 328c b43b b9b5 273e
00000090: 7947 12be 3460 0d3e 4e8e 3d3e 189c 233d
000000a0: f1fc 50be 8b3c 243e 4b3a 4d3e f0ec e7bd
000000b0: 07c0 cfbd e0f7 43bd 681c 9b3b d24c 24bc
000000c0: 692d dd3d 6c53 463e 7f7b 013e e3cd 48bd
000000d0: fc4c 833d 0806 323e 4c07 c13d bec9 7abc
000000e0: f552 fa3d 1ed3 03be 023d 50be 334c 203e
000000f0: 9663 b8bd beaa fdbc 130d 953d 5f6e e6bd
00000100: af16 113e 89fe 3c3e a6b3 97bc a733 53be
00000110: 15d0 14be 09bc 9d3d 48ef 7ebd 2391 2cbe
00000120: e3ee 313d 37a9 4fbe 4e07 83be 5b23 debd
00000130: 13ec fc3d 117e 313e 0d31 0ebe d5d5 5e3d
00000140: aecd 413e 3f55 0fbd ae51 1f3d 1fc8 033e
00000150: d5c2 fdbd 940d 9e3d bb17 403e 676c a9bd
00000160: adbc b1bd dd62 173e e5bb f23c 9fe9 aa3c
00000170: adfd 0e3d f81f 13bc 0845 8b3e 00f5 a03d
00000180: 97c9 1f3e 35d3 f4bd 2572 5fbe d632 413d
00000190: 55ff 5a3e fbc1 89bd af46 f23d a0aa 55be
000001a0: 878d ef3d 3da8 2cbe 049b b3bd b23b f63d
000001b0: 632b 713d e393 5fbe ee13 ac3d 8e77 0f3e
000001c0: 797a 35be 9036 273e 4936 013e 86e8 543b
000001d0: c290 fcbd 7985 07be 26d1 553c d5a3 62bd
000001e0: 6984 21be c083 49be 745c a83d 8f3e 93bd
000001f0: 7b04 f7bc c64d 063e 2ca3 90bd eaf0 fc3b
00000200: 6a03 e5b9 db78 83bc de83 17bd 4a38 4f3e
00000210: 4dfb 403e 01d5 a3bc dd30 1cbe a040 1e3d
00000220: 3d4d 10be b751 1fbe b4d0 0ebd e305 383e
00000230: bbce 4f3e 09e9 f43d eb51 9cbc 17ec c33b
00000240: 7d27 13bd 1d79 34be 80c0 03be 33d3 353e
00000250: 0358 c83d 0b27 533e 5828 44be ba2c 4a3c
00000260: a0da 30be a0d4 03be e784 383e a246 27be
00000270: c868 3b3e 0c12 973e ec25 06be 8348 433e
00000280: 6b09 31bd 172f 9b3d e635 28be 0559 8cbd
00000290: 0201 58be cab0 81be 1ca7 1dbe 36f6 903d
000002a0: a625 42be b766 2f3e 9d75 0bbe ed3c 04bd
000002b0: 76ce f8bd 6c58 dbbd c0b9 a33d 4e7f c3bd
000002c0: a217 913d 47b8 153e 1650 4abe 39b2 243e
000002d0: ae14 25be 6509 4c3e 3181 533b 49e6 e03d
000002e0: b7fc 263e aca7 44be 30f1 02be 2412 243e
000002f0: f4bf 3ebe 3c88 ff3d 5fca 95bd 7e89 4abd
00000300: 8789 9cbe 5430 87be 0977 1e3e b774 243e
00000310: a2ff fcbc 9f27 723e ac46 8d3d 4a6e 1bbe
00000320: 7f74 46be 18c3 7ebc 9c5d 61bd 787c 943d
00000330: 59ff 1f3c fec3 aebd e714 343c fe39 1ebe
00000340: 88c0 00be d60b fcbc 68cd 323e 338f 453e
00000350: ab36 533e 0508 603e 6a75 2f3e 1547 293e
00000360: 3848 47be 2ee1 dc3d 56b4 cdbd 05d7 ff3d
00000370: cc6a 52be f83b b2bd e8bf ac3d c0c6 983d
00000380: c0c7 ca3d 734c babd 3355 5e3e 45ce 0fbe
00000390: 6a48 e5bd a7a0 2fbe e154 003d 47d3 713e
000003a0: 2590 ee3d 43c4 b1bd ce4e 39be 25c9 b9bc
000003b0: 94bd e4bc 2db1 253e da62 60be 3c9b 84bc
000003c0: 11d0 4bbc f19e 2bbe 8f83 173e a47f 4b3e
000003d0: 57ef ef3c c0b1 3d3e 676d afbd 4a33 1b3e
000003e0: 368d 31be 4c86 26bd 768e 15be f561 1e3c
000003f0: 2f35 21be 396f cfbc 6773 f9bd d96d 12be

linear_relu_stack.0.bias f4 [1024]
0.13103993 -0.11711852 0.056088503 0.00925186 -0.07509063 0.21049727 -0.18913303 0.1806467
-0.12598945 0.13325192 0.15035547 0.20623028 0.16568957 0.22540434 0.20496042 -0.07490354
0.20154244 0.14566526 0.23568454 0.1960337 0.06051023 -0.010781439 -0.042568255 0.16935518
0.031273324 0.15802127 0.19031692 0.031690326 -0.035552356 -0.2052021 0.20326531 -0.030043954
0.09097665 -0.08155934 0.050586462 -0.08621882 -0.17485145 0.14971583 0.14275187 -0.20267636
-0.13569337 -0.18169513 0.17257378 -0.16368842 -0.041125182 -0.11815215 -0.012204617 0.02370812
0.1517809 0.06790385 -0.07312516 -0.27955022 0.17833024 0.1634855 -0.20427951 -0.1879957
-0.26020932 -0.060155414 0.22534555 0.0736728 -0.06738895 -0.23388186 0.18983668 -0.16921254
0.23816569 -0.07896658 0.23987752 -0.061371572 0.05198161 0.091468476 -0.21199872 0.13982935
0.12094256 -0.1833667 0.11424293 0.17423317 -0.12051928 0.08848543 0.16398203 0.18936236
0.08711575 -0.029771246 -0.19448422 -0.17846812 -0.027248211 0.16623393 0.112043604 -0.15794156
0.06422798 0.026688 -0.12986448 0.10268968 0.1731247 -0.24652848 0.15148112 0.19572066
-0.16995303 0.1641003 0.102402255 -0.02701214 -0.22560313 -0.20382416 0.0459598 0.24233463
0.14892176 -0.19302814 0.01587226 -0.22517574 0.2176485 0.18326524 0.19692579 -0.11740273
-0.06767871 0.21666124 0.23310539 -0.17405535 -0.21997413 0.13166103 -0.21067688 -0.0626233
0.14901887 0.07034324 0.16168375 -0.07561417 0.15114003 0.106289916 -0.02973977 0.21169586
-0.23396726 0.030513598 0.033417713 0.21628456 -0.12469756 0.15383783 -0.1731657 0.19332908
0.022268834 -0.12115056 0.123012975 -0.01959132 0.045658726 -0.16077128 0.12353618 -0.20724864
0.16364288 -0.110200174 0.09488705 -0.12515098 -0.0729997 -0.005500326 -0.15961327 0.22003128
-0.07007902 -0.031124312 0.15088055 0.17302187 -0.06255852 0.19405188 0.039671186 0.140054
0.06760628 -0.013788584 -0.0054034702 0.13956529 -0.11647994 0.20212138 -0.25377852 -0.04648013
-0.08678098 -0.12263945 0.20200832 -0.23817413 0.18014452 0.24343018 -0.13850537 0.1529498
0.075074084 -0.04864738 -0.2059782 0.16449831 0.17626628 -0.18767095 -0.15376225 0.1633288
0.1981379 0.13101189 0.1094125 0.13605328 0.21945606 -0.26435396 0.12359258 0.09264193
0.18481936 -0.122961365 0.16953781 0.109985344 0.047073644 -0.18722868 -0.1356684 0.09282134
0.13092002 0.08876059 -0.13055065 0.20213562 0.011063402 0.24262413 0.022504598 0.22853379
0.096899405 0.05126954 -0.16647321 -0.13859983 0.09959587 0.08990672 0.012019824 0.16120894
0.1270919 -0.21257485 -0.06590988 0.15941817 0.01944939 0.1691981 0.04925462 0.061369363
-0.20413078 0.13067466 0.19366987 0.18064678 -0.05324438 0.04417854 0.12876686 -0.054157235
-0.2008738 0.085668825 0.075518385 -0.1211291 -0.11857536 0.07834535 0.19267912 0.17231616
0.20431644 0.15979703 0.11089737 0.00013542201 0.23241048 0.0017837822 0.021195136 0.16714934
0.20470652 0.22613567 -0.23805715 -0.13734098 0.17146257 -0.20816135 -0.007674692 0.12653966
00000000: 552f 063e d6db efbd 0fbd 653d 1d95 173c
00000010: 1ec9 99bd 998c 573e 17ac 41be 73fb 383e
00000020: 6103 01be 3173 083e c9f6 193e 082e 533e
00000030: 87aa 293e 65d0 663e 25e1 513e 0767 99bd
00000040: 2461 4e3e 4629 153e 4a57 713e 0fbd 483e
00000050: 93d9 773d a2a4 30bc 0d5c 2ebd 726b 2d3e
00000060: 7518 003d 54d0 213e 70e2 423e b7cd 013d
00000070: 599f 11bd 8020 52be c824 503e bd1e f6bc
00000080: f751 ba3d 9508 a7bd c033 4f3d 7e93 b0bd
00000090: 420c 33be 1b4f 193e 8c2d 123e 648a 4fbe
000000a0: 34f3 0abe 4a0e 3abe 2eb7 303e f09d 27be
000000b0: e172 28bd c1f9 f1bd e0f5 47bc 8837 c23c
000000c0: 746c 1b3e 2c11 8b3d a5c2 95bd 3521 8fbe
000000d0: 349c 363e be68 273e a62e 51be f281 40be
000000e0: 283a 85be 8665 76bd fcc0 663e c4e1 963d
000000f0: 3803 8abd ba7e 6fbe 8c64 423e 0d46 2dbe
00000100: b5e1 733e 3bb9 a1bd 74a2 753e c260 7bbd
00000110: abea 543d d353 bb3d 3116 59be 6d2f 0f3e
00000120: bcb0 f73d 7bc4 3bbe 33f8 e93d 2e6a 323e
00000130: d0d2 f6bd d937 b53d e8ea 273e 35e8 413e
00000140: be69 b23d d4e2 f3bc df26 47be 59c0 36be
00000150: a437 dfbc 3a39 2a3e 1e77 e53d 6fbb 21be
00000160: f689 833d cba0 da3c 32fb 04be f84e d23d
00000170: 9a47 313e f671 7cbe de1d 1b3e ff6a 483e
00000180: 2b08 2ebe e909 283e 46b8 d13d 9048 ddbc
00000190: 8204 67be 48b7 50be 5840 3c3d 9226 783e
000001a0: f27e 183e 2ba9 45be 8b06 823c 7894 66be
000001b0: 40df 5e3e e2a9 3b3e eaa6 493e d870 f0bd
000001c0: 239b 8abd 72dc 5d3e 2eb3 6e3e 913b 32be
000001d0: e640 61be 26d2 063e aebb 57be a540 80bd
000001e0: 6798 183e 1e10 903d 6d90 253e 9adb 9abd
000001f0: 74c4 1a3e 87ae d93d d1a0 f3bc cdc6 583e
00000200: 1d95 6fbe a7f7 f93c 03e1 083d b379 5d3e
00000210: 6f61 ffbd aa87 1d3e 5952 31be 0ff8 453e
00000220: 216d b63c c91d f8bd 3aee fb3d fa7d a0bc
00000230: a504 3b3d 3aa1 24be 8900 fd3d fd38 54be
00000240: 0092 273e a1b0 e1bd 2454 c23d 9427 00be
00000250: de80 95bd 143c b4bb a971 23be e14f 613e
00000260: 9785 8fbd 6af8 febc 6e80 1a3e a52c 313e
00000270: ae1e 80bd 89b5 463e 417e 223d 516a 0f3e
00000280: 2975 8a3d 83e9 61bc 980f b1bb 34ea 0e3e
00000290: 098d eebd e8f8 4e3e 42ef 81be f361 3ebd
000002a0: 3aba b1bd 642a fbbd 45db 4e3e ebe3 73be
000002b0: ce77 383e c345 793e 5ad4 0dbe df9e 1c3e
000002c0: 71c0 993d 7a42 47bd f3eb 52be 3f72 283e
000002d0: 267f 343e d02c 40be da73 1dbe aa3f 273e
000002e0: a9e4 4a3e fb27 063e a913 e03d 8d51 0b3e
000002f0: 17b9 603e 6759 87be 1b1e fd3d 0dbb bd3d
00000300: 4941 3d3e 2bd3 fbbd 529b 2d3e ff3f e13d
00000310: 4bd0 403d e0b8 3fbe a8ec 0abe 1d19 be3d
00000320: e60f 063e 1dc8 b53d 12af 05be a4fc 4e3e
00000330: 4543 353c 7672 783e 905b b83c c304 6a3e
00000340: 3273 c63d 0200 523d f477 2abe 1ded 0dbe
00000350: ebf8 cb3d 0421 b83d ccee 443c f513 253e
00000360: 6124 023e 39ad 59be c2fb 86bd 843e 233e
00000370: 5454 9f3c 4442 2d3e 36bf 493d 715e 7b3d
00000380: a907 51be 94cf 053e 6551 463e 78fb 383e
00000390: c716 5abd 8ff4 343d 76db 033e fad3 5dbd
000003a0: ddb1 4dbe 2373 af3d 62a9 9a3d 8912 f8bd
000003b0: a3d7 f2bd 8773 a03d ad4d 453e a673 303e
000003c0: 5438 513e d5a1 233e 291e e33d 1200 0e39
000003d0: 03fd 6d3e cccd e93a 6ca1 ad3c 3229 2b3e
000003e0: 969e 513e 1c90 673e 41c5 73be 1da3 0cbe
000003f0: e293 2f3e 4028 55be fc7b fbbb 9d93 013e

linear_relu_stack.2.weight f4 [36, 1024]
0.0010117049 0.080606245 -0.029527232 0.05448916 0.074585475 -0.012632653 0.17779218 -0.036584426
-0.0038973384 -0.00236052 0.050728012 0.04039847 -0.025020592 0.006485747 0.031066135 -0.020499708
0.011031429 0.037812628 -0.02447776 -0.002465685 -0.035600275 -0.044199646 -0.0011435804 0.03173943
0.024063807 0.020605711 -0.0056322804 0.03394992 -0.025401857 -0.1045209 -0.007860701 -0.008698075
-0.01044562 0.0043141483 -0.009439512 -0.02795253 0.07118986 0.025893163 0.011881886 0.035024654
-0.024813715 0.035847966 0.01047488 0.031846978 0.072816074 -0.046841625 -0.008261207 0.011426143
0.069294125 -0.005055403 -0.041414067 -0.009537849 0.018747529 -0.021649985 -0.15804638 0.0021686507
0.14580494 0.013459424 0.020191723 -0.02512868 -0.021000791 0.03279239 -0.034897145 -0.016884794
-0.007214969 -0.0022558626 -0.008124716 -0.04259471 0.028296066 0.025144033 0.06642626 0.028898887
-0.021980548 -0.018197518 -0.0050140936 0.06641222 0.01660558 -0.024357738 -0.028573107 0.055143822
-0.0072152778 0.060624618 -0.020423748 0.024064612 -0.0071628448 0.028192457 -0.11429524 0.030909996
0.013405782 0.054585826 -0.030261638 -0.032219745 0.025751881 0.03703362 0.067042604 0.023722261
0.06223708 -0.033149153 -0.019169372 0.007168448 0.18715236 0.087750874 0.011701342 -0.0010563069
0.020368587 -0.0147867305 -0.009078009 0.04928065 -0.028826308 -0.026613953 -0.014901938 0.012084443
-0.12643205 -0.018520335 0.021490306 0.16817132 0.20012724 0.025101641 0.12613301 0.004614841
-0.027873904 -0.017855851 0.015764821 0.05474036 -0.0014698284 0.021478506 0.038168732 -0.014169913
0.057606164 0.00018218363 0.077907786 -0.031252604 -0.02156457 -0.0131798005 0.07445848 -0.024675587
0.025129717 -0.10828442 0.096199974 -0.041220646 -0.029107591 -0.027597092 0.0315321 -0.04090919
0.012650104 -0.002210256 0.02549093 0.0654681 -0.022745624 0.07326664 0.06422168 -0.022280326
0.03170868 0.02303969 0.0038453308 0.018932505 -0.104633205 0.006099011 -0.009944043 0.022252068
-0.020332044 0.008157307 0.036117576 -0.020459453 -0.07235698 -0.030419564 0.003181164 -0.012037998
-0.10844209 0.051428147 0.0028688454 0.05676095 0.020606345 -0.01834947 -0.019686352 0.0005953221
0.0013218374 0.008173696 0.122630164 -0.0072843325 -0.04665163 -0.046119064 -0.04920324 -0.022212617
-2.7389135e-05 0.07234848 0.0055911895 0.053903658 -0.019520074 0.14080064 -0.01415316 0.008163697
-0.031347547 0.025333693 -0.012525734 0.02602759 -0.05964308 0.020100689 -0.04489396 -0.016940068
0.09698269 0.036898173 0.16129684 0.0059114066 0.008005484 -0.023545627 -0.015373651 -0.026362013
0.009011585 -0.012171288 -0.033456754 0.099306926 0.018187152 -0.01256127 0.07060643 -0.006370276
0.046173234 -0.0021727094 0.012104944 -0.09201456 -0.06602679 -0.036558297 -0.0005446708 0.012651845
0.13149719 -0.0025444382 -0.006213965 -0.015826087 0.012699091 -0.023597771 -0.052350704 -0.03820999
0.01621693 -0.032085974 0.048446424 -0.12718849 0.0715762 0.027696334 -0.022342393 0.019148517
0.023946317 -0.026587995 0.0124344835 -0.0049114185 -0.029912425 0.0286408 0.101438835 -0.005299073
-0.020105157 0.022160148 -0.07685663 0.043486677 -0.03220446 -0.023126747 -0.016301272 0.034131937
00000000: 2f9b 843a e314 a53d 18e3 f1bc 0730 5f3d
00000010: 45c0 983d 30f9 4ebc 270f 363e 8dd9 15bd
00000020: 7d6a 7fbb f4b2 1abb 2dc8 4f3d de78 253d
00000030: fcf7 ccbc 6486 d43b 687e fe3c 01ef a7bc
00000040: 2bbd 343c 6ae1 1a3d 9585 c8bc 5497 21bb
00000050: 98d1 11bd b00a 35bd 31e4 95ba 3401 023d
00000060: 7621 c53c 4fcd a83c fe8e b8bb 120f 0b3d
00000070: 8e17 d0bc 0e0f d6bd 2bca 00bc 5f82 0ebc
00000080: 1b24 2bbc b35d 8d3b 2fa8 1abc b4fc e4bc
00000090: fdcb 913d e61d d43c 3eac 423c 0376 0f3d
000000a0: 2246 cbbc 51d5 123d d59e 2b3c fa71 023d
000000b0: 9820 953d 01dd 3fbd 035a 07bc b834 3b3c
000000c0: 14ea 8d3d cba7 a5bb cca1 29bd a344 1cbc
000000d0: 6b94 993c 4f5b b1bc e9d6 21be ec1f 0e3b
000000e0: e44d 153e ea84 5c3c 1d69 a53c a9da cdbc
000000f0: da09 acbc 5051 063d 4ff0 0ebd fb51 8abc
00000100: 8c6b ecbb 18d7 13bb 871d 05bc ca77 2ebd
00000110: 27cd e73c dcfa cd3c 7e0a 883d 5cbd ec3c
00000120: 8d10 b4bc f612 95bc 444d a4bb 2103 883d
00000130: 6d08 883c e189 c7bc 2612 eabc 7dde 613d
00000140: 236e ecbb 8551 783d b44f a7bc 2623 c53c
00000150: 4cb6 eabb def3 e63c 9f13 eabd f636 fd3c
00000160: eda3 5b3c 6395 5f3d 41e7 f7bc daf8 03bd
00000170: 9cf5 d23c 91b0 173d a24d 893d 3055 c23c
00000180: 4fec 7e3d 68c7 07bd 1609 9dbc 4de5 ea3b
00000190: dea4 3f3e bbb6 b33d fcb6 3f3c c773 8aba
000001a0: 06dc a63c 0b44 72bc eebb 14bc 82da 493d
000001b0: 2625 ecbc 8105 dabc 4227 74bc d4fd 453c
000001c0: 6777 01be f5b7 97bc 700c b03c 1a35 2c3e
000001d0: 28ee 4c3e f5a1 cd3c 0329 013e 1838 973b
000001e0: d057 e4bc 6f46 92bc 3a25 813c 6d37 603d
000001f0: 42a7 c0ba b1f3 af3c d156 1c3d ec28 68bc
00000200: 71f4 6b3d 8c08 3f39 1e8e 9f3d bb02 00bd
00000210: 2ea8 b0bc 17f0 57bc b07d 983d 7524 cabc
00000220: d6dc cd3c 39c4 ddbd 7e04 c53d fbd6 28bd
00000230: 0b73 eebc 4c13 e2bc ce27 013d 6590 27bd
00000240: 6242 4f3c f1d9 10bb 5bd2 d03c 2414 863d
00000250: 0855 babc d20c 963d a886 833d 3b85 b6bc
00000260: f6e0 013d bbbd bc3c f201 7c3b 5718 9b3c
00000270: ef49 d6bd 36da c73b 57ec 22bc f849 b63c
00000280: 638f a6bc 3aa6 053c 06f0 133d 959a a7bc
00000290: e52f 94bd 7332 f9bc 137b 503b 063b 45bc
000002a0: e316 debd 52a6 523d 3d03 3c3b 2b7e 683d
000002b0: a3ce a83c a151 96bc 4645 a1bc 640f 1c3a
000002c0: 8141 ad3a f7ea 053c 8625 fb3d 69b1 eebb
000002d0: c815 3fbd 58e7 3cbd 5689 49bd 3cf7 b5bc
000002e0: b8c1 e5b7 712b 943d 4c36 b73b 15ca 5c3d
000002f0: 90e8 9fbc 0b2e 103e a8e2 67bc 07c1 053c
00000300: 4966 00bd 9b88 cf3c bc38 4dbc d037 d53c
00000310: 4d4c 74bd 33aa a43c bbe2 37bd e6c5 8abc
00000320: dc9e c63d 8a22 173d 002b 253e 79b4 c13b
00000330: 6f29 033c c2e2 c0bc c4e1 7bbc 26f5 d7bc
00000340: 54a5 133c 156a 47bc f309 09bd 6e61 cb3d
00000350: 39fd 943c c9cd 4dbc 1b9a 903d c0bd d0bb
00000360: 2520 3d3d 0464 0ebb d153 463c 2172 bcbd
00000370: 0e39 87bd 27be 15bd 3dc8 0eba af49 4f3c
00000380: 33a7 063e 97c0 26bb 849e cbbb b6a5 81bc
00000390: d90f 503c 1d50 c1bc b16d 56bd 1482 1cbd
000003a0: 5ed9 843c 956c 03bd c26f 463d b33d 02be
000003b0: 8b96 923d 6ce3 e23c 6507 b7bc 5add 9c3c
000003c0: 112b c43c 11cf d9bc 01ba 4b3c f7ef a0bb
000003d0: e70a f5bc 1ca0 ea3c 2abf cf3d d9a3 adbb
000003e0: 92b3 a4bc 3389 b53c 0267 9dbd 161f 323d
000003f0: d3e8 03bd 4e74 bdbc 3f8a 85bc eecd 0b3d

linear_relu_stack.2.bias f4 [36]
-0.0031821064 -0.016414927 0.031408608 -0.020264715 0.0033718827 0.003982835 0.014435999 -0.00678021
0.016047668 -0.0118422415 0.0052924487 0.0040032994 0.028540744 0.03754641 -0.01877519 0.040143255
0.029024525 0.006365876 -0.004371157 -0.016655779 -0.008693485 -0.012668485 0.029807663 0.030712124
-0.00956136 0.016734205 -0.009507535 0.004479402 -0.030640561 -0.01706061 0.030962469 0.016995955
0.018744985 -0.02280477 -0.0015694451 -0.0110760555
00000000: e38a 50bb 9978 86bc 50a6 003d 3002 a6bc
00000010: cefa 5c3b 7182 823b f884 6c3c 862c debb
00000020: 6676 833c f605 42bc 476c ad3b 1c2e 833b
00000030: 47ce e93c 44ca 193d 6dce 99bc 416d 243d
00000040: d7c4 ed3c d798 d03b ec3b 8fbb b371 88bc
00000050: 1e6f 0ebc 7a8f 4fbc 332f f43c fe97 fb3c
00000060: 40a7 1cbc 2c16 893c 7ec5 1bbc f3c7 923b
00000070: ea01 fbbc b1c2 8bbc 01a5 fd3c 1a3b 8b3c
00000080: 158f 993c 12d1 babc d7b5 cdba 5878 35bc
