models/model_added_mass_0_wave_frequency_n7.pth (torch, 215400 bytes, 4 tensors)

linear_relu_stack.0.weight f4 [1024, 15]
00000000: 63d4 873d 0faf ac3e ebbe 643c 2008 0bbe
00000010: 86a7 da3d d3cf f43d 6683 123e 75f5 3b3e
00000020: 70ff babd b4ff f03d 830f 313d 5fdb 6f3d
00000030: 062e 263e 0d58 f53d 6c6b 0dbe a00e 0abe
00000040: e191 ab3d ad64 863e 1cb2 a23e 8a13 603e
00000050: 27a4 babd d5a0 533e 7577 f33d 6c5d 8ebe
00000060: dcc9 6fbc e238 d9bc edf3 29bd e69a fabd
00000070: 64e3 9dbe 9677 03be db6b 30be 8161 25be
00000080: 512a 583d 0ad4 c13d 4120 7fbe 82f1 733d
00000090: 1f8f 3d3e 056c dd3b 279e c53d 62cc 80be
000000a0: 1077 263d 6962 e23d cfa3 803d a109 663c
000000b0: 4624 823e 6c53 4fbe 85b9 cebd 15db 6b3d
000000c0: 9c50 25bd b521 58b9 60cc fa3d 528f e5bd
000000d0: a01f 52be 0a4f 44be fb89 24bb 2349 8dbd
000000e0: 7775 32be 5df2 63be 20d4 15be 092a dbbd
000000f0: 1373 ad3d 2af6 5abe 5be0 6e3d 6bab 88bc
00000100: 6c6f eebd a754 c1bd 0226 4cbe 2b32 1f3e
00000110: 189c 07be 1120 0dbe 80c8 98be bf96 21be
00000120: 9a88 433e e76f 55bd e50a 803e 6fda 96be
00000130: 49cd 803e 8746 2c3e a588 e1bb f5ab 853e
00000140: 622d 753b ed22 113d ed93 a3bd d808 12be
00000150: fe89 a13c 8f7c 273e 4cd6 1c3d a5ad 84be
00000160: 0fec fdbd 890c 123e ffc1 aebe 23a7 fe3d
00000170: 51ab 6f3d bd77 4ebe 76b2 213e a2a0 bfbc
00000180: 6cb4 51be 49de 8c3d 85ed f9bc 5f74 f03d
00000190: 9253 20be 740e 133e 1ab4 b8bc 2b01 8a3e
000001a0: c01f 423e b12d 56bd 91bd d539 c3d1 58be
000001b0: 6e3f c83d 9d6e 253e 65a5 7abe d7f9 0d3d
000001c0: d524 cabd e99e e13d 82b0 01be 71dd 1cbb
000001d0: 1c3e 5e3e 7789 7cbc d181 1f3d 9965 7b3e
000001e0: a0e7 8b3e d57a 76be 53e2 2ebe 5647 2c3d
000001f0: f9f4 573d cdbb 41be e715 3dbe 44d9 66be
00000200: ecde 8b3c 4a1b cfbd 20e7 0ebe a413 adbd
00000210: 6dda 94bc 87ec 863d 3e68 6b3e 974a 80be
00000220: f664 96b9 bd92 42bb a630 7c3e 8bb1 fc3d
00000230: f173 2ebe 6f30 333e 1a07 a43d 04fa 053e
00000240: 5192 6bbe 13c4 40be 54b4 b7bd 1683 303e
00000250: bc1f a73d 0924 4a3e af17 77be 5dba 2fbd
00000260: 40e6 823d 89ec 07be 7b04 2bbe d291 3b3e
00000270: 141e 80be 514c 3cbe 38c3 35be 60ec 4fbe
00000280: 5c06 17bd f0af ddbc 0c73 cb3d c39e 943e
00000290: 2c25 1e3e 0def 89be d7c7 4abe de3c 513e
000002a0: 021b 253e 61e8 84bd fc54 c73d c94c 36bd
000002b0: 4f76 d43d 858c c4bd 16ed 58be 3437 10be
000002c0: b237 e83d 9cb0 88be c632 1ebe 01ef 4f3e
000002d0: fde0 85bd f818 3ebd e632 5bbe f56a ed3d
000002e0: 53e8 09be 7d53 1abd 018c 553e 4b1d 7bbe
000002f0: ff70 363e 238f cc3d 2b47 02be 03cc 8bbe
00000300: f682 833e fadc 5b3e d2a4 9fbd dcb7 bdbc
00000310: dbc2 fe3d 329c d23c 549d 2d3e 0883 12bd
00000320: e376 123e 5a34 8ebd 82f6 ef3d 34ef 86bd
00000330: 0e20 ac3c c251 af3d be66 00be b325 adbd
00000340: 7ba1 65be 7590 7a3e b941 73be c19e 9c3d
00000350: 5821 843b 1d26 513e ac2b e4bd 3357 673e
00000360: 5d1f 65be d576 383d 9ce1 bebd 5c60 693e
00000370: 78bf c43d 4cfd f73d 9a91 14bd 07bc 89bc
00000380: 6c57 8cbd 496a 5d3d 261c c4bd 598b 40bd
00000390: 227d 5fbe fe19 81be c8d7 04be 968c 9ebe
000003a0: a415 2f3c 686f debd 019c e73d 995e db3b
000003b0: 70b4 383d 0111 5b3e 415d 68bd 2a8b 4cbe
000003c0: df7e 403e 94e0 473e a9e8 f2bd 1b83 173e
000003d0: 14ad b5bd e7fc c4bd cd33 38be 7b8a 2c3e
000003e0: 7642 df3d 9099 d8bd 7b52 36be 957a 7a3e
000003f0: 668c 6fbd 07c7 863e e725 3cbe 946d 673d
0.066323064 0.3372731 0.013961534 -0.13577318 0.10676484 0.11953702 0.14307937 0.18355353
-0.09130752 0.117675215 0.043227684 0.058558818 0.16228494 0.11979685 -0.1381051 -0.13482141
0.083774336 0.26248685 0.31776512 0.21882454 -0.09113341 0.20666821 0.11888019 -0.2780565
-0.014635529 -0.026516382 -0.04149239 -0.12236576 -0.30837548 -0.12838587 -0.17228644 -0.16150476
0.05277473 0.09464271 -0.24914648 0.05955649 0.18511628 0.0067572617 0.09649306 -0.25155932
0.04064089 0.110539265 0.06281244 0.014040382 0.254183 -0.20246667 -0.10093979 0.05758198
-0.04036008 -0.00020611922 0.12246013 -0.11208977 -0.20519876 -0.19170776 -0.0025106657 -0.06898715
-0.17427622 -0.22260423 -0.146317 -0.10701377 0.08469214 -0.21382967 0.05831943 -0.016683301
-0.11642346 -0.09439974 -0.19936374 0.15546481 -0.13243139 -0.13781764 -0.2984047 -0.15780161
0.19095078 -0.05210867 0.25008312 -0.29463527 0.2515662 0.16823779 -0.0068827444 0.26107755
0.0037411083 0.0354337 -0.07987199 -0.14261186 0.01971912 0.16356109 0.038290307 -0.2591373
-0.1239854 0.14262594 -0.34132382 0.124342225 0.05851299 -0.20162864 0.15790734 -0.023392025
-0.20478982 0.06878335 -0.030508766 0.11740946 -0.1565688 0.14360982 -0.022546817 0.26954016
0.18957424 -0.05228967 0.00040767764 -0.21173768 0.09777723 0.16155477 -0.24477156 0.034662094
-0.098703064 0.11016638 -0.12664989 -0.00239357 0.2170338 -0.015413634 0.038942162 0.24550475
0.27325153 -0.24070294 -0.17078523 0.04206022 0.05272386 -0.18919297 -0.18465386 -0.22543818
0.01707407 -0.10112627 -0.13955355 -0.08451012 -0.01817056 0.06588083 0.22988984 -0.25056908
-0.0002868545 -0.0029689514 0.24627933 0.12338551 -0.17036416 0.17498945 0.08009167 0.13083655
-0.23005034 -0.18824796 -0.08969942 0.17237505 0.0816035 0.19740309 -0.24130128 -0.04290234
0.06391573 -0.13273825 -0.16700928 0.18317345 -0.25022948 -0.18388487 -0.17750251 -0.20305014
-0.0368713 -0.027061433 0.09934053 0.29027376 0.15443867 -0.26940194 -0.19802795 0.20433375
0.16123584 -0.06489635 0.09733006 -0.04450682 0.10374128 -0.095971145 -0.21184191 -0.14083558
0.11338748 -0.26697242 -0.15449056 0.20306017 -0.06537054 -0.04641053 -0.21406135 0.11592666
-0.13467531 -0.037677277 0.20854189 -0.24522893 0.17816542 0.09988239 -0.12722461 -0.27304086
0.25685853 0.21471015 -0.07795109 -0.02315896 0.124395095 0.025709245 0.16954547 -0.035769492
0.14303164 -0.06943579 0.117169395 -0.06588593 0.021011379 0.08560516 -0.12539193 -0.08454456
-0.22424881 0.24469168 -0.2375554 0.076474674 0.004032295 0.20424695 -0.11141142 0.22591858
-0.22375245 0.045035202 -0.09320375 0.22790664 0.09606832 0.121088594 -0.03627167 -0.016813291
-0.06852612 0.05405644 -0.095756814 -0.047007892 -0.21825078 -0.25215143 -0.12972939 -0.30966634
0.010686312 -0.10861093 0.11309052 0.0066946265 0.045093954 0.21393205 -0.05672956 -0.19974962
0.18798397 0.19519264 -0.11860783 0.14796107 -0.08870903 -0.0961855 -0.1798851 0.16849701
0.10901348 -0.10576165 -0.17804901 0.24460824 -0.058483504 0.2632372 -0.18373834 0.056500986

linear_relu_stack.0.bias f4 [1024]
00000000: 0f70 123e 8820 b7bd d319 06bc 27c6 463e
00000010: f35a a2be 84ae a2bc c626 0abe 8583 593e
00000020: e959 01be 390d 693e c463 9f3d a21f 62be
00000030: 4fa0 33bd 96dc 333e d2d8 83be 90b1 803e
00000040: 33b0 643d 2067 4e3e 1e11 d7bd 7564 143e
00000050: f2a7 2cbe 911e 20be 11b9 63be f917 94be
00000060: f5ae 2e3e 8ff3 6d3d 523e 263e bb19 243e
00000070: 732d f8bd 9ee4 29be 47c2 683e f76c e6bd
00000080: 89c2 0a3e 9422 983d fcaa 81be b699 f9bd
00000090: 90bf 723e 935a c0bd 69ac 433e 1400 723e
000000a0: a827 93be ce8f 783e 32bf b33a d411 1d3b
000000b0: b342 763e 92b6 7c3e 9fee 78be 00c0 41bd
000000c0: 855b 6cbd 5a5b d53d 83bb 70be bd47 7b3e
000000d0: 0378 2dbb 4420 42be 042b 383d 9bf2 223e
000000e0: fb45 503d fcc4 613e b942 493e 57e7 d03d
000000f0: 6c4a 3fbe 4128 4a3e 512c 97bd eb5d 833e
00000100: f2d3 0c3e 85df bf3d 6cd1 fabd e283 8b3e
00000110: c3a9 643d 759e bd3d fa4f b13d 0b6d 5d3e
00000120: f446 9ebd 88c7 f1bc 553f 583e 580a 5c3e
00000130: 1695 8e3e a2dc f53d b8f0 9fbd eb16 4cbe
00000140: a2e2 f83d 067d 73be 15be 8fbd f0b2 493d
00000150: 98e1 1b3e 71ce 1f3e 97f5 713e 4fcf eebd
00000160: 8204 483e 19ab 583d f45e 80be 4a3d 8d3e
00000170: cdc8 67be 6e5f d5bd 08fa 83bd 092e 80be
00000180: 806d 3ebe 4f6d 553e 0c1c 233c 6172 173e
00000190: b381 40be a162 78be 5a56 203e 2efa 213e
000001a0: 9409 89bc 3903 16be 05b7 733e 4da9 473e
000001b0: 3cc4 8a3c cca3 393e 942d 2c3e fcf6 923d
000001c0: 40b9 a53d 9a9d 8d3e b01a ed3d 81df 65be
000001d0: 6c6a 703d ed50 79be e6a6 11be 7cba ef3c
000001e0: cb92 323e 20f6 ad3d 35f8 c73d 2986 57be
000001f0: d46a 203e 66ba 033e a93b 01bd cffc 3d3e
00000200: 967d 833e b637 87bb fd7c 3a3e 7c82 323d
00000210: a299 52be 5918 52be 41ec 98bc 7d17 833d
00000220: 4eb0 47be d1af 143e 6496 d23d 21c9 fb3d
00000230: f563 73be 1cb9 55be f432 b73d ff05 d6bd
00000240: 684e 67be ea3b 683d ce66 3ebe 0f23 b63d
00000250: 1321 30be d8ac 893c 8b1d 573e b2ed 503e
00000260: 9859 903e 68a3 14bb 6bc1 843e 4026 bc3d
00000270: 53b9 59be f35c 03be 7156 0abe e48a 1d3e
00000280: ec49 573d 30fc acbd c94b 81be 68b5 d1bd
00000290: ed9f 6bbe 928d cebd c57e a93d 0e0b 52be
000002a0: e035 74be f66c 503a dc7a 54bd 4905 0a3e
000002b0: ad82 623e 04b7 a0bc 124e 553d 5dad 3f3e
000002c0: c010 a7bc 55f0 b23d 48cb 13be b459 7fbe
000002d0: de44 5cbe d594 ef3d 9c69 233e 17d0 68be
000002e0: 987c 813e c604 2a3e 0145 433d f86a 60be
000002f0: 74df 163e 4ad4 5dbe 1127 c4bd 4b93 2e3e
00000300: 9c83 ec3d 4e33 113e 47b6 813e d0c9 ab3d
00000310: 209e 89bd 7dfb ab3d 41eb 483e 802c 77be
00000320: 5772 b23d 157f 0b3e 3868 b73d 4978 013e
00000330: 6b5a 83bd 153d 703b 2367 ea3b 862b 693d
00000340: 17a3 91bd 6aee 3c3e 3314 f83c d0c4 57be
00000350: 3320 6bbd bec1 7a3e 71e2 66be 01b7 6fbc
00000360: 7068 4a3e 8058 cabd 2493 1f3e bf8d 7b3e
00000370: 37b1 3f3e 1849 2dbe c190 51bd 847a 90bd
00000380: 2aad a7bb d009 39be 442f 71be 535f 6dbe
00000390: 8a22 76be 277e fabb 0ccc 603d ac3a 7d3e
000003a0: 76ce 2bbe ac1a 62be c5db 103e 3fdf 483e
000003b0: 2e08 6ebb fe67 883e cae6 943d 37db 43be
000003c0: 44e2 3c3e 70c5 dfbc 0777 803e 1df4 343e
000003d0: ad58 a33c 28f0 55bd eba8 0fbc 4f34 8d3c
000003e0: 501b 6d3e 8d63 a53d ff65 263e 9844 b1bd
000003f0: f71e 4bbd 3491 e63c e7f9 83bb 1b75 6e3e
0.1430056 -0.08941752 -0.008184868 0.19411527 -0.31710014 -0.019858606 -0.13491353 0.21241577
-0.12631954 0.2275895 0.07782701 -0.2208238 -0.043854054 0.17564616 -0.25751358 0.2513547
0.0558321 0.20156527 -0.10501312 0.14491446 -0.16860941 -0.1563666 -0.22238566 -0.2892454
0.17058928 0.058093604 0.16234711 0.1602544 -0.12118044 -0.16591117 0.22730361 -0.11251252
0.13550772 0.0742847 -0.25325763 -0.12187521 0.23705888 -0.09392276 0.19108738 0.23632842
-0.28741193 0.24273607 0.0013713597 0.0023966925 0.24048881 0.2467902 -0.24309777 -0.047302246
-0.057704467 0.104178146 -0.2350903 0.24539085 -0.0026469238 -0.18957621 0.044962898 0.15912859
0.05084799 0.220478 0.19654359 0.102003746 -0.18680733 0.19741918 -0.073814996 0.2565759
0.13752726 0.09368805 -0.12246975 0.27249056 0.05582596 0.09258739 0.086578324 0.21623628
-0.07728377 -0.02951409 0.21117909 0.21488321 0.2784812 0.12004973 -0.07809585 -0.19930618
0.12152602 -0.23778161 -0.07018677 0.049242914 0.15222776 0.15606095 0.23628841 -0.11660635
0.1953297 0.052897546 -0.25072443 0.27585822 -0.22635193 -0.104185924 -0.06444174 -0.25035122
-0.18596458 0.20842479 0.009955417 0.14789726 -0.18799476 -0.24256374 0.1565794 0.15818092
-0.0167282 -0.14649667 0.23800285 0.19498177 0.016939275 0.1812889 0.16814262 0.07176015
0.08091974 0.27659303 0.11577356 -0.22448541 0.05869524 -0.24347277 -0.14223823 0.029263727
0.1743881 0.0849421 0.097641386 -0.21047272 0.15665752 0.12864074 -0.031551037 0.1855347
0.25681752 -0.0041265143 0.18211742 0.04358147 -0.20566419 -0.205171 -0.018667342 0.064009644
-0.19500849 0.14520194 0.10282591 0.12294222 -0.237686 -0.20871395 0.089452654 -0.104503624
-0.22588503 0.056697764 -0.18593904 0.08893406 -0.17200117 0.016806051 0.21007363 0.20403174
0.28193355 -0.0022680406 0.25928816 0.09186983 -0.21262102 -0.12828426 -0.13509537 0.15385014
0.05256073 -0.084465384 -0.25253132 -0.102396786 -0.23010226 -0.10085596 0.082761325 -0.2051203
-0.23848677 0.0007950807 -0.05187498 0.13478579 0.22120161 -0.019618519 0.052076407 0.18718477
-0.02039373 0.08737246 -0.14433014 -0.24936563 -0.21510646 0.11698309 0.15958256 -0.2273563
0.2529037 0.16603383 0.04767323 -0.21915805 0.14733678 -0.21663013 -0.09577764 0.17048375
0.1154854 0.14179727 0.2533438 0.08388102 -0.06719613 0.08397577 0.19620992 -0.24138069
0.08713215 0.13622697 0.08955425 0.12643541 -0.0641373 0.0036657501 0.007153408 0.056926273
-0.07111185 0.18450323 0.03028307 -0.21071172 -0.057403754 0.2448797 -0.22547318 -0.014631034
0.19766402 -0.09880161 0.15583473 0.2456579 0.18719946 -0.16922414 -0.05116344 -0.07054618
-0.0051170783 -0.1807015 -0.23553187 -0.23180895 -0.24036613 -0.007644433 0.054882094 0.24729413
-0.16777977 -0.22080487 0.14146335 0.19616412 -0.0036320793 0.2664184 0.07270582 -0.19126593
0.18445688 -0.027315825 0.2509081 0.17671247 0.019939745 -0.052230984 -0.0087683005 0.017236857
0.2315495 0.080756284 0.16249846 -0.08655661 -0.049590077 0.02814541 -0.0040275934 0.2328686

linear_relu_stack.2.weight f4 [36, 1024]
00000000: e0dd 8c3d 1bf8 ee3c 3d6c 2e3d 7ccc 8abc
00000010: 4169 e33d 7225 803d 5bb0 b9bb 9e0b d13c
00000020: 659d 5a3d 88e4 bc3c 242b 823c b7f5 9a3d
00000030: 732d d93c eda5 933c 7004 e83b 1830 53bd
00000040: 0d05 4fbd 4a9a 6a3d 3630 cabd 4a88 bc3c
00000050: d412 63bc da2a c2bc a41f 84bc 6aec c23d
00000060: 5969 01bc e89f 91bd fa47 d13d 5f96 37bc
00000070: 8868 0e3d b8dd f9bd 951f e73b ac53 7abc
00000080: 859c b4bc 5427 94bc b611 aebc 2cf9 d63c
00000090: 9609 00bd 158f 65bd c100 603c f7dc 77bc
000000a0: 4b42 983d 9914 f93c b8a3 caba 4658 b4bb
000000b0: 13d2 79bc 6643 7e3b 0238 f43b b78f 48bd
000000c0: 29d7 c63c d738 0e3d 8fc3 e9bd 6132 803c
000000d0: a906 bebd aaa1 1ebe 95b4 3a3c d263 193b
000000e0: d18e 87bc c369 2fbb 438a 8c3b 0b08 84bc
000000f0: 2b1b f0bd 2508 66bd 4087 b5bd 1fc9 b13c
00000100: fbfd a93c 883f aa3c e5bb e83c fd51 a9ba
00000110: b9f7 9e3d c704 953c 0735 75bb c9c2 39ba
00000120: aaae 3e3c 2a36 1ebd 7458 02bd ac3c 58bc
00000130: c0cb febc e568 d1bc 6580 45bd 570a 99bc
00000140: 26aa ae3b f03e d6bd c01a 0f3d 29ab 403d
00000150: b42f 893c 90ed 053e 1b93 c03d ea44 493c
00000160: 233f 133d 5a46 1bbd 8786 b6bd d0b7 6a3c
00000170: 4095 08bc 4a21 ce3d 6db2 5fbc b892 32bc
00000180: 1bc5 ddbd df5a f8bc ae3a 9e3c d48b 9d3d
00000190: 62e5 c2bd 6c09 2e3d fa43 123b 66e3 9e3c
000001a0: 2c83 8f3d eca1 81bd b1e4 793c ad67 cb3d
000001b0: 4cfb 8fbc c440 483d 73d4 b03c 482d 093d
000001c0: b1dd a6bd ff5a 00bd 8ea0 c0bc d0f8 773c
000001d0: 26b4 0a3c 0e71 9d3c a7d4 e73c 94c8 99bc
000001e0: d2c9 193c cece 9b3c f8f7 173a 0e8e aebe
000001f0: 9fa0 e8bc ab03 ff3c 67a4 56bc 6f71 453d
00000200: 3602 39bc 8aa7 743b 68d9 47ba e557 d6bc
00000210: 5200 abbd 3196 8d3d 621c 9dbc 30e1 a13c
00000220: 70c3 8c3d f47c 4638 d33b 3abc 1cc8 c43b
00000230: bc67 e6bc d8c2 11bc a551 083c 1a11 bdbd
00000240: 153b 563d 5e29 c23d da4f 263d 112b 71bc
00000250: 25fc 5d3e b082 a9bd c8ae 963c 29a2 b33c
00000260: ca40 c2bc 647f f7bb 924e 823c 0f8e 8dbb
00000270: 962e 5ebd 3939 e83c 3692 1abc c2aa 9b3d
00000280: 2d00 edbc d3e3 043d d8a9 5bbc d0d3 90bc
00000290: d220 ffbb e94e 373d 4996 a43c 983d 463c
000002a0: 8c6d 7dbd 5302 35bd 954c f53d d3fe 68bc
000002b0: ff8b 863c 05ab 2c3b fb30 c3bd 9b71 8abb
000002c0: e0eb e53c b4ca ad3c b4db 8fbd e5a4 31bc
000002d0: e500 fdbd 3c84 aebd 9ced e83b be8b bcbc
000002e0: 2d1d 8739 4f67 cbbc 7d17 ae3b 330c 86bd
000002f0: 4a04 e03c 8881 aabb 7628 cc3c 4153 11bd
00000300: 642b c3bc bbd5 bc3c 30c6 8d3c 05a7 fa3c
00000310: f04d d33c 1923 db3c e4e0 913c b14b cd3d
00000320: 172d cebc 73fb d53c e60a 04bd c40d 2fbc
00000330: f41a 14bd dd47 ff3c caed ba3d ef55 983c
00000340: 77c1 1d3c b43b ad3c 039a ffbb 8f7f 4a3a
00000350: 6972 103d a600 03bd 3f9a 153e c0ee c13d
00000360: 1e2a 4cbc 25a8 003e c09b a3bc dcf4 0cbc
00000370: 8971 313c b01e da3b 26af 063d d7b7 2fbd
00000380: 332c 6e3d 004d f03c 7450 ce3d 1fda 61bc
00000390: 626c 133c f7e1 8ebc dfd9 b4bc b080 f43b
000003a0: 70f9 2dbb f0a9 9d3c 18eb 24bc b691 58bd
000003b0: 14df 163e 4648 403c 19af 08bc 7c0a 27bc
000003c0: 72d8 c0bc f4e8 ae3a 8e54 5ebb 38cf d3bd
000003d0: c96a 79bd 904a 87bd c935 e3bc e766 13bd
000003e0: 29b1 533d 721a 563c beb7 483d 98ce 783c
000003f0: 193a 243b d8a0 453c ff3e 11be 7d8e a1ba
0.06878257 0.02917104 0.042583693 -0.016943209 0.1110406 0.06257142 -0.005666775 0.025518235
0.05337276 0.023058191 0.015889712 0.07566398 0.02651093 0.018023456 0.007080607 -0.051559538
-0.050541926 0.057276048 -0.09872477 0.023014206 -0.013859469 -0.023702074 -0.016128369 0.09517749
-0.007898652 -0.07110578 0.102188066 -0.011205285 0.034767658 -0.122004926 0.0070533254 -0.015278738
-0.02204729 -0.01808516 -0.02124868 0.026241861 -0.03125914 -0.056044657 0.013672055 -0.015128366
0.074345194 0.03040533 -0.0015460169 -0.005503687 -0.0152478395 0.0038797497 0.0074529657 -0.048965182
0.024272518 0.034722175 -0.11414253 0.015649023 -0.09278614 -0.15491357 0.011395593 0.0023405445
-0.016547592 -0.002676592 0.004288943 -0.016117116 -0.11723932 -0.05616011 -0.088636875 0.021702347
0.02075099 0.020782247 0.028409908 -0.0012918111 0.07762093 0.018190755 -0.003741564 -0.0007086215
0.011638323 -0.038625874 -0.031822637 -0.013198059 -0.031103015 -0.025562713 -0.04821815 -0.018681688
0.005330342 -0.10461223 0.03493762 0.04703823 0.01674638 0.13078904 0.09403058 0.012284497
0.035948884 -0.03790889 -0.08912378 0.014326051 -0.008336365 0.10064943 -0.01365338 -0.010899238
-0.108286105 -0.030316768 0.01931509 0.07692686 -0.095164075 0.042489454 0.002231835 0.019395541
0.07007441 -0.06329712 0.015252278 0.09931884 -0.017575882 0.04888989 0.021585679 0.03349045
-0.08147753 -0.03133678 -0.023514058 0.015135005 0.008465802 0.019218948 0.028299643 -0.0187724
0.009386497 0.01901951 0.0005797143 -0.34092754 -0.028396903 0.031129679 -0.01310072 0.04820388
-0.011292031 0.0037331306 -0.00076236436 -0.026164958 -0.083496705 0.06913412 -0.019178573 0.019760698
0.06873214 4.732325e-05 -0.011366802 0.0060053 -0.028125636 -0.008896552 0.008320247 -0.092317775
0.05230244 0.094805464 0.040603496 -0.0147197405 0.21678217 -0.0827688 0.01839389 0.02192791
-0.023712534 -0.007553028 0.015906606 -0.004319913 -0.054243647 0.028347598 -0.0094342735 0.07600929
-0.028930748 0.032443833 -0.013407193 -0.017679125 -0.007785895 0.04475299 0.020091193 0.012099646
-0.06187205 -0.04419167 0.119774975 -0.014220911 0.016424177 0.0026347053 -0.09530827 -0.0042249686
0.028066576 0.02121482 -0.07024327 -0.010842537 -0.12353686 -0.085213155 0.0071084034 -0.023015853
0.00025770944 -0.024829535 0.0053128586 -0.065452956 0.027345795 -0.0052034296 0.024921637 -0.035479788
-0.023824401 0.023051133 0.017306417 0.03059722 0.025794 0.026750134 0.017807432 0.100242026
-0.025167985 0.026120877 -0.032236956 -0.010684434 -0.036158517 0.031162197 0.09127386 0.018595664
0.009628645 0.021146633 -0.007800342 0.0007724696 0.03526536 -0.03198304 0.14609621 0.09469366
-0.012461213 0.12564142 -0.019971728 -0.008603301 0.010830292 0.0066564903 0.03288188 -0.042899933
0.05814762 0.029333591 0.10073939 -0.013784914 0.008998008 -0.017441733 -0.022076545 0.00746163
-0.0026546381 0.019246072 -0.010065816 -0.052873336 0.14733535 0.011735981 -0.008342528 -0.010195371
-0.02354071 0.0013344572 -0.003392491 -0.10342258 -0.060892854 -0.066060185 -0.027735608 -0.035986807
0.051682625 0.0130678285 0.049003355 0.015185975 0.0025059043 0.012062274 -0.14184187 -0.001232579

linear_relu_stack.2.bias f4 [36]
00000000: 22c9 22bb dd76 aa3c 4641 c0bc f6ba 2a3c
00000010: e604 c13b 6be4 f23c 2838 3b3c e488 943c
00000020: b1fb 103d 6fe1 f0bc f5c7 b23c 3975 24bb
00000030: 1896 a0bb 32a7 cabb b97a b6bc 0668 9a3c
00000040: 1c34 fabb f2d8 1abb 8d92 213c 051e 54bb
00000050: bf57 5c3c cb75 03bd 78d1 e43c 4583 e53c
00000060: 60a5 2a3d 5cd5 f9bb 097f 37bc 4545 2f3c
00000070: 315c 88bb 2aca 933c 0883 f13a 4c8b 63bb
00000080: ee6f 96bb 9967 193d fbed 4abb 1852 be3c
-0.0024839123 0.020808632 -0.023468625 0.0104205515 0.0058904765 0.029649934 0.011426963 0.01813168
0.03539628 -0.02940437 0.021823863 -0.0025094284 -0.004900705 -0.006184482 -0.022275316 0.01884843
-0.0076356065 -0.0023627845 0.009861601 -0.0032366526 0.013448655 -0.032094758 0.027931914 0.028016696
0.04166162 -0.0076243114 -0.011199721 0.0106976675 -0.0041613807 0.018040735 0.0018425891 -0.0034720479
-0.00459098 0.037452314 -0.0030964601 0.023232505
