models/model_potential_damping_n9.pth (torch, 59752 bytes, 4 tensors)

linear_relu_stack.0.weight f4 [256, 19]
00000000: 931b 213e 5bf7 a5bd b34b ee3d a71c 20be
00000010: 1786 993d 3582 053e 795f 20be d4e7 3fbe
00000020: 291b 0d3e a6e3 4cbe d385 af3d f9eb 4b3e
00000030: 5ccc 373e 85f5 f53d 5aa4 0bbe ecb1 afbc
00000040: c8b2 6ebd b201 6abe 7108 39bc 24fa f9bd
00000050: 40a2 223e a1a5 abb8 d719 473e cd30 063e
00000060: ca6b e73d 1d92 873d 03f8 44be 444a 263e
00000070: 1af3 78bd b833 113d 4fc5 5cbe da81 93bd
00000080: f092 fcbd b845 8d3d d78b 8bbd ff71 9e3d
00000090: 8f8b 59be 62fb 943d e0b1 0bbe 8092 3f3e
000000a0: 576f 43bc 34b2 4fbd ca13 433e 43b9 87bd
000000b0: 9420 acbd cd63 643e 9ad2 4ebe 0fc0 4ebe
000000c0: e018 28bc 7407 a4bc 3c6d 28be 3e69 93bd
000000d0: 02f4 43be ec3b f23d a6f3 3cbd b2b1 8abc
000000e0: be0a 143e 311b 233d 7acc 49bd ef0e 46be
000000f0: e0a9 b9bd 18b6 933d c12c 43be 46ee dd3d
00000100: 21dd f03d 85be 4bbe fcb4 353e 4f7a 0d3d
00000110: 6c84 fd3d d938 5f3d 942e 203e 4555 c8bc
00000120: 3476 a1bd d412 4b3e 7ff5 3f3e 6983 89bd
00000130: de4d 913d ad0f d53d ccf8 1abe 4f91 57be
00000140: 70b8 efbd efea 033e 2cd7 3abc fa8d 73bd
00000150: dcce 983d 4c65 26be 6a40 e73d ae95 463e
00000160: 66b0 dd3d cc7e eabd a7f4 82bd 1ec8 353d
00000170: 62c3 ad3d 72e5 b23c 22f6 753d 39bc 24be
00000180: 3b21 0ebe 5c77 3fbc cf12 13bd 5685 5f3e
00000190: d02b 373e 4566 073e c2be 2e3e 8618 af3d
000001a0: ac76 573d 681c 803d 076a 473d a018 98bb
000001b0: 1151 44be b08a 1cbe 76d2 17bd da01 88bd
000001c0: 2d75 b53c c157 213c 41bb 363e b2d3 d1bd
000001d0: 5169 01be 0d18 153e 40d1 9dbc d9d3 0b3d
000001e0: 0842 26be 4ee4 6ebe daa2 26bd bb77 f73d
000001f0: 9c37 b5bd 9d9b 34be c053 1dbe 657f 203e
00000200: 07aa 423e 63d4 94bd f26e c1bd c4a6 183e
00000210: 8457 bbbd 7065 1a3e 0958 aa3c 7807 dd3d
00000220: c509 babd d183 80bc f423 e33d 662a 47be
00000230: 8871 2abe 99f5 303e dfb2 0ebd 11e8 34be
00000240: cee7 2cbe 1f4a 3e3e 46c6 19be 9bd2 f6bc
00000250: 3502 0dbe 3409 45be 9390 05bd 7853 173d
00000260: 163e 2e3e c30b 5c3e 0e44 2f3e ebf5 70bd
00000270: 6a10 4a3e 7fb3 6cbe 792d ae3c f8a3 e8bc
00000280: be90 613d e8c0 c73d 449b 973d 04a1 2c3d
00000290: b108 39be b5ed 3a3e 629a f5bb 9a08 04be
000002a0: 5de3 2abe fce9 5c3e f1b2 683e af6f 033c
000002b0: 6933 dcbd 8fcb 99bd ed35 923d fede af3d
000002c0: d062 acbd c390 bc3d d2e1 2ebe 1457 87bd
000002d0: be71 bf3c f4ca 30be 3d97 0fbe 545a 9dbd
000002e0: a0dc 0dbe 0d28 68be 85dc 043e 9015 193b
000002f0: bf6a 09be d5b9 2bbe 5c82 873d bed1 ef3d
00000300: f2dd 46bd 0b97 7e3e d945 b0bd 0b27 383d
00000310: 0ae0 f03d 84ed e33d 33e8 443e 6583 a9bd
00000320: 958f d73d aafc 1abe 670f 82be 78ff a2bd
00000330: 208f 653e 70ce 5abe 7adf 243e 2ec5 713d
00000340: f9d2 27be 9bd2 1dbe fd8a 2bbe 4e83 7b3e
00000350: 80a1 143e 922e 123d 962f 63bd 095e 563e
00000360: b73e 533e 481f a83d c5ee 813d 76e1 85be
00000370: f330 25bd 8328 013e ef27 21be 528f a0bd
00000380: 17f4 27bd 9cde 22bd 9da7 ac3d 0f81 18be
00000390: 25bf 4e3e f9d0 b1bd de49 3bbd c7eb 283e
000003a0: e59b bdbd d603 dfbd 7efe 96bd 1003 87bd
000003b0: ff79 0cbe 212c 19bd d9d7 3b3d af97 513e
000003c0: d0f5 c5bd 64fe 8a3d be28 fb3d 3fae 3a3d
000003d0: 52db 24bd 00a3 36be 188c ad3d c6c8 4bbe
000003e0: 55de d5bd dcd2 53bc effc 293e 4b07 4cbe
000003f0: 3b61 f13d b704 a63d ac7f 84bc 82ad bfbd
0.15733175 -0.0810382 0.11635532 -0.1563593 0.07496279 0.13037951 -0.1566142 -0.18740779
0.13779892 -0.20008716 0.08570447 0.19914235 0.1794905 0.1200972 -0.13636914 -0.021447144
-0.058275968 -0.22852209 -0.0112935165 -0.12205914 0.15882206 -8.184766e-05 0.19443451 0.13104554
0.11299856 0.06619666 -0.19235234 0.16239268 -0.060778715 0.035449713 -0.21559642 -0.072025016
-0.123327136 0.068980634 -0.06813782 0.07736587 -0.21244644 0.0727451 -0.13642073 0.18708229
-0.011928401 -0.050707057 0.19050518 -0.06627133 -0.08404651 0.22303696 -0.20197526 -0.20190452
-0.010259837 -0.020023085 -0.1644792 -0.07197808 -0.1913605 0.118278354 -0.0461308 -0.016930435
0.14457223 0.039820854 -0.04926727 -0.19341634 -0.09065604 0.07212466 -0.19060041 0.10836463
0.11760927 -0.19896896 0.17744821 0.03454047 0.12378773 0.054497574 0.15642768 -0.024454722
-0.078838736 0.19831401 0.18745993 -0.067145176 0.0709493 0.104033805 -0.15133971 -0.21051525
-0.117051005 0.12882589 -0.01140384 -0.05946157 0.0746133 -0.16249579 0.11291583 0.19393036
0.10824661 -0.11449966 -0.0639432 0.0443803 0.08484532 0.021837924 0.060049184 -0.16087426
-0.13879864 -0.011686172 -0.03590661 0.21828207 0.17887807 0.13222606 0.17064956 0.08549599
0.05260341 0.06255418 0.0486851 -0.0046416074 -0.1917155 -0.1528728 -0.037065946 -0.06640978
0.0221506 0.009847582 0.17844869 -0.10245456 -0.12637831 0.14559956 -0.019264817 0.03413758
-0.16236126 -0.23329279 -0.04068265 0.12083384 -0.08848497 -0.17637487 -0.1536398 0.15673597
0.19010173 -0.07267072 -0.09444989 0.14907366 -0.09147552 0.15077758 0.020793932 0.1079244
-0.09083895 -0.015687855 0.11090842 -0.19449767 -0.16644871 0.17281188 -0.034838554 -0.17666651
-0.16885301 0.18582962 -0.15017042 -0.030129721 -0.13770373 -0.19241792 -0.03260858 0.036944836
0.17015871 0.21488862 0.17115805 -0.058828276 0.19732824 -0.23115347 0.021261917 -0.028398499
0.055069678 0.09753591 0.074026614 0.042145744 -0.18069722 0.1825474 -0.0074952105 -0.12893906
-0.16688295 0.21573633 0.2272451 0.008022233 -0.10751993 -0.07509529 0.07139192 0.08587454
-0.084172845 0.092072986 -0.17078331 -0.06608406 0.023369666 -0.1726492 -0.14022537 -0.07683244
-0.13853693 -0.22671528 0.12974747 0.00233588 -0.13419627 -0.16770108 0.06616661 0.11709927
-0.048551507 0.24862306 -0.086070724 0.04495911 0.11761482 0.11129287 0.19229202 -0.08277015
0.10525433 -0.15135446 -0.25402376 -0.07958883 0.22417879 -0.21367812 0.16100875 0.059025936
-0.16389073 -0.15412371 -0.16752239 0.24561808 0.14514732 0.035688944 -0.055465303 0.20934309
0.20629393 0.082090914 0.0634437 -0.26148576 -0.040329885 0.1261311 -0.1573789 -0.07839836
-0.041004267 -0.039763078 0.08430407 -0.14892982 0.20190103 -0.086824365 -0.045724742 0.16496192
-0.0925825 -0.108894035 -0.07372759 -0.06592381 -0.13718413 -0.0373956 0.045860145 0.20468019
-0.09666026 0.067868024 0.1226363 0.04557633 -0.040248223 -0.17835617 0.084739864 -0.19900808
-0.10442797 -0.012928691 0.16600393 -0.19924657 0.11786123 0.08106368 -0.01617416 -0.09359266

linear_relu_stack.0.bias f4 [256]
00000000: 1e65 fbbd 3367 2a3e 618a 773e e354 0b3e
00000010: ffca 483e a260 40be 68ca 053e 85b9 d83c
00000020: 94ee 943d 9b5a a4bb c421 ffbd 0f08 fcbd
00000030: dbc9 c13d 7edc 5a3e eecb ac3d a001 1abd
00000040: fc63 1b3e 6610 7fbd b877 50be 6cbc 7f3d
00000050: 6a69 9bbd 16db b33d afbf 623e 71b2 3ebe
00000060: 5bfd 6abd e099 2c3e 13e5 803e cf2a d7bd
00000070: 8787 0dbe 36fa bebd 2fc8 61be f25f 6d3e
00000080: 3b62 d3bd 0252 a8bd ca72 a2bd d094 533e
00000090: bf41 813e 894e 193d ec5f 3b3e 35be 503e
000000a0: 82a9 a9bd 2016 893e c393 983d d179 1abe
000000b0: a53f 6b3e 9f41 2d3e bd72 a9bd 26ef 68bd
000000c0: 2acf 813d 9848 ed3d e515 3a3e 9d0e 253e
000000d0: 6606 923d 9744 c03d ab09 37be 61e1 df3d
000000e0: 8863 8c3d 0160 7b3d 5f95 213e f32a 5dbe
000000f0: b841 2ebe b654 893d 9600 7d3d 6666 dc3d
00000100: 92e7 e13d f101 1f3d add9 d53d 6d16 153d
00000110: c63d 383e de32 03be 16fe 3dbe e39c 5d3e
00000120: 70a5 0fbe 290e ebbd a71b 413e ecfc 353e
00000130: 3fef 323e e8b3 143e 438f 6c3e 9ecd 4a3e
00000140: 6021 fd3d 7592 45be a365 00bd a891 213e
00000150: 752b 693e 6593 6d3e e7d9 5dbd 136a c1bd
00000160: f087 503e 2a78 803e 9ee6 75bd 499d 673e
00000170: 213d a8bd 298c 0f3e b7d4 ff3d 8db4 2c3e
00000180: f069 203e dcce 6c3e f314 953e 25eb 63be
00000190: b390 283e 532b 643e 540d 463e 1350 cb3d
000001a0: caed 80bd 7d72 5cbe 9cdc 5f3e 3543 01be
000001b0: fa20 8abd 7bcd c53b d4e0 e2bd e075 3f3d
000001c0: 55c3 363c b98b e13c 48fc b1bd ebff 303e
000001d0: 18fc b53d 328c d73d 188e 22be 365a 3bbe
000001e0: fbf8 34be b256 763e 555d 7a3e a963 2dbe
000001f0: ec2c bfbd 79d6 803e 11b5 c5bc 9f4a bdbd
00000200: 5b82 173e 75f6 153c ace7 883e dab7 833e
00000210: ab2a eabd b434 63be c30a e0bc ad4b 92bd
00000220: 2a97 6fbd 7e2e 053e 67ba 7b3e 81a4 343e
00000230: b3cc 2bbe 782b 493e cae4 03be 6597 643e
00000240: c178 48be 067a 243e cd4b 4f3c 3aa6 713e
00000250: 1947 553e 4d60 f63d 0dcc e0bc 2f3a 18be
00000260: c80a b53c 391e 813e 48c3 e23d 7c5a 58be
00000270: a9fa 1d3e 57aa 183d dfad c9bd d2c8 da3d
00000280: a6f7 d23d f159 233e 0af5 683e 9faa fcbd
00000290: 31d9 1bbe 2c7d 66be a73e e1bc 9dd6 f8bd
000002a0: a298 293e 07ba 493e 65b6 373e 99bb 343e
000002b0: 0e8c cc3d 5aa9 7b3e 1e8f 48be e91e 473e
000002c0: b87f 55be 6878 0fbe a222 383d ff88 c7bd
000002d0: 182e 163e 5273 ecbd e3cd 713e a094 3a3e
000002e0: bcd3 623e 1f56 a3bd 5359 4fbe 8641 6cbe
000002f0: 5f80 5ebd b91d 98bd b90d 3a3e 07f9 fbbd
00000300: d1e8 debd 141a 2a3e 470b 013e 3af8 eebd
00000310: 512b 1d3e 1283 623e e785 2dbe d727 283d
00000320: 0146 33bd d2b6 873e 65f1 003e bb5a d43d
00000330: 2c23 d53d 6eab a4bd 62e8 5cbe 7c1c 403e
00000340: db40 62be 055b 5b3e 82fd f83d 6d29 3dbe
00000350: 3ada 07bd 47d6 0c3e 9b75 1c3e 60f9 273e
00000360: 8a1c 3b3e 1b1c 74be 48af 683e 9d4d a1bd
00000370: a5f3 3ebe 46df 01be 8986 0f3e dccd 31be
00000380: 8eaa 53bd 467a 34be f01a 61be fb5d d63d
00000390: db13 703d d951 453e dc6f 3e3e 0ed7 47be
000003a0: 7400 f43d 7fdf 2c3e 5d37 653e ecc5 1d3d
000003b0: e049 99bd 799a 033e 6776 323e 5b4c 2a3e
000003c0: e701 f3bd e885 fdbd 9b56 723e 4b1e 7fbc
000003d0: 0844 8b3e d604 fe3d cc42 75be c5b7 d7bd
000003e0: a87e 0fbe 29c9 4dbe 2b3e 493e ff9d 793e
000003f0: f619 db3c 0992 49be 6f8d b23d a7f9 45be
-0.12275146 0.1664093 0.24173881 0.136066 0.19608687 -0.18786862 0.13065493 0.02645565
0.07272068 -0.005015684 -0.12457612 -0.123062246 0.09462329 0.21373174 0.08437334 -0.037599206
0.1517486 -0.0622715 -0.20358169 0.062435552 -0.075884655 0.08782022 0.22143434 -0.18622757
-0.057370525 0.16855574 0.2517477 -0.10506212 -0.13821231 -0.09325068 -0.2204902 0.23181131
-0.1032147 -0.08218767 -0.079320505 0.20662236 0.25245473 0.037428413 0.1829831 0.20385058
-0.08284284 0.26774693 0.07450058 -0.15085532 0.22973497 0.16919564 -0.08273838 -0.056868695
0.063383415 0.11586112 0.18172415 0.16118856 0.07130127 0.093880825 -0.17874782 0.109316595
0.068549216 0.061370853 0.15779637 -0.21598415 -0.17017257 0.067056105 0.061768137 0.107617185
0.11030497 0.03882021 0.10441909 0.03639834 0.17992315 -0.12812373 -0.18553957 0.21641879
-0.14027953 -0.1147731 0.18858205 0.17772263 0.17474078 0.14521754 0.23101525 0.19804999
0.123598814 -0.1929415 -0.03134693 0.1577822 0.22770484 0.23200758 -0.054162886 -0.0944406
0.20364356 0.25091678 -0.060034387 0.22618593 -0.082147844 0.1401831 0.12491744 0.1686575
0.15665412 0.23125786 0.29117545 -0.2225767 0.16461448 0.22282152 0.19341022 0.09927382
-0.06295355 -0.21528049 0.218615 -0.12623294 -0.06744571 0.006036458 -0.11078039 0.046743274
0.011154969 0.027532445 -0.08690697 0.17285125 0.08885974 0.10524787 -0.15874517 -0.18296131
-0.17673104 0.24056509 0.24449666 -0.16932549 -0.0933474 0.2516363 -0.02413419 -0.092427485
0.1479582 0.009152998 0.26739252 0.25726205 -0.114339195 -0.22188073 -0.027348882 -0.0714334
-0.05849377 0.13006017 0.24582826 0.17640878 -0.16777305 0.19645488 -0.12880245 0.22323377
-0.19577314 0.16062173 0.01265235 0.23598567 0.20827903 0.12030087 -0.027441049 -0.14865945
0.022099867 0.2521837 0.11072403 -0.21128267 0.1542765 0.037271824 -0.098476164 0.10682835
0.103011414 0.15952279 0.22749725 -0.12337231 -0.1521957 -0.22508687 -0.027495695 -0.12150309
0.16562131 0.1969987 0.17940672 0.17649688 0.09987651 0.24576321 -0.19585845 0.19445385
-0.20849502 -0.14010775 0.044954903 -0.09742927 0.14666021 -0.11545433 0.23613696 0.18220758
0.22151083 -0.07975411 -0.20248918 -0.2307187 -0.054321643 -0.07427544 0.18169297 -0.123033576
-0.1088425 0.1661151 0.12601958 -0.11668439 0.15348555 0.22120312 -0.16945611 0.04105362
-0.043767933 0.26506668 0.12592085 0.10368868 0.10407099 -0.0804051 -0.21573022 0.18760866
-0.22095053 0.2142144 0.12157728 -0.18472834 -0.0331671 0.13753615 0.15279238 0.16403723
0.18272606 -0.23838846 0.22723114 -0.07876132 -0.1864763 -0.12682828 0.14016165 -0.17363685
-0.051676326 -0.17624769 -0.21982932 0.10467144 0.058612686 0.19269504 0.18597358 -0.1951563
0.11914149 0.16882132 0.223844 0.03851883 -0.07484794 0.12851895 0.1742798 0.1663069
-0.11865597 -0.12379056 0.2366585 -0.015571187 0.2720034 0.12403266 -0.23951262 -0.10533098
-0.1401316 -0.20096268 0.19652621 0.24376677 0.026745778 -0.19684614 0.087183826 -0.19333516

linear_relu_stack.2.weight f4 [36, 256]
00000000: 3d74 d83c 29f6 b43c 6d5f 643d c00f 953d
00000010: 5743 253d 2564 233c d8e3 c9ba 2237 563c
00000020: a212 0e3d 8e03 8f3c 37ae 89bc 1a02 a1bc
00000030: b701 f43b 45a3 833d 11d9 1bbc e0ad 0b3c
00000040: 4da2 33bd a36b c0bd 58a4 a23b 0223 5e3c
00000050: c51a f23b 5f62 61bc c661 913d 10ae 3e3d
00000060: e360 45bd 9248 6f3c 473a 84bc 2d87 b6bc
00000070: 10a6 643c 6ca5 893d f1de d8bb d1a2 a33d
00000080: cce7 063c a450 093d d767 093d bd5a 8ebc
00000090: 1a63 8b3c a75a e93c bbe6 323d 31c6 c3bc
000000a0: f5f6 0b3d 5bfa 5d3d 8081 ebba 0aab 4e3d
000000b0: 567d 423d a731 b13c a06f f23c 43e6 09bd
000000c0: a467 2fbd 610f 2a3c c7d1 663d f2ca 743d
000000d0: 67e9 b1bb 3b48 183d c010 8aba 61c1 813c
000000e0: 0ab7 1bbd 687f 793d 70d8 243d 0cd9 b5bd
000000f0: 0844 01bc 3e33 f6bc 3d1a 073d ec22 933c
00000100: 99d6 6a3d af60 f73c 3ada 413d 846f 383d
00000110: e57e 4b3d f3bd 363d 54d3 193b b43d 00bb
00000120: 02e4 8dbd 4c7b f0bc 4f6c efbc 68dd dc3a
00000130: 1849 7bbc f634 9d3d d0a2 883c 4690 c63c
00000140: d422 423b cc31 a2bd 178a 0c3d a50a 133d
00000150: a066 073d feb2 c4bc 17ee efbc 37f5 403d
00000160: 2544 933d ec10 143d bef5 7f3b c798 06bc
00000170: a12b 2b3d 8d2a fdba 9fd0 43bd 8170 d13a
00000180: 247a 8d3d eb91 a83c 9a82 ffbb 441e 3ebd
00000190: c27f 913d 60ec 3bbd 1d0d de3c e497 833d
000001a0: 36a5 35bd ac55 42bd 3caf de3c c641 e03c
000001b0: 8a05 78bb 1940 99bb 4294 a6bd a5ee 34bd
000001c0: 51b2 223d c541 afbc cb36 833d 188d 2d3d
000001d0: 5aed 473d 7288 113d d15a 113d 79b7 edbc
000001e0: 71f1 a03c ffac 2d3d 2fa3 2a3d 48a3 213c
000001f0: 6516 133c f888 813c aaab 9ebd 748d 6ebc
00000200: 6501 68bc 50ea fd3b 5609 cbbc d0cb 233d
00000210: 3d9e 0cbd 1013 243c fd4d 41bd 2280 783d
00000220: 6b64 4bbc 6777 583d 2f6b 97bb 1e72 4b3d
00000230: 9d6d 6fbd 3050 9e3b d1d7 783c 7fde 75bb
00000240: 17b4 27bd 0a6b 2e3d 800c 7d3c 467d 0a3b
00000250: 1171 1e3d 807f 523d c8ec ad3c 953e 72bc
00000260: 6034 aebc 78cd cd3c 8c72 e2bc 98f6 a73c
00000270: 328c 9c3d 2288 5f3c ad00 913c 1657 55bc
00000280: 607a fd3c b885 ae3c 9fdc f53c 8bb8 25bd
00000290: 3c53 4abd de50 9cbb 77e5 11bd 6188 603d
000002a0: 9a77 373d c100 e03c 2b88 32bd dea3 473d
000002b0: cdca cc3c 99cb 323d 529d 423d ab44 bd3c
000002c0: 3e9d 373d 48b0 a9bc cbe6 0b3d 3962 0abc
000002d0: bca8 053d 4dc8 593d 07ea a13c 67c9 8cbc
000002e0: 450d 7f3d c578 cc3b b6b6 b33c 929f 6cbc
000002f0: f871 f3bc 5f83 673d 61f3 8f3c e19b f4bc
00000300: 21b2 753b 8e2e c73c 564d 833d 0254 813d
00000310: 9b08 1e3d 4b91 e43c bda9 b73c aa8d 5e3d
00000320: 637c 3f3d 697b 763d 5744 97bc 3d29 26bd
00000330: 8094 de3b ba6a 3abd 07e1 e139 3330 ecbb
00000340: 0622 18bd 5854 9dba 1ca6 18bd ec58 853c
00000350: 324b 793d 720f c93b 558f 9d3c 1a47 e0bc
00000360: 988c 533c 61c7 b8bb 9aa4 73bc c08e d13c
00000370: 2de2 0e3d f02e 1a3c 7d83 5ebc 840d 063d
00000380: 91a2 8e3d 970a a0bd 7833 d3bc 4ed5 8b3d
00000390: 7390 2ebc da9a b4bc d8e9 3a3d 40d6 0e3d
000003a0: d17e 69bb 38cc 0fbd 2fff 23bd 677f 6a3c
000003b0: 6f9e 453d ff1f babc c7c6 b83c dd58 3e3c
000003c0: 3ef6 35bd b87a 2f3a 2e59 a13d 1146 253d
000003d0: 105e 5b3d 5aef a6bb 65ea 583b 7424 033d
000003e0: f59f 013d 3833 adbc 588a 873d 1d80 a4bc
000003f0: 8936 0b3d 00ec 1939 a6df a0bc 11f6 d0bc
0.026422614 0.022090035 0.055755068 0.07278395 0.040347423 0.009972607 -0.0015402986 0.013074668
0.03468574 0.01745775 -0.016806705 -0.019654322 0.0074464935 0.064276256 -0.009512202 0.008525342
-0.043855954 -0.0939553 0.004963439 0.013558151 0.007388445 -0.013756364 0.07098727 0.046552718
-0.0481881 0.014604704 -0.01614107 -0.022281254 0.013955608 0.06721005 -0.0066183736 0.07990039
0.008233976 0.03352417 0.033546295 -0.017377252 0.017015029 0.02848561 0.043677073 -0.023898216
0.034171063 0.054193836 -0.0017967671 0.050456084 0.04748281 0.021630121 0.029594243 -0.03366686
-0.04282345 0.010379643 0.056352403 0.059763856 -0.005429435 0.03717826 -0.0010533556 0.01583928
-0.038016357 0.06091252 0.040245473 -0.08879289 -0.007889755 -0.030053731 0.032984007 0.017960988
0.057333563 0.03019747 0.047327258 0.045028225 0.049681563 0.044614743 0.0023471909 -0.0019568028
-0.06928255 -0.029355668 -0.02922645 0.0016850652 -0.015337251 0.07676117 0.016679198 0.024238717
0.002962281 -0.07919654 0.03431138 0.035898823 0.033056855 -0.024011131 -0.029288335 0.047108855
0.07190732 0.03614895 0.0039056386 -0.008215136 0.041789655 -0.0019315049 -0.04780638 0.0015978963
0.06908062 0.020577392 -0.0077975513 -0.046415582 0.07104446 -0.04587972 0.027105862 0.06425455
-0.04434701 -0.047444984 0.027183168 0.027375113 -0.0037845098 -0.0046768305 -0.08133747 -0.0441729
0.039720837 -0.021393666 0.06406935 0.042370886 0.04881034 0.035530515 0.035487 -0.02901815
0.019646378 0.04240131 0.04165953 0.009865589 0.008977507 0.015812382 -0.07747586 -0.014560092
-0.014160489 0.0077488795 -0.024784725 0.039989293 -0.034330595 0.0100143105 -0.047193516 0.060669072
-0.012414078 0.052848246 -0.0046209316 0.049669378 -0.058454145 0.0048313364 0.015188173 -0.0037516651
-0.04094323 0.04258255 0.015444875 0.0021131798 0.038682047 0.051391125 0.02123107 -0.0147854285
-0.021265209 0.02512239 -0.02764251 0.020503327 0.07643928 0.013643296 0.017700518 -0.013021251
0.030942142 0.021303996 0.030012427 -0.040459197 -0.049395785 -0.0047703823 -0.035619225 0.05481756
0.044791795 0.02734411 -0.04358689 0.04874026 0.024999047 0.043651197 0.047513314 0.023104033
0.044827692 -0.02071394 0.03415565 -0.00844627 0.03263162 0.053169537 0.019764913 -0.01718588
0.062268514 0.006239983 0.02193771 -0.014442341 -0.02971743 0.05652177 0.017572107 -0.029859485
0.0037490206 0.024314191 0.06411235 0.06314851 0.038582426 0.027901312 0.022419805 0.05433432
0.046749484 0.060176287 -0.018465204 -0.04056667 0.006792605 -0.04551194 0.00043083003 -0.007207894
-0.037141822 -0.0012003286 -0.03726779 0.016277753 0.060862727 0.0061358744 0.019233385 -0.027377654
0.012911938 -0.005639002 -0.014870787 0.025580764 0.034883667 0.009410605 -0.013581154 0.032727733
0.06964601 -0.0781452 -0.025781378 0.06827794 -0.010654557 -0.022046495 0.045633167 0.034872293
-0.0035628567 -0.035106868 -0.040038284 0.014312602 0.048246797 -0.022720335 0.022555722 0.011617866
-0.044424288 0.0006694007 0.07878338 0.040350024 0.053556502 -0.005094451 0.0033098694 0.032017186
0.031646688 -0.021142587 0.06618184 -0.02008062 0.033987556 0.00014679134 -0.019637894 -0.025507959

linear_relu_stack.2.bias f4 [36]
00000000: 28fc a8bc ef79 8d3d ac6e d93b 530d 573d
00000010: c156 5a3d 314a 25bd 9643 31ba e0f4 b73c
00000020: f109 873d ecab 6e3d 2d17 c23c 2a02 643d
00000030: 7d72 58ba d1d4 773d 4433 7f3d a18d 463d
00000040: c15e 6e3c 4b10 673d 297f 423d 473d 0d3d
00000050: c922 c4bc 8a75 383c b862 093c 3cc0 2dbb
00000060: 1f3e 263c 24ab c4bb c5d4 aa3d 134e 883d
00000070: e866 2c3d 56f2 aa3c b251 e53a ba3f 073d
00000080: 4eed 2d3c ef56 4fbc 87a4 c7bc 2a66 32bd
-0.02062805 0.069080226 0.0066355076 0.05250294 0.05330539 -0.040353958 -0.0006762085 0.022455633
0.06593693 0.058269426 0.023692692 0.055666126 -0.0008256806 0.060505692 0.06230475 0.04847491
0.014548958 0.056412023 0.04748455 0.034482267 -0.023942368 0.011258492 0.008385353 -0.0026512286
0.010146647 -0.006001847 0.08341364 0.066555165 0.042090327 0.020867508 0.001749566 0.03301976
0.01061566 -0.012655004 -0.024370445 -0.043554462
