models/model_potential_damping_n4.pth (torch, 49512 bytes, 4 tensors)

linear_relu_stack.0.weight f4 [256, 9]
000000 dd bb ea bd 89 65 a1 be 93 bf 94 be 6e 0f 92 be
       -0.11461613 -0.31522778 -0.2905241 -0.28527397
000010 68 fe aa 3a 9f 38 7c 3e ca 79 aa bd 89 22 6f 3e
       0.001304579 0.24630974 -0.08324011 0.23353018
000020 2b de 64 be b4 24 92 be 04 40 b6 3d 8d 34 9b 3e
       -0.22350375 -0.28543627 0.08898929 0.3031353
000030 0a 8a 43 3d e7 e7 93 3e af bf 16 bd bc a9 95 3d
       0.047739066 0.28887865 -0.036803897 0.07307765
000040 59 f4 23 be 8b 9e c7 3d 6f 9d 51 3e 52 c6 94 3e
       -0.1601118 0.097470365 0.20470212 0.29057556
000050 68 1a 9c bc ff 52 a0 3d 17 ae 27 3e a5 dc 05 3e
       -0.01905556 0.0782833 0.16375004 0.1307245
000060 8c 74 3e bd 08 74 74 3e a1 41 52 3e f9 6d 43 3e
       -0.046497867 0.23872387 0.20532848 0.1908492
000070 8d b7 5b be 92 fe 2a 3d b1 cd 23 3e b8 e0 d1 bd
       -0.21456738 0.041746683 0.15996434 -0.1024794
000080 b0 f5 5e 3e 0a d9 3d 3e 80 ac 4e 3e 4b 6e 3c be
       0.2177341 0.18539825 0.20182991 -0.18401448
000090 73 ad 9d 3e 46 fb 5c be 22 35 3d 3e d6 a8 06 be
       0.30796394 -0.21580228 0.184773 -0.13150343
0000a0 51 9c 06 3e 94 4f 3a 3e 7a dd 01 be fb 79 f4 3d
       0.13145567 0.18194419 -0.12682143 0.119373284
0000b0 32 79 19 3e 76 2c b1 bd e0 01 b3 bd c9 d0 98 3e
       0.14987639 -0.086510584 -0.08740592 0.2984679
0000c0 20 ac 41 3c f6 7a 0c 3e 70 4b fd bc a5 89 82 3e
       0.011820823 0.13718781 -0.03091976 0.2549564
0000d0 56 56 74 be b8 dc 0f be 26 38 18 bd 70 79 99 bb
       -0.2386106 -0.14049041 -0.037162922 -0.004683666
0000e0 03 a6 67 3e db 2f bd bd 75 a4 ae bc 66 65 ea 3b
       0.22621922 -0.09237643 -0.021318654 0.007153201
0000f0 9f 4c 30 bd 63 fb 55 be 8f 99 2c be 64 a8 0f be
       -0.04304182 -0.20896678 -0.16855453 -0.1402908
000100 00 39 e5 3c 09 e0 58 be 21 ec 88 3e dc 4a 8a be
       0.027981281 -0.21179213 0.26742652 -0.27010238
000110 3f 8c 8c 3e ce b2 01 be 77 2c 99 be 95 6c 2b be
       0.2745075 -0.12665865 -0.29916736 -0.1674064
000120 ad f2 94 3e ea ba be bd de 06 96 be 96 d9 b5 bd
       0.29091397 -0.09312995 -0.29302114 -0.08879392
000130 59 b6 5f 3c b3 69 c6 3d 50 1b 1a be 11 bf 64 3e
       0.013654315 0.09688129 -0.15049481 0.22338511
000140 08 24 29 3e 58 dd 0b be e1 2c 87 be b2 e2 64 bd
       0.16517651 -0.13658655 -0.26401427 -0.055880256
000150 f4 b5 db bc 7f c1 41 3e 1b 2a 56 3d db 60 21 be
       -0.02682016 0.18921469 0.05228625 -0.15759604
000160 21 f4 28 3e 73 a4 cd bd e6 26 9f 3e 72 05 3a 3e
       0.16499378 -0.10041132 0.31084365 0.1816614
000170 60 0f 2d 3e 45 26 33 be c8 a0 71 3e 23 9c 69 3e
       0.16900396 -0.17495067 0.2359649 0.22813468
000180 5e 58 9a 3e c7 9f 78 3e 9b 59 76 be d6 bf 88 3e
       0.30145544 0.242797 -0.2405762 0.2670886
000190 70 f8 76 3e ef 54 4d 3e b9 1d af bc a1 f8 d7 3d
       0.24118209 0.20051931 -0.021376478 0.10545469
0001a0 f0 6d 89 be 24 62 90 3e 1c 6a e8 3d 75 a6 89 3d
       -0.26841688 0.28199875 0.11348364 0.06721202
0001b0 50 fd ac bb da 11 8a be e3 30 8b be 1e 2c 6a be
       -0.0052792206 -0.26966745 -0.27185735 -0.22868392
0001c0 c5 e7 4a bb 44 0a 38 be aa 74 a8 3d 85 e7 b9 bd
       -0.00309609 -0.17972666 0.08225377 -0.09077362
0001d0 72 11 44 3e 73 fa d6 bc 09 b8 71 3e ec 9a a0 bd
       0.1914728 -0.02624247 0.2360536 -0.07842049
0001e0 01 9b 2c 3e d9 23 93 bd 26 e9 0f 3e 8a a5 80 be
       0.16856004 -0.07184572 0.14053783 -0.25126296
0001f0 c7 c6 73 be 88 7b 11 be 4b 51 df bd 0b 4b a3 bc
       -0.23806296 -0.1420728 -0.10904177 -0.019933244
000200 b2 83 d1 3d b5 e2 4a be 9f 20 97 be 4e 29 73 3e
       0.10230197 -0.19813044 -0.29517075 0.23746225
000210 12 96 a5 3c df d5 e3 bc 63 68 50 bd 47 e1 7a be
       0.02021316 -0.027811943 -0.0508808 -0.24499999
000220 6f 6f 87 3c ed 22 69 be 4c 56 90 3e 01 0b 77 be
       0.016532628 -0.2276723 0.2819084 -0.24125291
000230 97 30 11 3c 5e c2 b1 3e 0c 64 86 3e da c7 46 be
       0.008861682 0.34718603 0.26248205 -0.19412175
000240 4d 2d 29 be 0d 31 bc 3e ba 9c f2 bc 3f 50 0b be
       -0.16521187 0.36756173 -0.029615749 -0.1360483
000250 66 a9 ad be 86 a8 9b be 77 7e 41 3d 4b fa 8a be
       -0.33918303 -0.3040201 0.047239747 -0.27144083
000260 80 4c 7e be b7 a5 f5 3d d4 d5 81 3e e4 0a 6c 3e
       -0.2483387 0.11994498 0.2535845 0.2305103
000270 e2 41 2f 3e ff 01 0e 3e f1 e6 ab 3e c4 ac cc bd
       0.17114976 0.13867949 0.33574632 -0.0999389
000280 68 d8 5c 3e c1 56 67 3e 33 f3 e7 3d b5 d5 16 3e
       0.21566927 0.22591688 0.113256834 0.1472996
000290 0e 46 5c 3c 27 cd 6a 3e fc 1e b8 3d 3e 6c 6e 3e
       0.013444437 0.22929822 0.08990285 0.23283479
0002a0 57 a3 e0 bc 74 49 2a be 9f 6e ea 3d 94 d6 8a be
       -0.027421637 -0.16629583 0.114468805 -0.27116835
0002b0 b9 fb ad bd 66 ba 8f 3e 11 1d 09 be 44 0c 21 bc
       -0.08495278 0.28071898 -0.13389994 -0.0098295845
0002c0 69 f0 90 3c a5 8a 3d 3d e1 a1 59 3e 1b 04 3d 3e
       0.017692761 0.0462748 0.21253158 0.18458597
0002d0 8f eb 11 be 08 b3 b5 3d f2 d4 23 be f4 a8 5a 3e
       -0.14250015 0.08872038 -0.15999201 0.21353513
0002e0 b0 df 90 3d e9 77 02 be 9f 68 52 3e 33 0d 1c 3e
       0.07073915 -0.12741055 0.20547722 0.1523941
0002f0 1a 3c dd 3d dd e5 0a 3e c9 bb 8e 3d 50 65 93 be
       0.10802479 0.13564248 0.06969411 -0.28788233
000300 bb cf 7a be b8 29 68 3e c2 9f ce bd d4 d6 1f 3e
       -0.24493305 0.22672164 -0.10089065 0.15609294
000310 f2 6c 86 3e d1 7b c6 3d e6 cf b0 3d f6 44 27 3e
       0.26254994 0.09691585 0.086334035 0.163349
000320 4b 6d 16 bd d6 2a 04 be 5c 67 f2 bd 9c 7e 16 3e
       -0.036725324 -0.12906966 -0.118361205 0.14696735
000330 bb 21 76 3e 72 5e ad 3e eb 98 4f be e6 f0 19 be
       0.24036305 0.3386112 -0.20273177 -0.15033302
000340 d0 d3 87 3d 0f 79 3c 3e 0a 9e 03 3e 5b 43 18 3e
       0.06632197 0.18405555 0.12853256 0.14869444
000350 d0 f6 65 3d d5 30 4f be d9 c8 52 3e e6 34 6b 3e
       0.056143582 -0.20233472 0.2058443 0.22969398
000360 66 23 96 be 11 e8 b2 3d 6b 77 01 be a8 a7 93 3d
       -0.29323882 0.087356694 -0.1264321 0.07209712
000370 6a 89 0b 3e 53 c3 0b 3d 00 33 8f 3e bc e9 3f 3e
       0.13626638 0.034121823 0.27968597 0.18741506
000380 0f c9 de bc 97 96 d7 bd 75 50 ba bd 82 59 95 3e
       -0.027195482 -0.105267696 -0.09097377 0.29169852
000390 5b 67 7b 3e a6 80 a4 3d 96 9c 69 bd 4f 9a 94 3d
       0.24551146 0.0803235 -0.057034098 0.072559945
0003a0 95 64 57 3e 00 38 9d bd 9e 7a dd 3d e0 87 52 3e
       0.21034463 -0.07676697 0.10814403 0.20559645
0003b0 2c 7a 7b be 98 46 b0 be c4 a0 03 3e 50 1d 19 bb
       -0.24558324 -0.3442886 0.12854296 -0.002336342
0003c0 86 2d 75 be 7b 5a 97 3d 7a 9b 9b 3c 8b ad ff bd
       -0.23943147 0.07390305 0.018995035 -0.124842726
0003d0 ed 74 20 3e f1 ee a0 3e 20 bd 81 bd a9 c3 38 bd
       0.15669604 0.31432298 -0.06334901 -0.04510847
0003e0 87 50 75 be 39 be 3f be 4b 5a ba 3a f9 b5 91 3e
       -0.239565 -0.18724908 0.0014217583 0.28459147
0003f0 c2 eb 36 be 59 f2 57 3e 90 4f 8c bd ca a1 53 bd
       -0.17863372 0.21088542 -0.06851113 -0.051667966

linear_relu_stack.0.bias f4 [256]
000000 59 b8 0a be 9f 44 a5 3e 85 35 92 3e 21 61 9b 3d
       -0.13546886 0.32278916 0.28556457 0.07586885
000010 bb f0 8a 3d 1b 9f 05 be 60 83 81 3e 5b ae 6b bc
       0.06784197 -0.13048975 0.25295544 -0.014384831
000020 a8 7c 23 3d 19 e0 8f 3e ad 85 f7 b9 89 33 e1 bd
       0.039913803 0.2810066 -0.00047211107 -0.10996158
000030 fa 57 a7 3e 9d 30 88 3e d3 5a 49 3e c2 00 e1 bd
       0.32684308 0.2659959 0.19663553 -0.10986473
000040 56 94 4d be 5c 02 62 be 10 af aa 3e dd 02 43 be
       -0.20076117 -0.22071213 0.33336687 -0.19044061
000050 b7 ea 59 3d 1e 0f ba 3c 69 ea 13 bd a4 88 95 3e
       0.053202357 0.022712287 -0.036112223 0.2920581
000060 37 21 b6 3e 04 cf 47 3e 21 59 5e be 9e 62 97 be
       0.35572216 0.19512564 -0.21713687 -0.29567426
000070 b7 e3 a5 be 55 df 2a bd f0 1d 8f 3d ce b5 94 3e
       -0.32400295 -0.041716892 0.06988132 0.29044956
000080 85 02 55 3e 4e 79 e5 3d 9e 28 d0 bd c5 01 2c 3e
       0.20801742 0.11204778 -0.10163997 0.1679755
000090 25 a9 5d bd bb c0 ac bd 80 36 ff bd 36 70 07 be
       -0.054116387 -0.08435198 -0.12461567 -0.13226399
0000a0 4a 45 80 be c5 13 b4 3d 5f 4f 1e bd 50 7f e4 3d
       -0.25052863 0.08792833 -0.038649913 0.111570954
0000b0 3e 0a 69 3e ac f9 b3 bd 78 8d 10 bd 93 71 80 3d
       0.22757813 -0.087878555 -0.035291165 0.062716626
0000c0 2c af 8f 3e fb 2a b6 3d 34 b6 9f 3d 21 a6 6f bd
       0.28063333 0.088949166 0.07798424 -0.058508042
0000d0 a3 4c b8 bd 41 5e 8e bd 96 f8 a1 3e 5e 08 2d 3e
       -0.08998992 -0.06951571 0.3163497 0.16897723
0000e0 27 f4 aa bd 21 85 45 3c 9f ae 7c be a0 81 81 be
       -0.083473496 0.012055666 -0.24675988 -0.2529421
0000f0 16 2e 58 3e 61 d2 09 3c 92 76 70 3e fb c0 a4 3d
       0.2111133 0.008411975 0.23482731 0.080446206
000100 40 35 44 3c 23 3c f1 bd 22 51 9d bd ce 47 98 be
       0.011975586 -0.11779048 -0.076814905 -0.29742283
000110 a6 42 63 bc 19 d0 25 3e 7c 97 35 3e ff 64 75 3e
       -0.013870871 0.16192664 0.17733568 0.23964308
000120 7a 1c 92 3e 6c d4 ab 3e 4b c6 a3 be b5 50 c7 3c
       0.2853735 0.33560503 -0.31987223 0.024330476
000130 72 6b bb 3e 59 6e a4 3d 94 c5 b3 3d a4 f6 9b 3e
       0.36605412 0.0802886 0.087779194 0.3046161
000140 80 b5 60 be 6c 2d 99 3e f1 30 31 be 10 e9 3b bd
       -0.21944237 0.29917467 -0.17303826 -0.045876563
000150 74 ec 86 3e af 18 05 3b fb 27 21 be 00 80 04 be
       0.26352274 0.0020308902 -0.15737908 -0.12939453
000160 d1 af 12 3e 29 10 b7 3e c1 c2 e2 ba 33 13 9d 3e
       0.14324881 0.35754517 -0.0017300473 0.3067871
000170 13 8d 53 3d bd 96 8c bd 1a fa 91 3d ff 30 c3 3d
       0.05164821 -0.068646885 0.07127781 0.0953083
000180 63 ce f2 3d be db 77 3e f4 d6 a6 be 7b fd 3e 3e
       0.118557714 0.24204919 -0.3258587 0.18651383
000190 cf c4 61 be b6 ee 0b 3e 94 1d ba bd 8a 02 26 3e
       -0.22047733 0.1366528 -0.09087673 0.16211906
0001a0 00 f3 b8 3e 8b fc 25 be 4e 61 a3 bd b7 30 37 3e
       0.36122894 -0.16209619 -0.07977544 0.17889677
0001b0 a3 12 3d 3e 3e f5 dc 3c 97 f0 1a be b5 43 ac 3e
       0.1846414 0.02697241 -0.1513084 0.33645406
0001c0 92 9b 03 3e 6f b3 92 be 84 10 92 be 2e 7f 8d be
       0.12852314 -0.28652522 -0.28528225 -0.27636093
0001d0 9c 22 64 be 18 f0 35 bd df bf 2c be 6a 47 11 3e
       -0.22278827 -0.044418424 -0.16870068 0.14187399
0001e0 c7 2c cf bd 83 05 24 3e a2 6c a6 be 24 40 59 3e
       -0.101159625 0.16017728 -0.32504755 0.21215874
0001f0 b6 16 c8 3a a0 c8 b7 bd 82 be 04 3e 65 ee a5 be
       0.0015265557 -0.08973813 0.12963298 -0.32408443
000200 ff f6 2c be 98 77 4b be 77 fc c0 3d a6 18 73 be
       -0.16891097 -0.1986984 0.09423154 -0.23739871
000210 33 b8 13 be f9 ca 7d 3e d8 f0 8f 3e f5 60 96 3e
       -0.14425735 0.24784459 0.28113437 0.29370847
000220 d0 be 03 bd bb 66 88 3e f5 48 90 bd 80 5e 85 3e
       -0.032164395 0.26640877 -0.070451654 0.2604866
000230 26 60 40 be 81 97 30 3e 1e c5 93 3e ba e1 be 3b
       -0.18786678 0.17245294 0.28861326 0.0058252485
000240 23 f5 50 3e 69 41 5b be c6 42 17 be cc bb e2 bd
       0.20406012 -0.2141167 -0.14771566 -0.11070976
000250 cf cb 9f 3e 97 7f b0 3d 1c 02 e1 bd 83 ce 6f be
       0.3121018 0.08618086 -0.109867305 -0.23418622
000260 a6 62 93 3d e6 7e 02 be 79 9d b6 3c dc 58 f9 bd
       0.0719655 -0.1274372 0.022291886 -0.12175152
000270 24 ee fe bd 9a 2d cd 3d bc db c5 3c 8f 90 81 3e
       -0.124477655 0.100184634 0.02415263 0.25305602
000280 dd 63 ba 3e d4 ee 83 3e e0 dd 40 3e 1f b3 70 bd
       0.36404315 0.2576815 0.18834639 -0.058764573
000290 c4 0f ef bd f6 18 7f be c0 2a f2 3d 46 b3 6d 3d
       -0.11672929 -0.24911866 0.1182456 0.058032297
0002a0 5e 18 89 3e a3 47 aa be 08 95 02 be 80 13 5b 3d
       0.26776403 -0.3325778 -0.12752163 0.053485394
0002b0 76 f8 a7 be 0f 6b e8 bd 0c ab 9b bc 6f 7d 88 3b
       -0.32806748 -0.11348545 -0.01900246 0.0041653435
0002c0 a2 e5 2c 3e 6f a5 c3 bd 78 d1 73 3e d6 8d b0 bd
       0.16884473 -0.09553038 0.23810375 -0.08620803
0002d0 65 ff 85 be ce a9 bd bd d0 24 71 be 3d 4f 08 3e
       -0.26171413 -0.09260903 -0.23549199 0.13311477
0002e0 02 2f a6 3e 8d 7b b1 3e 46 66 fc bd ac f1 80 3e
       0.3245774 0.34664574 -0.123241946 0.2518438
0002f0 5e e9 01 3e 6e af ab 3d 69 08 12 be b8 0e b2 3e
       0.12686679 0.0838307 -0.1426102 0.34776855
000300 8d 08 45 bd cc 0a 00 be ae ae e9 bd d1 73 b8 3c
       -0.048103858 -0.12504119 -0.11410271 0.022516163
000310 2e b5 33 3e 90 5e e6 bd cc c2 f5 bd c1 a4 a8 3e
       0.17549583 -0.11248505 -0.12000045 0.32938197
000320 8a 4f 9f be f9 e1 b2 3d e1 f9 98 3e 49 a2 9c 3e
       -0.3111537 0.08734507 0.29878142 0.30592564
000330 f5 36 91 be 65 da 60 be 9b a4 7e be 95 a9 7b be
       -0.2836224 -0.21958311 -0.2486748 -0.24576409
000340 9e e7 88 bd 45 b7 51 3e 9a 66 c9 3c ab b9 22 be
       -0.066848025 0.20480068 0.024585057 -0.15891139
000350 ad 4e 44 3e ef 37 99 3e de c2 95 3e 5c e5 89 3e
       0.19170637 0.29925486 0.29250234 0.269328
000360 8e b4 bf 3e 37 a2 74 bc d8 66 7b be 3e 72 bb 3e
       0.3744244 -0.014931253 -0.2455095 0.36610597
000370 c9 27 91 bd f4 a9 7d 3e c9 0b 37 be c6 93 af 3d
       -0.070876665 0.24771863 -0.1787559 0.085731074
000380 84 c4 8c be 70 ec ba bd c2 43 22 3e d1 f7 74 3e
       -0.2749368 -0.09127128 0.1584616 0.2392266
000390 7b bf d8 3d 20 ae 19 be 6e 66 29 3d ae bb d5 3d
       0.10583397 -0.1500783 0.04135745 0.10436188
0003a0 b8 dc 3c be 56 75 20 3e d6 1d ba 3e aa 96 85 3d
       -0.18443573 0.1566976 0.36350888 0.065228775
0003b0 3c 83 f0 3d 3b 58 a9 3e 8e 27 9b 3d d3 ed 7f be
       0.11743781 0.33075127 0.07575904 -0.24993066
0003c0 58 93 4e be 81 1b 47 3d 2a 95 6d 3e fb bd 04 3d
       -0.20173395 0.048610214 0.23201433 0.032407742
0003d0 e4 b8 72 3e 4c 02 1b be 37 df 17 be fc 17 81 3e
       0.23703343 -0.15137595 -0.14831243 0.2521361
0003e0 dc f1 a0 3d 94 cd 90 bc a0 68 94 3e 94 e2 9c be
       0.07858631 -0.017676152 0.28986073 -0.30641615
0003f0 c8 ee 90 3e f2 9a 90 3e 2e 7c ee bd c6 5a 78 bd
       0.28307176 0.28243214 -0.11644779 -0.060633443

linear_relu_stack.2.weight f4 [36, 256]
000000 05 c9 9d bb 90 93 5a bd f0 72 6d 3c 35 96 59 3d
       -0.004815223 -0.053363383 0.014492735 0.053121764
000010 2a 77 d0 3c f0 27 65 3c e6 65 85 3d ee de 3c 3d
       0.025447447 0.013986573 0.06513576 0.04611104
000020 ee 20 3b bc b1 63 25 3d 5f cc 62 3d c7 c7 95 3d
       -0.011421425 0.040378276 0.055370685 0.07313495
000030 8c 50 03 bd 72 b5 06 3d 6f b9 3e 3c c4 d9 a1 bc
       -0.032059237 0.032887883 0.0116408905 -0.019757159
000040 f0 8e c3 bc d7 0f de bc 51 f3 d3 3c b7 dc cd 3c
       -0.023871869 -0.027107162 0.025872858 0.02512966
000050 b0 3b 4c bd 2a 85 6e 3d b6 58 35 bd 7e ca 43 3d
       -0.04986161 0.058232464 -0.044274054 0.047800533
000060 fd ef e2 3c 27 4a 1c bd a2 7d bb 3b df 8b 2a bd
       0.027702326 -0.038156655 0.0057217637 -0.041637298
000070 ed 26 16 bc a2 d7 15 3d 0e 27 87 bb 83 67 7f bc
       -0.009164554 0.036582597 -0.0041245287 -0.015588644
000080 9e bc 33 3d ad 0e 1d bd dd 11 96 3c e8 22 0d 3d
       0.04388105 -0.038344074 0.018319065 0.034457117
000090 c1 60 03 3c 50 70 9c 3b 2d f7 40 3b 85 4e 12 bd
       0.008018673 0.004774131 0.0029444203 -0.035719413
0000a0 3c 98 d4 bc 53 20 50 3d 59 55 d5 bc 2f 3b 11 3c
       -0.025951497 0.050812077 -0.026041673 0.008864208
0000b0 3e a0 12 bd c2 cc 2b 3d f2 4d 13 3d e2 7c 53 bd
       -0.03579735 0.04194332 0.035963006 -0.05163277
0000c0 f8 3c 57 3d 99 83 18 b9 07 11 87 3d 30 ba 55 bc
       0.05254838 -0.00014544874 0.065950446 -0.013044879
0000d0 51 5d d9 3b c3 8b 51 3a 19 f6 99 bb c8 81 0d bd
       0.0066334386 0.00079935434 -0.0046985266 -0.034547597
0000e0 93 63 9f 3c 86 55 9a 3d 11 e1 d4 ba 24 49 0f 3d
       0.01945666 0.075358436 -0.0016241391 0.03498186
0000f0 cf cd 4d 3c 7f c0 3e bc 62 be 0d bc 9e a4 fe 3b
       0.012561276 -0.011642574 -0.008651348 0.0077710887
000100 72 9c 6c bd 3b 60 25 3d 38 0d 3b 3c 54 fd 3f bd
       -0.057766385 0.040374976 0.011416726 -0.046872452
000110 c6 8a 46 bd 3e c6 53 bc ab 79 a4 3b 1e 3b 1c 3d
       -0.04847219 -0.012925683 0.0050193868 0.038142316
000120 22 52 d8 3c 3e 4d 17 bd 00 16 87 bb ac 7f bd 3c
       0.026406351 -0.0369389 -0.0041224957 0.023132168
000130 73 49 0c 3d 72 2a 08 bd 4b 44 c9 3b da b8 9a 3c
       0.034249734 -0.033243604 0.0061421744 0.018886972
000140 0e 86 36 bd d7 e4 b7 3a 7d 58 73 bd 50 ec bb 3c
       -0.04456144 0.0014029992 -0.05941056 0.022939831
000150 cf 40 90 3d 1c ff ec bc 5d 74 3a bc 57 f5 df b9
       0.07043611 -0.02893024 -0.011380282 -0.00042716667
000160 66 50 1d 3c f8 ae 45 3d bf c3 9f 3b 9b dc 04 3d
       0.009601688 0.048262566 0.0048756297 0.03243695
000170 1e 77 32 3d d4 b1 5c bc 28 5b c5 bc 53 5a df 3c
       0.04357063 -0.013470132 -0.024091318 0.02726475
000180 cd af c0 bc 23 07 05 bb 98 62 78 bc a5 fd 5a 3d
       -0.023521328 -0.0020298443 -0.015160225 0.05346455
000190 d4 42 0f 3d f8 31 f7 3c 5e 2f 9e bb d0 de 4c 3c
       0.03497584 0.030175194 -0.004827424 0.0125042945
0001a0 cf 74 2a bd 9b b3 43 bd 05 27 26 3d 42 9e f0 bc
       -0.041615304 -0.047778707 0.040564556 -0.029372338
0001b0 50 dc c6 bc ef dc 53 bd 27 7d 8a bc 0e a9 f8 3c
       -0.024274975 -0.05172437 -0.01690538 0.030354049
0001c0 8d ba c3 bc 40 3c d7 3c 79 7b 54 3c 32 83 1e bd
       -0.023892665 0.026273847 0.012968891 -0.038699336
0001d0 e2 a7 c3 bc 31 6a 15 3d 52 37 4f ba 0b 11 8f ba
       -0.023883764 0.036478225 -0.00079046667 -0.0010915113
0001e0 a8 1b df bc 03 b4 88 bc 1c 14 39 3d ce 7f 12 3d
       -0.027234867 -0.016687399 0.045185193 0.035766415
0001f0 f6 d2 43 bd 30 6a 18 3c d1 dd 31 3d e0 a0 bc bd
       -0.04780861 0.009302661 0.04342443 -0.09210372
000200 c9 82 d5 3c c4 6f c7 bc a7 5a 81 bc 70 0d 24 bd
       0.02606334 -0.024345286 -0.015790297 -0.040051877
000210 de f2 cb 3b 0e 71 92 bc 45 af 24 3d ef 93 d3 bc
       0.0062240204 -0.017876174 0.040206213 -0.025827376
000220 f1 3d fa bc 48 08 97 3b 76 3a 80 3d 36 21 89 bc
       -0.030547114 0.0046091415 0.062611505 -0.016739469
000230 64 d5 ee bc 63 fe cb 3c 3a 48 5f 3c 05 27 31 3d
       -0.029154487 0.024901574 0.01362806 0.043250103
000240 4a f1 f5 bb a4 86 19 3c 00 00 77 3a b6 9f 06 3d
       -0.0075055705 0.00937048 0.0009422302 0.032867156
000250 3f 74 b9 3b 0e e6 a6 bb c8 1a 78 3d fa 37 bf bc
       0.0056596096 -0.0050933426 0.060572416 -0.023342121
000260 f7 fe e3 3b fa 6c 95 bd fb 1d de bc b1 a1 5d 3c
       0.0069578844 -0.07296176 -0.027113905 0.01352732
000270 9a d3 41 3d 7d 77 36 bd a6 20 60 3b a9 5f 31 3b
       0.04732094 -0.044547547 0.0034199147 0.0027065075
000280 29 51 bb bc ab b6 8f 3d 7c 3e 00 3c 10 bf ef bb
       -0.022865849 0.07017263 0.007827397 -0.0073164776
000290 69 37 c5 3d 49 7d 1c bc 27 76 38 bc 4c 1d 97 bb
       0.09629709 -0.009551355 -0.011258638 -0.0046116468
0002a0 88 e0 12 3d 88 34 83 bc 4c 21 a3 3d 45 f3 05 3d
       0.03585866 -0.01601626 0.07965335 0.032702703
0002b0 54 50 ee bc de 7e be bb 8f 00 c6 bc 8f 4b 16 bb
       -0.029091038 -0.0058134636 -0.024170188 -0.002293322
0002c0 2a 5d 87 bc 33 b3 44 3d 45 fd e8 bc 48 4a 5d 3d
       -0.016523916 0.04802246 -0.02844108 0.05402592
0002d0 ff bb 5a bd 4a e2 b8 3d b8 56 7d bd 7a 4e 0f 3c
       -0.053401943 0.09027536 -0.06185028 0.008746738
0002e0 ad fd 79 3d 33 71 09 bd 56 4a 60 3d 45 ec 80 3d
       0.06103294 -0.03355522 0.054758392 0.06295065
0002f0 1d b3 fe 3c 90 ab 7e 3d 31 68 49 3d 9c bd 80 3d
       0.031091267 0.062175333 0.04917163 0.06286165
000300 13 f0 85 bd f3 14 13 3c 2d b0 b7 bc 52 a9 9a bc
       -0.06539931 0.008977163 -0.022422874 -0.018879566
000310 24 0e 08 bd 40 0f d3 3b 3f 98 92 3d 1b fa 40 bc
       -0.03321661 0.006441027 0.07157945 -0.01177838
000320 eb 57 1d 3d 41 0a 7b 3d 86 1c f9 3c fe e4 48 3d
       0.038413923 0.061289076 0.030409109 0.04904651
000330 21 bc 58 bd da 2d 99 bc bc 6a 2c 3d a9 78 5d bc
       -0.05291379 -0.018698622 0.042093977 -0.013517537
000340 9e ed fc bc 50 64 25 3d 1a 99 9b 3d 12 90 a9 bc
       -0.030875023 0.04037887 0.07597561 -0.02069858
000350 db 9a ff bc e6 23 80 3d c8 18 82 3d 9d e4 03 3c
       -0.03120177 0.06256847 0.06352383 0.008050111
000360 94 1a 3c 3d 79 59 e7 3b b0 e9 ec bc b7 19 e5 bc
       0.045923784 0.0070602265 -0.028920025 -0.027966363
000370 d7 f5 3e 3c bd 3f 56 bc 6a 31 23 bd 81 d7 8c 3d
       0.0116552925 -0.01307672 -0.039842047 0.068770416
000380 77 38 f9 bc 40 a0 55 bb bb 49 2c 3c f1 6d 33 3c
       -0.030422432 -0.0032596737 0.010515626 0.010951505
000390 7b 62 6f 3d 70 e6 b0 bb 23 80 85 3d 87 7a 65 3d
       0.058443528 -0.005398564 0.06518581 0.056025054
0003a0 40 81 8a ba ea 49 5e 3d f7 09 1e bd f0 c7 2a 3d
       -0.0010567084 0.05426971 -0.038583722 0.04169458
0003b0 7e 00 52 3d 10 c1 6c 3d b4 c4 23 3d 28 b1 1d bd
       0.05127 0.057801306 0.039982513 -0.038499027
0003c0 92 f1 9a bd 43 f5 af 3d e3 3c 7e 3d 90 1d 55 3d
       -0.07565607 0.08591702 0.062069785 0.052030146
0003d0 3d fe 35 3c 2a 1b 1e 3d 7d fe 14 bc 27 f5 05 3d
       0.011107978 0.038600124 -0.009093878 0.0327045
0003e0 e8 ce 1f 3b 37 fd 54 bd de a9 23 bc 9e 4e 53 3d
       0.00243848 -0.051999297 -0.00998923 0.051588647
0003f0 3b 85 3c 3d 31 38 2c 3d 1c 74 5e 3d 84 c7 06 bd
       0.046025496 0.042045776 0.05430995 -0.032905117

linear_relu_stack.2.bias f4 [36]
000000 d8 06 8f 3d ab 03 b1 3c e6 f2 0b bd 90 85 ac 3d
       0.06983727 0.021608194 -0.034167193 0.084239125
000010 83 6b 0c bd 9d 6d 7c 3d fc 04 48 3d fe b6 07 bd
       -0.03428222 0.061627973 0.04883288 -0.0331335
000020 24 b0 78 3c 9c 98 6c 3b 37 ba a7 3c db 62 3b bb
       0.015178714 0.0036101704 0.020474536 -0.0028592858
000030 51 9e e0 3c 2f ca 81 bc 2b db d5 bb f2 31 0b bd
       0.027419241 -0.015843479 -0.006526371 -0.03398318
000040 97 85 78 3c 4b 76 67 3c bf bd 93 3d b4 86 23 3d
       0.015168569 0.014127324 0.072139256 0.039923385
000050 5c cf 37 3d 20 65 c3 3d 05 22 84 3d 82 8b 2e 3d
       0.044875488 0.095407724 0.06451801 0.042613514
000060 7f f1 2a 3d 25 7b a7 3b b1 9d 02 bb b4 05 54 3d
       0.041734215 0.0051111155 -0.0019930417 0.05176325
000070 e0 51 aa 3d 95 7e 0a 3d 49 8d a0 3d a8 f2 d1 bc
       0.08316398 0.033812124 0.07839448 -0.025628403
000080 af bc 74 b8 56 d1 69 3d b4 61 44 bd 61 3c 06 bd
       -5.834986e-05 0.057084404 -0.04794474 -0.032772426
